models/model_episode_4400.pth (torch, 77430 bytes, 6 tensors)

fc1.weight f4 [128, 3]
00000000: 41ab d83e ddc6 083f e0b6 1bbe c76a 003f
00000010: d4c1 e1bc f360 253e d6b2 89be 39ce d13e
00000020: a523 103f b059 01bf 2405 103f b3f0 b43d
00000030: a4e7 c83e 0263 133e d020 943e 14ad dfbd
00000040: 855c 033f 9041 553d 19c7 8dbe 25fa 0f3e
00000050: fe31 88be 3caa 8abd 9e1f 70be 3c18 c43e
00000060: 4183 e7be 60d9 61be f6ac 35be 868c b2be
00000070: cfb9 173e 4fbf 09bf 44ba 063f 9f90 e8be
00000080: 27f3 f03e b6c6 c43d adf7 3fbe 07ab b63e
00000090: acfb a13d 3ca8 093f de2e c53d 7697 30be
000000a0: 2f65 8e3e 76ba d7bd f533 773e 6d2b 1d3f
000000b0: 8664 b33e 6676 a9be a793 c93e ede9 073e
000000c0: 231e 963e f62b b4be 644f 12bf ae18 85be
000000d0: 8eb6 dabe 1b95 fe3e 9d66 223e 251f a73e
000000e0: b80f 433e 8c5f 78bb 2866 0b3f d220 dcbe
000000f0: f7e5 143d dbc2 c9be bd4c 363e e299 4bbe
00000100: c527 353e 8358 f6bd c62b f53e 6534 afbe
00000110: 184c b0be 84be 9fbe f41e 293f c8ec 663e
00000120: e638 0e3f 54f4 f3be d799 12bf f344 e7be
00000130: 61d9 c6be 6276 6f3e 1dff 4c3e be33 0e3f
00000140: 510a 9bbe d408 94be ca10 e63e b645 48be
00000150: e2ba 9c3e ba3e 9abd 7e72 ae3e ed4f eabe
00000160: b0c2 99be 0af8 2a3e 98c4 fd3d 9dd1 aebc
00000170: dfe8 c23e 31f4 c83e 195d d6be 2fd0 9dbe
00000180: acae 023f 427f 5bbe 3300 54be 1903 0fbf
00000190: 8148 a9be 83af 133e 0c12 9cbd 0693 d6be
000001a0: 51e2 5d3c d2eb c9be f4c9 fabe 18c7 a2be
000001b0: 995b 01bf ce38 bcbe 6dbe 133f 6ae9 0a3e
000001c0: 7f2e 8f3e 30da 09bf 0025 c2be 5dc9 44be
000001d0: 32e5 b83d 4876 b7be 0590 b0bd 87cd a4be
000001e0: e085 27bc 57de 24be 77ca 45bd 424f c8be
000001f0: 94e6 cabe 9d74 acbe 585e 4abe 6650 e9be
00000200: c0da f73e 5d81 03be b6d4 183f a6b6 743e
00000210: 39b0 e4be 1e6e 013f 4435 08be fb9f 62be
00000220: 215f f5be 48f0 12bf a2ee 0b3e d184 06bd
00000230: bd0d 863e 5048 c4be a522 0d3f d837 ccbe
00000240: 6792 fdbd e740 253e 0ca1 ae3e ac2c e93e
00000250: dba7 1d3f ae9e e2be 91c9 143e 184b 7ebe
00000260: 1593 81bd 2e4f ddbe 4db3 203f 8c66 d5be
00000270: 3020 873e b3d6 873e 0112 7e3e b9c3 aebe
00000280: d34b 143f 0c61 f73d 101b 983d 3d40 02bf
00000290: 872e 783e defa dfbd 9bf6 89be 1df7 003f
000002a0: 0ecf 033e e48c a3be c99d 95be fa82 99bd
000002b0: 75f5 c83e 5e9b f9bd f1a9 a8be 5b74 4abe
000002c0: 7bd6 dcbe 18fd 723e 873d 173f 5763 01bf
000002d0: 799a 0f3e c3ea c63e 9995 f13d 01dc 83be
000002e0: af2c c63e 006f b03e 7a11 5d3e 7cc6 cfbd
000002f0: 628d 1cbe 88bc 7d3d e06f 3b3c 6f34 01be
00000300: 939b c03e 6573 1d3f 714b 4fb9 8c5e 04be
00000310: 6f08 0a3c 1b33 0dbd 807d 1e3e 11fe 843e
00000320: d0b8 05bf cb1c 32be 81ec 133f 8f2b 963e
00000330: d13d ebbc 9038 b2be 04da b4be 3ba3 06bf
00000340: 02ad 4bbe 96e5 3c3e 454a c43e 985a c63e
00000350: 1f26 eebe 96bb b1be ff92 b539 ac94 163f
00000360: 820b ab3d f01a 19be 5997 743e ebe2 4bbe
00000370: e683 71be 8f4a ec3e 4f69 86be d908 edbd
00000380: a208 13bf 3fd5 c53e 105b 0f3f b2f0 763e
00000390: d81d cebe 12df 11bf 3315 f0be ee0e df3e
000003a0: 3091 c23e 03c5 fb3e 6098 993e df2b 883e
000003b0: c25d 943c e1ce e0be c443 fdbe ff3e 0abf
000003c0: 951c 593e 1296 a6be 716f f1bd 0c1f aabe
000003d0: ac76 d7bd 520e d0be e026 c1be 121c 443e
000003e0: 59b4 2fbe 1c7d b63e 0eaa 3dbe 4dd8 d8be
000003f0: 28f1 e1bd ef05 2ebe d71b 33be 9c75 08bf
0.42318156 0.5342844 -0.1520648 0.5016293 -0.027558245 0.16150264 -0.26894253 0.40977648
0.5630439 -0.5052748 0.56257844 0.08834972 0.39239228 0.14393237 0.28931284 -0.10921684
0.5131305 0.05206448 -0.27690962 0.14060266 -0.2660064 -0.06770751 -0.23449561 0.3829974
-0.45217326 -0.22055578 -0.1774176 -0.34872836 0.14816974 -0.5380754 0.5262797 -0.45422837
0.4706051 0.096082136 -0.18746825 0.35677359 0.07909331 0.5377233 0.0962808 -0.17245278
0.27811572 -0.105336115 0.24140914 0.6139439 0.3503763 -0.33098143 0.39370462 0.1327283
0.29319867 -0.3518979 -0.5715239 -0.25995392 -0.42717403 0.49723133 0.15859456 0.3264095
0.19048965 -0.0037898747 0.54452753 -0.4299379 0.036352124 -0.39406475 0.17802711 -0.1988292
0.17690952 -0.12028601 0.4788496 -0.3421966 -0.34433055 -0.3120004 0.66062856 0.22551262
0.5555557 -0.47647345 -0.5726599 -0.45169792 -0.38837722 0.23385003 0.20019193 0.555477
-0.30281308 -0.28912985 0.44934684 -0.19557843 0.3061133 -0.075314954 0.34071726 -0.45764104
-0.30031347 0.16696182 0.12391013 -0.021340186 0.38068292 0.39248803 -0.41867903 -0.30822894
0.5104778 -0.21435264 -0.20703201 -0.558641 -0.3306313 0.14422421 -0.0762063 -0.41909045
0.013542728 -0.3943773 -0.48982203 -0.3179252 -0.5053039 -0.3676209 0.5771244 0.13565603
0.2796516 -0.5384855 -0.37918854 -0.19217439 0.090280905 -0.3583243 -0.086212195 -0.32188055
-0.010224789 -0.16100441 -0.04828879 -0.3912297 -0.39629042 -0.3368272 -0.19762552 -0.45569152
0.4840908 -0.12842317 0.5969957 0.238978 -0.44665697 0.5055865 -0.13301569 -0.2213134
-0.4792414 -0.5739789 0.1366525 -0.032841507 0.26182356 -0.3833642 0.5513099 -0.39886355
-0.1238144 0.1613804 0.34107244 0.45541894 0.6158425 -0.44261688 0.14530016 -0.24833333
-0.06326882 -0.43224472 0.6277359 -0.416798 0.26391745 0.2653099 0.24811555 -0.341337
0.579282 0.12079057 0.07427037 -0.5087927 0.24236499 -0.10936521 -0.26945958 0.50377065
0.12871954 -0.3194343 -0.29221943 -0.07495685 0.3924977 -0.12187837 -0.32942155 -0.19770949
-0.43132386 0.2372936 0.5907826 -0.50542206 0.1402377 0.38850984 0.117961116 -0.25753787
0.38705966 0.34459686 0.21588698 -0.1014528 -0.15288308 0.061947376 0.011440247 -0.12617658
0.37618694 0.61504203 -0.00019769162 -0.12926692 0.008424862 -0.034472566 0.15477562 0.25975087
-0.52235126 -0.17393796 0.5778275 0.29330108 -0.028716 -0.3480878 -0.35322583 -0.5259282
-0.19890216 0.18446955 0.38337913 0.38740993 -0.4651346 -0.3471343 0.0003463253 0.58820605
0.08351804 -0.14951682 0.2388586 -0.19910781 -0.23585472 0.46150634 -0.2625222 -0.11573953
-0.5743505 0.38639256 0.55998325 0.24115255 -0.40257144 -0.56981003 -0.46891174 0.43566078
0.38001394 0.49173746 0.29999065 0.2659597 0.018111113 -0.43907836 -0.49465764 -0.54002374
0.2120231 -0.3253637 -0.11788834 -0.33226812 -0.10520682 -0.40635926 -0.37724972 0.19151333
-0.17158641 0.35642326 -0.18521902 -0.42352524 -0.11032325 -0.16994451 -0.17491089 -0.5330446

fc1.bias f4 [128]
00000000: c35b 503d 5850 1c3f 18b4 d9be 4ad4 2ebe
00000010: 10f5 c73e b5c4 93bd 9880 ffbd f768 76be
00000020: 5f3a e03e 315e bc3e 05fe 623e 4b1e a6be
00000030: ebae cdbe b4d1 303e bc1f 843e 9ff7 5bbe
00000040: 126b 25be 4d35 cb3e 500a f63d 4247 dc3d
00000050: 0c7f 11be 01d9 05bf bcf8 0abf a55c 14be
00000060: f242 96be 4c31 383e 8d7b d8bd 410a b3bd
00000070: e9b2 193f 9aa7 443e 5277 063f f81a 8fbe
00000080: 26c6 82be d94a 593e 02f4 c4be b23c c1be
00000090: d170 e4bc 57f1 eabd f599 ddbe 021c 003f
000000a0: 6c00 023f a6d0 bf3d b5df cdbd fc11 e4be
000000b0: dff2 dfbd 4183 163e 89ce b43e dbe4 403d
000000c0: 95bc 49be ad6b cc3e 1d6b ebbe 7501 e83e
000000d0: ba68 2ebe 2155 533d e4a9 e9bd 0468 773d
000000e0: 66a9 32be 35c5 f33e 46ea 75bc 3a2d 153f
000000f0: efc0 223f 22fa 52be 34a5 d7be 0bae 103f
00000100: 162f 0f3f 06b5 e1be b040 323d ff45 f6be
00000110: 0afb f1be aedc ce3d 43c6 863e e1bb 513e
00000120: d4e7 20be fa9d 283f 1d0f a93d 4528 6cbe
00000130: c0e1 05bd 8c19 6c3e 3e3a 9d3e f503 d1be
00000140: b86d 343e b104 97be f5a0 f5be f375 a1be
00000150: 0a9e 263f d63e 1e3f a0d8 173f be7e d23e
00000160: 9248 0c3f 0644 9ebd 32a6 a2be 6b88 c13e
00000170: 0a55 38be 1b7e c7be dbca 3cbe f023 f83d
00000180: 966a c63e 48a1 65be 6ffb adbe d67f 9f3d
00000190: 093d aebe b774 c0be d4d2 d53e 6a49 35bb
000001a0: 39cc 233f ba0d 233f 1d9a 7f3e 9668 943e
000001b0: 3125 083e 1e24 143c c30b 633d 666e 183e
000001c0: bc47 7c3e 8467 133f 7237 19be a975 44be
000001d0: 6958 fabc ab42 72be 4723 3b3e 35fb 023f
000001e0: ac5b 0d3f ae68 9c3e 378b d9be 8d8b 5cbe
000001f0: 15e5 01be 73b9 c6bc fd7e a73c 7fad 07bf
0.05086876 0.61060095 -0.42520213 -0.1707317 0.39054155 -0.07215253 -0.12475699 -0.24063478
0.43794534 0.36790612 0.22167213 -0.32444987 -0.40172514 0.17267495 0.2580546 -0.21481179
-0.16154125 0.39689103 0.12013686 0.10755779 -0.14208621 -0.52284247 -0.5428579 -0.14488466
-0.2934795 0.17987555 -0.105704404 -0.0874219 0.6003862 0.1920456 0.5252582 -0.27950263
-0.255418 0.21219958 -0.38467413 -0.3774162 -0.027885826 -0.11471813 -0.43281522 0.50042737
0.50781894 0.093659684 -0.10052434 -0.4454497 -0.10934996 0.14698507 0.35313824 0.047093254
-0.19700845 0.399259 -0.45980158 0.45313612 -0.17032138 0.051594857 -0.11409357 0.06040193
-0.17447433 0.47611395 -0.015009468 0.58272135 0.63575643 -0.2060323 -0.42118227 0.5651557
0.5593122 -0.44083422 0.043518722 -0.48100278 -0.4726184 0.10100685 0.26323137 0.20481826
-0.15713435 0.65866053 0.08254836 -0.23062237 -0.032685995 0.2305662 0.30708498 -0.4082333
0.1761998 -0.29495767 -0.47974363 -0.315353 0.650849 0.6181463 0.5931492 0.41112322
0.54798234 -0.07727818 -0.31767422 0.3779939 -0.1800119 -0.38963398 -0.18436758 0.121162295
0.38753194 -0.22424805 -0.3398089 0.07788055 -0.3403094 -0.37589046 0.41762412 -0.0027662166
0.63983494 0.6369282 0.24961133 0.28986043 0.13295437 0.009041814 0.05543114 0.14885864
0.2463674 0.5757983 -0.14962557 -0.19185509 -0.030559735 -0.23658244 0.18275176 0.5116456
0.55218005 0.30548614 -0.42489025 -0.2153761 -0.12685044 -0.024258351 0.020446295 -0.5299911

fc2.weight f4 [128, 128]
00000000: 815d e13c 3818 8abd fa13 65bd 0e7f 96bd
00000010: c8b9 9d3d 176a abbd 128e 883d daba 42bb
00000020: 2c6b 28bc 8972 623d 77d9 05bc d50d 633d
00000030: 33e1 823d ae29 9dbd 834e 0b3d cbb0 883c
00000040: 63af 9b3c 0f6b 533c bd0e c63c 302a 2ebd
00000050: 4f47 39bc 76fd ab3d 493c 733d a59e 59bb
00000060: 1841 aabd a8e0 7d3b eb89 76bd 1134 933d
00000070: 03ca 5bbd 421e d1bb 22b4 a0bc 33da 803c
00000080: 1d58 aa3d 3f9a 093c 06ae 513d d982 8c3d
00000090: 9123 923d a80f fabc d9f1 a1bc e87a 2e3d
000000a0: ca93 c5bc 9887 293d 0130 9ebc b78d 75bd
000000b0: 8d5d 133d 3b07 5e3c 126a 213d 16d7 b33d
000000c0: fc2c 773d 589a ab3d c704 9b3b 11b7 9bbd
000000d0: e0fa 7dbd 90e3 60bd e385 9fbd 9278 35bd
000000e0: fca3 a6bd de02 a7bd 7e56 58bd 7a74 b2bd
000000f0: 4e39 5ebd 690c 0a3d ccfa 963d d762 d7bc
00000100: 659e d2bc ce4f 413d 8d9e 32bd 052f 2bbd
00000110: 0e10 5f3d f2b8 9dbd a012 313c c2e8 9f3d
00000120: c756 783c 89e8 c43c 1ed9 52bd 26d6 9fba
00000130: 8240 9f3b a1b6 b13c 2eab 0c3d f14a 9d3d
00000140: 062c 8abd ada2 2d3b 3de3 34bd a732 8fbd
00000150: fded e7bb 0357 9fbd a0aa 7c3d beb7 273c
00000160: a81f 43bd 9f31 3d3d 5f52 abbd 4909 0cbd
00000170: 5710 8dbc 3cd2 99bd 5737 66bd a55d 6cbc
00000180: df59 893d 56cd ae3d 025a 663d 962e 58bd
00000190: 76da 6cbd 6ef9 9d3d 340f 003d 84e5 193b
000001a0: 59fb 433c 127c 91bd 45c2 f1bc a340 ae3d
000001b0: af94 b2bc 6f4a 91bb 554e 96bd ea86 4abd
000001c0: de90 ecba 3ce2 60bd c995 33bc c055 133d
000001d0: aa11 b1bd 4a0f d73c 0762 6fbd 80b1 30bd
000001e0: 7bfd 0a3d a0ee 8f3d 87e5 c5bc 52a4 14bd
000001f0: 26af a3bd 22b0 3abd d981 9ebd 4fb8 a5bc
00000200: 6765 803c b387 aebd e90c 9e3d e18b 5a3d
00000210: 1415 b6bd 2153 36bd 471d f43c c5c4 94bc
00000220: bc2d 40bc e58d 2cbd f565 913d 0461 4abd
00000230: 24eb 9c3d 92dd 5d3b 56c6 7c3c c527 8a3d
00000240: 279b 6ebc d21f 4ebd 6317 88bc aa12 8e3d
00000250: 6650 86bd f559 a43c 7de7 b1bd 5ec9 343d
00000260: f9c2 053d ea8f 753b d9a5 113d 08f5 f0ba
00000270: 75a7 3e3d 724c 8fbd 563f 7cbc 0b9b 203d
00000280: 1943 b43d 5d6b 383d f4a1 83bd ae38 8b3d
00000290: ce77 a1bc d999 9abc bd87 a4bd 9a56 7bbc
000002a0: 0383 763d 0cf0 493c f0de 52bd 38e1 de3c
000002b0: ce10 f9bc 0345 a53d 57ec a1bd a4e8 f6bc
000002c0: 98c9 aebd 9641 18bd 8143 e43c e09b a93d
000002d0: af91 fa3b d7d8 ac3d d2aa 8d3c 2217 513d
000002e0: ca1d 913d 24a1 923d 42a4 4abd 89a7 a13d
000002f0: bdc4 513d 860f 2fbd 1dc4 2cbd 0aaa 9cbd
00000300: 0793 a23c 9fb9 92bd 05a4 0f3d 75a9 e43c
00000310: 1e45 9dbd cc4f c53c fd76 1cbc cd0b 2e3d
00000320: e9bb 4f3d 105d b8bd 3c03 a63d b585 923d
00000330: 9d0c 103d b161 aabd 3f33 0bbd 13d8 d1bc
00000340: 1d16 babc 7729 4c3d 69a0 033d 5566 8f3d
00000350: b82c 11bd 4827 e13c 4256 ee3c a667 9bbd
00000360: f45c b4bd a0db 3bbd 2dd5 773d 353d afbd
00000370: bb90 9dbd 74d0 4a3d 9254 433d 75de 943d
00000380: 669d 8dbd ee7c 84bd 94b8 393d 7d6b 9d3d
00000390: 2e9f 583d 41db 623c 0a07 dc3c 4f1b a73d
000003a0: 3de3 72bd 2df6 2dbd f1de 733d fd9f 80bd
000003b0: f7a1 47bd 7b24 843d 099d ce3c 938b d83c
000003c0: aecb 22bd 98a4 65bb c1ac a53d 9c5e 62bd
000003d0: d02b 363a 3341 223d 49b3 80bd d6e1 aa3d
000003e0: a6a3 3dbd 4ce8 c0bc efe9 c3bc 565e 75bd
000003f0: bca0 b1bd d622 4c3d 5d5e c03c f88a a9bd
0.027510406 -0.067429006 -0.055927254 -0.073484525 0.077014506 -0.083698444 0.06667723 -0.0029713423
-0.010279458 0.05528501 -0.008169523 0.055433113 0.063906096 -0.076739654 0.03401042 0.016685864
0.01900453 0.012903943 0.02417695 -0.042520702 -0.011308505 0.08397953 0.059383664 -0.0033206132
-0.08313197 0.0038738642 -0.060190123 0.07187665 -0.05365945 -0.006381781 -0.019617144 0.015729045
0.083175875 0.008398592 0.051191352 0.06860895 0.0713569 -0.030525044 -0.019768642 0.04259768
-0.024118323 0.041389078 -0.01931 -0.059949603 0.03597789 0.013551529 0.039407797 0.08781259
0.060345635 0.08379048 0.004730794 -0.076032765 -0.06200683 -0.05490452 -0.07789209 -0.044304438
-0.08136746 -0.08154844 -0.05281686 -0.087136224 -0.05425387 0.03370324 0.073720545 -0.026292248
-0.025710294 0.04719525 -0.043608237 -0.04179289 0.05445867 -0.07701291 0.010807663 0.07808067
0.015157408 0.024036663 -0.05147659 -0.0012194559 0.004859985 0.02169353 0.034342937 0.076803096
-0.06746678 0.0026494667 -0.044162024 -0.06992083 -0.007077931 -0.07780268 0.06168616 0.010236679
-0.04763761 0.0461899 -0.083653204 -0.034188543 -0.017219706 -0.07510802 -0.05620512 -0.0144266235
0.06706595 0.085352585 0.056238182 -0.052778803 -0.057825528 0.077135906 0.0312645 0.002348275
0.011961781 -0.07103743 -0.02951158 0.08508422 -0.021799413 -0.004433922 -0.073391594 -0.04944507
-0.0018048545 -0.054903254 -0.0109610045 0.03597045 -0.08645947 0.026252408 -0.058443096 -0.043138027
0.033933144 0.07027936 -0.024157299 -0.03628952 -0.07992391 -0.04557813 -0.0773961 -0.020229487
0.015673352 -0.08521976 0.07717306 0.053356055 -0.08890739 -0.04451287 0.029799117 -0.018160233
-0.011729654 -0.04212751 0.07099525 -0.049408928 0.07662037 0.003385399 0.015428146 0.06745867
-0.014563358 -0.050323315 -0.016612714 0.06937154 -0.065583035 0.020062426 -0.08686731 0.04413735
0.032656644 0.0037469813 0.035558555 -0.0018383572 0.04654642 -0.06997003 -0.01539596 0.03921036
0.0880186 0.045024265 -0.064273745 0.0679792 -0.019710448 -0.018872188 -0.080337025 -0.015340472
0.060183536 0.012325298 -0.05148214 0.027207002 -0.03040352 0.080698036 -0.079064064 -0.030140229
-0.08534545 -0.037171923 0.02786422 0.08281684 0.0076467614 0.084397964 0.017293368 0.05104745
0.0708576 0.071596414 -0.049473055 0.07893283 0.051213015 -0.042739414 -0.042179216 -0.0764962
0.019845499 -0.07164311 0.03506853 0.027912835 -0.07679199 0.024085902 -0.009549853 0.042491723
0.050716314 -0.09002125 0.08106086 0.07154409 0.03516828 -0.083194144 -0.03398442 -0.025615728
-0.022715623 0.04984423 0.0321354 0.0700194 -0.035443038 0.027484551 0.029093865 -0.07588129
-0.08806792 -0.045863748 0.060506035 -0.08556596 -0.07693621 0.049515203 0.047688074 0.07268993
-0.06914787 -0.06469141 0.045342043 0.076865174 0.05288618 0.0138462195 0.026858825 0.081595056
-0.059298743 -0.0424711 0.059538785 -0.06280515 -0.048738446 0.064522706 0.025221365 0.026433742
-0.039745025 -0.0035040732 0.08089591 -0.055266008 0.00069492776 0.03961296 -0.06284196 0.08343856
-0.046298645 -0.023548268 -0.02391526 -0.05990442 -0.08673236 0.04983791 0.023482496 -0.08278459

fc2.bias f4 [128]
00000000: 354a 9abd 793b 9b3d 8864 a0bd 5225 1abd
00000010: 6269 b9bc 3b5b 89bc d4ee 9dbc ed20 753d
00000020: f870 873d 41a8 b5bd 9ff2 a7bd 3a26 b1bd
00000030: 43c8 e23d e7a3 2fbc 7b34 33bd 5ae5 1f3d
00000040: 6e45 3d3c 3f16 923c 7ec8 f43d 437b 833d
00000050: c2e0 bc3d 3d5c 71bd 1116 99bb 0c19 87bd
00000060: f5a0 02bd 23ca 59bc f903 4b3d 755d 843d
00000070: 8a1c 4cbd 0f6e debc ec99 083d 096a 0e3e
00000080: a66d 423e af82 b4bd 3d76 a93c 90a9 3c3d
00000090: 646b 433d bc35 b0bd fa24 87bd b1db 5e3d
000000a0: db16 20bc 2db6 0f3d 97a3 933d 00d5 32bc
000000b0: e6c0 d4bc 5362 453d 6c9a 8dbd b914 5dbc
000000c0: 4061 5bbc 2f3d adbc 4c70 243d 5ef4 babc
000000d0: 3117 413b 74ac cd3c 8cee fa3a 64d1 e8bc
000000e0: 4aeb a33d 24c2 493d 5685 9abc f5e3 0c3d
000000f0: 7b63 1ebd a482 353d b081 313d 4937 19bd
00000100: 540c 683d 49a0 2abc 6b31 b93d 0db6 07bd
00000110: 2217 2eba a151 97bc b5cc 1c3c 7b2a acbd
00000120: bc35 c13d e58b 8dbd 0733 a8bd fdaf c1bd
00000130: 0bf9 bcbc 8ffc 903d 463a 173c 23e7 c3bb
00000140: 2d68 3fbd 34b9 70bc 8557 dbbc 3021 8fbd
00000150: 9289 9fbc 23ab d03c 5fea 293d eb6c a4bd
00000160: e11e 993d e014 4b3e a140 24bd 6c2f 9abd
00000170: 9673 533c 1f5d a33c fd97 c1bc 5d51 26bd
00000180: 00fe 58bb 7138 79bd 1afc 74bd aea2 e73c
00000190: 36c3 233c a228 a53c f3c9 8c3d c18f 61ba
000001a0: 13d6 a43d 5d71 f63d dc3b 7bbd 26b1 503d
000001b0: 039e 453d 7a43 0abd 137e 1c3e 95fb 25bd
000001c0: 5235 69bd 87cf 6c3d 26f2 273d 7069 ab3d
000001d0: 0efe 8ebd 55b1 243d f4c7 b13c 0a21 58bd
000001e0: 38d2 42bc 0bdc 863d 7ddf 183d 0777 26bd
000001f0: 64f6 77ba 94ec ffbc 2df7 6e3d 02de f23d
-0.07533685 0.07579703 -0.07831675 -0.037633248 -0.022633258 -0.016767135 -0.019278921 0.059845854
0.06613344 -0.088699825 -0.08200573 -0.08649869 0.11073353 -0.01072023 -0.04375122 0.039037086
0.011552198 0.017832873 0.11952303 0.06419995 0.09222557 -0.058925856 -0.00467182 -0.06596574
-0.03189178 -0.013292822 0.049564335 0.06463138 -0.049831904 -0.02715209 0.033349916 0.13907637
0.1898714 -0.088139884 0.020686263 0.046060145 0.047709838 -0.08603999 -0.065988496 0.054408733
-0.009771074 0.035085846 0.07208937 -0.010915041 -0.025970887 0.048189472 -0.06914219 -0.01349371
-0.013389885 -0.021147339 0.040146157 -0.022821601 0.0029463286 0.025106646 0.0019144579 -0.028420158
0.08003862 0.049257413 -0.018862408 0.034397084 -0.03866909 0.04431404 0.04333657 -0.03740624
0.056652382 -0.0104141915 0.09042629 -0.0331326 -0.00066410203 -0.01847154 0.00957029 -0.0840654
0.09434077 -0.069114484 -0.08212858 -0.09457395 -0.023067972 0.07079422 0.009230202 -0.0059784814
-0.04673021 -0.014692593 -0.026775131 -0.06988752 -0.019474778 0.02547223 0.04148328 -0.08028587
0.07476593 0.19832182 -0.040100697 -0.07528576 0.012905976 0.019941865 -0.023632044 -0.040604938
-0.003311038 -0.060844842 -0.059810735 0.028275814 0.009995272 0.020160977 0.06874456 -0.000860449
0.08048644 0.12033341 -0.061336383 0.050950192 0.048246395 -0.033755757 0.15282468 -0.04052313
-0.056935616 0.0578151 0.041002415 0.0836972 -0.06982051 0.04020818 0.02170179 -0.052765884
-0.01189094 0.065849386 0.03732251 -0.040640857 -0.00094590173 -0.031240739 0.058341194 0.11858751

fc3.weight f4 [13, 128]
00000000: 5771 56bc 93c0 a7bc 5060 8cbd ab3e a0bc
00000010: 8357 223d d250 aebd 9b1c 093d ad8f ac3d
00000020: c1d4 1b3d c9f0 3f3d daf8 c3bc 8445 f4bb
00000030: 6e05 08be 0b35 2fbd 62ee b53c e7c2 47bd
00000040: 2e77 553d dbf2 2cbd b7e2 c23b 3e80 3ebd
00000050: 8e5e 19be 9ed5 0abd db38 76bd b62e 8d3c
00000060: d70b 643c 7a5c 863d db0f 3d3d ca3f adbd
00000070: 03b2 0b3d 7be2 2c3d a95e c0bd 7b68 17be
00000080: c72f 2fbe e3ae 33bd 6db8 e9bb 26ec b13d
00000090: 0756 983d b2bc b9bc 005f d73b 7696 873b
000000a0: 8a95 0e3c 4b8f 75bd 978e 313c 0001 7f3d
000000b0: dd16 6d3c a357 a53d 481f a83d 482d 13be
000000c0: 6fb4 a03d cbe7 8ebd 727c 2bbd 635d 5f3d
000000d0: eac2 5c3b 9953 9c3d 11bb 283d 6140 9abc
000000e0: 60a3 043d 3fe9 81bd c451 153c 87ac 3ebd
000000f0: bfcf 873d ceaf c73d f933 0e3d ec67 4abd
00000100: 2d75 d43b e03e 793d e5f2 a9bd fe37 8fbc
00000110: 686b 0e3d 96db fbbb cbd7 023d a785 8139
00000120: ba96 b9bd b839 523c 5262 1aba 0216 83bd
00000130: 6a95 86bd edbb d83b f3fa 0cbd a09f 2fbb
00000140: e9c2 853d 902b 3ebd 6aa9 453d cc6d 7c3d
00000150: 02d2 453d e2fb ebbd b908 5b3c 807a 85bd
00000160: 2534 65bd 1898 dbbd eb9f 9c3d 2aa9 4a3d
00000170: 20f1 ca3c fee5 513d b8e2 acbd 41a7 acbd
00000180: c55f 163d d363 acbc a0a1 ec3c 4279 80bd
00000190: 8e63 ab3d 2b36 95bd 01eb 1f3d b3bb 3e3d
000001a0: 740b 28be 6936 a83c da0c 243d 939c 05bd
000001b0: ecf7 fbbc 4088 8a3d 0c8f d5bd 1f6f be3b
000001c0: f8c8 283d f426 123d 1949 35bd 19d3 74bb
000001d0: e895 db3c 0a9c 0c3d c139 28bd 2335 233d
000001e0: 54fe 9cbc c10b 323b 3ea3 393d 6af2 823d
000001f0: 6ea1 44bc d94c 6b3d 5042 8b3d 6e1a 19bc
00000200: 28af b6bb c0dc 8abd e7d4 72bd ea88 503d
00000210: 7586 65bd 112e 55bd 0885 6a3d 16e6 48bd
00000220: 8504 8cbd 4731 6a3c 8640 1c3d 1517 a4bd
00000230: 560f 11bd a198 8bbd febe 183d b0e3 53bc
00000240: 89a5 f33c c840 c03d e5e3 40bd 9afa 17bd
00000250: cfed f7bc e453 d93c 56ca 21bd 7036 79bd
00000260: ee74 dcbc 4b89 0e3d 53fc 183d a8a5 dbbd
00000270: ad1a 993d 57ea 75bd e4db ccbc 12f2 c3bd
00000280: 44e2 00be 2015 963d b5d7 8abd a759 3e3d
00000290: b48e e33c f6e6 3abd f185 9b3d 6bd0 43bd
000002a0: 041b 02ba 2265 ab3d c277 aabd 587e 953d
000002b0: 34a9 32bd 12ec 92bd a51a 4b3d 993d b8bd
000002c0: 31c8 95bd 5d57 42bd 1c0c 723d a2bd a53d
000002d0: b1ec dabb 17ed 393d 1e87 e63a 5689 87bd
000002e0: da7f 36bc a0e5 803d 0a26 80bc 6b84 70bd
000002f0: 0897 943d 6ab6 96bc 2690 973d 48b0 4f3d
00000300: a72b 7e3c 875c c03c d566 3dbd b9d4 1dbd
00000310: d284 4dbd 6f40 0fbd d68a 4abd b034 55bc
00000320: 7851 c2bd c330 e9bc 6880 76bd 71fa adbd
00000330: 4a58 a53c fc0f 113d 03d5 12bd 2227 86bd
00000340: 5d0f 29bd cba2 e6bd 190d c2bd ceda bb3d
00000350: 5702 443d e034 dc3c e795 bdbd 9363 6fbd
00000360: 5a03 9c3d 80fa d5bd c1be 5fbd 2ac9 96bd
00000370: df63 dc3c c242 41bc 7ce3 5cbd 3024 9a3d
00000380: 4938 55bd 10c3 1c3c b98a fb3c c93e 2d3d
00000390: da84 973d 5224 a8bc 9c06 223d 63d8 e5bb
000003a0: 2e00 5fbd 50ca dbbd 567a 473d d017 d43c
000003b0: 4c10 ca3c 7af3 ddbb ce43 cdbc 0fd8 aebd
000003c0: 6976 853d 48a0 823d 45f9 413d dec7 5ebd
000003d0: 19e9 a8bd 2ea5 d0bc 006e 91bd e774 2dbd
000003e0: 4fed 7e3d 6fb6 49bd c257 b43d 6180 36bd
000003f0: e39d 28bd ba14 91bd fce3 093d 9113 6bbc
-0.013088546 -0.020477569 -0.06854308 -0.019561132 0.03963424 -0.08511509 0.033474546 0.084258415
0.038044695 0.04686049 -0.023922373 -0.007454576 -0.13283321 -0.042775195 0.022208396 -0.048769858
0.05211561 -0.042223793 0.0059474367 -0.04650902 -0.14977476 -0.033895127 -0.060112815 0.017234188
0.013918838 0.06560607 0.0461577 -0.084594324 0.034105312 0.042208176 -0.09393055 -0.1478595
-0.1710807 -0.043867957 -0.007132581 0.0868762 0.074382834 -0.022672985 0.006572604 0.0041378094
0.008702645 -0.059951108 0.010837219 0.062256813 0.014470783 0.08073356 0.082090914 -0.14372742
0.07846915 -0.06977805 -0.041866727 0.05453242 0.0033685514 0.076331325 0.041194025 -0.018829526
0.03238237 -0.06343316 0.009113733 -0.046551254 0.06631421 0.09750329 0.034717534 -0.049415514
0.006483695 0.060850978 -0.082982816 -0.017482754 0.0347704 -0.007686089 0.031944077 0.00024704376
-0.09061952 0.012831144 -0.00058892847 -0.06400682 -0.06571467 0.0066141994 -0.03441901 -0.0026798025
0.06531317 -0.046428263 0.04825727 0.061628148 0.048295982 -0.11522652 0.013368779 -0.06517506
-0.055957932 -0.10722369 0.076476894 0.049477734 0.02477318 0.05124473 -0.08441681 -0.08430339
0.036712427 -0.021043694 0.028885663 -0.06273128 0.08368598 -0.07285722 0.039042477 0.046565723
-0.16410619 0.020533757 0.04005132 -0.032620024 -0.030757867 0.06764269 -0.10427675 0.0058115865
0.041207284 0.03568168 -0.044259164 -0.003735727 0.02680488 0.034328498 -0.041070703 0.039845597
-0.019164242 0.002716765 0.045321696 0.06393893 -0.012001378 0.057446335 0.067997575 -0.00934468
-0.0055750795 -0.06780386 -0.05928507 0.05091182 -0.05603643 -0.052045885 0.057255775 -0.049047552
-0.068367995 0.014293975 0.03814747 -0.08012215 -0.035415016 -0.06816221 0.03729152 -0.012932703
0.02974202 0.09387356 -0.047092337 -0.037104227 -0.030264763 0.02652926 -0.039499603 -0.06084293
-0.026911225 0.0347989 0.03735001 -0.10724956 0.07475791 -0.060037937 -0.025007196 -0.095676556
-0.12586313 0.07328248 -0.06779424 0.046472218 0.027778007 -0.045630418 0.07593907 -0.047806185
-0.0004963132 0.08368899 -0.08323623 0.07299489 -0.043618396 -0.07173933 0.049585957 -0.08996124
-0.07313574 -0.047446597 0.05909358 0.0809281 -0.006681048 0.045392122 0.0017587875 -0.066179916
-0.011138881 0.062937975 -0.015643138 -0.058720034 0.072553694 -0.018397529 0.07400541 0.050705224
0.015513337 0.02348162 -0.046240646 -0.038532946 -0.050175495 -0.034973558 -0.04944881 -0.01301305
-0.09488195 -0.028465634 -0.06018105 -0.084950335 0.020183701 0.035415635 -0.035847675 -0.06550433
-0.041274417 -0.11261519 -0.094751544 0.09172593 0.047853794 0.026880682 -0.09257107 -0.05844457
0.07617827 -0.1044817 -0.054625276 -0.07362588 0.026903091 -0.011795701 -0.053927884 0.075264335
-0.05205563 0.009567991 0.030705797 0.042296205 0.07398386 -0.020525131 0.039557084 -0.0070143207
-0.05444353 -0.107319474 0.048700653 0.025890261 0.024665974 -0.0067734094 -0.025056746 -0.08537304
0.065167256 0.063782275 0.047356863 -0.054389827 -0.08247585 -0.025469389 -0.07101059 -0.042347815
0.062238034 -0.049246248 0.08805801 -0.044556025 -0.041166198 -0.070840314 0.03366469 -0.014347927

fc3.bias f4 [13]
00000000: c200 2b3d ae99 8cbd fdc9 2bbc 4c9e fe3c
00000010: ee17 9a3c 5772 a1bd 12e5 97bd f9e7 d8bd
00000020: 814f bb3c 7d57 66bd 8530 c3bc dad7 463d
00000030: 22e5 e33c
0.04174877 -0.068652496 -0.0104851695 0.031081341 0.018810239 -0.07883137 -0.074167386 -0.1059112
0.022865059 -0.05623578 -0.023826847 0.048545696 0.02781922
