models/model_episode_4700.pth (torch, 77430 bytes, 6 tensors)

fc1.weight f4 [128, 3]
0	0x3edc62de	0.4304418
1	0x3f0a2d40	0.53975296
2	0xbe0e4be2	-0.13896134
3	0x3f0222ea	0.50834525
4	0xbcbc74f3	-0.023004984
5	0x3e30c274	0.17261678
6	0xbe805fa3	-0.25072965
7	0x3ed5b691	0.4174085
8	0x3f12cf07	0.5734715
9	0xbefd8c7d	-0.49521247
10	0x3f1119ff	0.5668029
11	0x3dc30c35	0.09523813
12	0x3ecb9574	0.3976246
13	0x3e16d311	0.14728953
14	0x3e986aa7	0.2976887
15	0xbdd24570	-0.102671504
16	0x3f049563	0.51790446
17	0x3d8262c5	0.06366495
18	0xbe8dc719	-0.27690962
19	0x3e0ffa25	0.14060266
20	0xbe8831fe	-0.2660064
21	0xbd8aaa3c	-0.06770751
22	0xbe701f9e	-0.23449561
23	0x3ec4183c	0.3829974
24	0xbee87097	-0.453984
25	0xbe616acf	-0.220134
26	0xbe356b6c	-0.1771676
27	0xbeb4e770	-0.35332823
28	0x3e1633db	0.14668219
29	0xbf09b441	-0.5379067
30	0x3f069c6d	0.52582437
31	0xbee896c3	-0.45427522
32	0x3ef0b9c4	0.47016728
33	0x3dc4c6b6	0.096082136
34	0xbe3ff7ad	-0.18746825
35	0x3eb6ab07	0.35677359
36	0x3db43a26	0.088001534
37	0x3f0b42db	0.5439889
38	0x3de2ac05	0.11067966
39	0xbe29d112	-0.1658366
40	0x3e90e654	0.28300726
41	0xbdbf015b	-0.093264304
42	0x3e7cff3e	0.24706742
43	0x3f1e2795	0.6177915
44	0x3eb83e15	0.35984865
45	0xbea10115	-0.31446138
46	0x3ecbe279	0.39821222
47	0x3e0eab2f	0.13932489
48	0x3e961e23	0.29319867
49	0xbeb42bf6	-0.3518979
50	0xbf124f64	-0.5715239
51	0xbe7d9dc5	-0.24767216
52	0xbed7f7b1	-0.4218116
53	0x3f013fe5	0.5048812
54	0x3e291bb3	0.16514473
55	0x3ea97be8	0.33102345
56	0x3e4e80ac	0.20166272
57	0x3b16bda0	0.002300121
58	0x3f0c7ca7	0.54877704
59	0xbed6ec41	-0.41977122
60	0x3d14e5f7	0.036352124
61	0xbec9c2db	-0.39406475
62	0x3e364cbd	0.17802711
63	0xbe4b99e2	-0.1988292
64	0x3e3527c5	0.17690952
65	0xbdf65883	-0.12028601
66	0x3ef52bc6	0.4788496
67	0xbeaf3465	-0.3421966
68	0xbeb04c18	-0.34433055
69	0xbe9cd7c9	-0.3063338
70	0x3f2a10a7	0.6643166
71	0x3e702500	0.23451614
72	0x3f0e38e6	0.5555557
73	0xbef3f454	-0.47647345
74	0xbf1299d7	-0.5726599
75	0xbee744f3	-0.45169792
76	0xbec6d961	-0.38837722
77	0x3e6f7662	0.23385003
78	0x3e543e91	0.20726992
79	0x3f0f9321	0.56083876
80	0xbe947144	-0.28992665
81	0xbe973b98	-0.29537654
82	0x3ee575f6	0.4481656
83	0xbe484a22	-0.1955953
84	0x3ea04eff	0.3131027
85	0xbd906ce8	-0.07052022
86	0x3eb46b8c	0.35238302
87	0xbeea4fed	-0.45764104
88	0xbe99c2b0	-0.30031347
89	0x3e2af80a	0.16696182
90	0x3e05bc08	0.1306001
91	0xbc88e06a	-0.016708571
92	0x3ec8ac20	0.3919382
93	0x3ec8f431	0.39248803
94	0xbed65d19	-0.41867903
95	0xbe9dd02f	-0.30822894
96	0x3f026549	0.509358
97	0xbe5c978f	-0.2154219
98	0xbe540033	-0.20703201
99	0xbf0f0319	-0.558641
100	0xbea94881	-0.3306313
101	0x3e13af83	0.14422421
102	0xbd9c120c	-0.0762063
103	0xbed69306	-0.41909045
104	0x3c5de251	0.013542728
105	0xbec9ebd2	-0.3943773
106	0xbefac9f4	-0.48982203
107	0xbea2c718	-0.3179252
108	0xbf015b99	-0.5053039
109	0xbebc38ce	-0.3676209
110	0x3f13be6d	0.5771244
111	0x3e05ff4e	0.13085672
112	0x3e8e0821	0.27740577
113	0xbf09da30	-0.5384855
114	0xbec22500	-0.37918854
115	0xbe44c95d	-0.19217439
116	0x3db8e532	0.090280905
117	0xbeb7df6d	-0.35912648
118	0xbdadc822	-0.08485438
119	0xbea12bb2	-0.3147865
120	0xbb878c55	-0.004136602
121	0xbe207dab	-0.15672939
122	0xbd1ac6ed	-0.037787367
123	0xbec84f42	-0.3912297
124	0xbecae694	-0.39629042
125	0xbeac749d	-0.3368272
126	0xbe4a5e58	-0.19762552
127	0xbee95066	-0.45569152
128	0x3ef7dac0	0.4840908
129	0xbde67b75	-0.11254016
130	0x3f1aa4cd	0.60407716
131	0x3e7f2405	0.24916084
132	0xbee6b087	-0.45056555
133	0x3f017447	0.5056805
134	0xbe083940	-0.13303089
135	0xbe629ffb	-0.2213134
136	0xbef55f21	-0.4792414
137	0xbf12f048	-0.5739789
138	0x3e1292c3	0.14313798
139	0xbce90536	-0.028444868
140	0x3e8b8fed	0.27258244
141	0xbec74d1c	-0.38926017
142	0x3f0c96d6	0.5491766
143	0xbecc808a	-0.39941818
144	0xbde51555	-0.111857094
145	0x3e2a83e1	0.1665187
146	0x3eb250ed	0.34827366
147	0x3eec4141	0.46143535
148	0x3f1ebc0a	0.62005675
149	0xbedd5b16	-0.43233556
150	0x3e14c991	0.14530016
151	0xbe7e4b18	-0.24833333
152	0xbd819315	-0.06326882
153	0xbeda164c	-0.42595136
154	0x3f21de0b	0.63229436
155	0xbecfbc87	-0.40573522
156	0x3e8a7174	0.27039683
157	0x3e89b674	0.26897013
158	0x3e83757e	0.25675577
159	0xbeab5b72	-0.33468205
160	0x3f158afb	0.5841519
161	0x3e07d633	0.13265304
162	0x3d981b10	0.07427037
163	0xbf02403d	-0.5087927
164	0x3e782e87	0.24236499
165	0xbdcbe086	-0.09954934
166	0xbe879c97	-0.26486656
167	0x3f026e72	0.50949776
168	0x3e03cf0e	0.12871954
169	0xbea38ce4	-0.3194343
170	0xbe959dc9	-0.29221943
171	0xbd8ddc39	-0.0692677
172	0x3ecaf77a	0.39641935
173	0xbde59d23	-0.11211612
174	0xbea8a9f1	-0.32942155
175	0xbe4a745b	-0.19770949
176	0xbedcd67b	-0.43132386
177	0x3e78f2dd	0.24311395
178	0x3f184761	0.59483916
179	0xbefdb9cf	-0.49555823
180	0x3e14ce9e	0.14531943
181	0x3ec89d47	0.39182493
182	0x3e01222b	0.1261069
183	0xbe767998	-0.24069822
184	0x3eca099e	0.39460462
185	0x3eb60ca0	0.35556507
186	0x3e5d117a	0.21588698
187	0xbdcfc67c	-0.1014528
188	0xbe1c8d62	-0.15288308
189	0x3d8a9267	0.06766205
190	0x3c7c6b46	0.015406435
191	0xbdee6aab	-0.11641439
192	0x3ec3911a	0.3819664
193	0x3f1e7946	0.619038
194	0x3c1d9661	0.009618373
195	0xbe045e8c	-0.12926692
196	0x3c0a086f	0.008424862
197	0xbd0d331b	-0.034472566
198	0x3e20b59e	0.15694281
199	0x3e856157	0.26050827
200	0xbf03de25	-0.5151084
201	0xbe2e37ec	-0.1701352
202	0x3f14b209	0.5808416
203	0x3e97fac6	0.29683512
204	0xbceb3dd1	-0.028716
205	0xbeb23890	-0.3480878
206	0xbeb4da04	-0.35322583
207	0xbf06a33b	-0.5259282
208	0xbe4bad02	-0.19890216
209	0x3e3ce596	0.18446955
210	0x3ec791b3	0.38978347
211	0x3ec8be8e	0.39207882
212	0xbee85907	-0.45380422
213	0xbeac17c5	-0.33611885
214	0x3bab197d	0.0052215443
215	0x3f189b32	0.5961181
216	0x3dab0b82	0.08351804
217	0xbe191af0	-0.14951682
218	0x3e749759	0.2388586
219	0xbe45bcc9	-0.19310297
220	0xbe6d5e72	-0.2318056
221	0x3ef16260	0.47145367
222	0xbe86694f	-0.2625222
223	0xbded08d9	-0.11573953
224	0xbf1308a2	-0.5743505
225	0x3ec8f43c	0.39248836
226	0x3f106bd8	0.56414557
227	0x3e80af28	0.25133634
228	0xbece1dd8	-0.40257144
229	0xbf11df12	-0.56981003
230	0xbef01533	-0.46891174
231	0x3ee21864	0.44159234
232	0x3ec49715	0.38396516
233	0x3f0057c1	0.501339
234	0x3e9cdc9f	0.3063707
235	0x3e8a7ce5	0.27048412
236	0x3cee8aef	0.029118983
237	0xbee0cee1	-0.43907836
238	0xbefd43c4	-0.49465764
239	0xbf0a3eff	-0.54002374
240	0x3e59015b	0.21191923
241	0xbea6b330	-0.32558584
242	0xbdf04456	-0.11731784
243	0xbeaa1f0c	-0.33226812
244	0xbdd776ac	-0.10520682
245	0xbed00e52	-0.40635926
246	0xbec126e0	-0.37724972
247	0x3e441c12	0.19151333
248	0xbe2fb459	-0.17158641
249	0x3eb67d1c	0.35642326
250	0xbe3daa0e	-0.18521902
251	0xbed8d84d	-0.42352524
252	0xbdd3ae77	-0.10336011
253	0xbe28c216	-0.16480288
254	0xbe266bc1	-0.16252042
255	0xbf06e7bd	-0.52697355

fc1.bias f4 [128]
0	0x3d68cc00	0.056835175
1	0x3f1d9c90	0.6156702
2	0xbed508c8	-0.41608262
3	0xbe29eea0	-0.16594934
4	0x3ec9e3cb	0.39431605
5	0xbd890b3b	-0.06691595
6	0xbdff8098	-0.12475699
7	0xbe7668f7	-0.24063478
8	0x3ee05aa3	0.4381915
9	0x3ebb57f9	0.36590555
10	0x3e62ee0b	0.22161119
11	0xbea61e4b	-0.32444987
12	0xbeca1ab1	-0.3947349
13	0x3e364961	0.1780143
14	0x3e865003	0.2623292
15	0xbe569702	-0.20956042
16	0xbe256b12	-0.16154125
17	0x3ece7802	0.40325934
18	0x3e003ca9	0.1252314
19	0x3de5e44b	0.11225184
20	0xbe117f0c	-0.14208621
21	0xbf05d901	-0.52284247
22	0xbf0af8bc	-0.5428579
23	0xbe1025ae	-0.14076874
24	0xbe9642f2	-0.2934795
25	0x3e38314c	0.17987555
26	0xbdcc8c16	-0.09987657
27	0xbdb67ee6	-0.08910923
28	0x3f1b1031	0.6057158
29	0x3e44a79a	0.1920456
30	0x3f07c801	0.53039557
31	0xbe8f1af8	-0.27950263
32	0xbe83542b	-0.25650153
33	0x3e594ad9	0.21219958
34	0xbec4f402	-0.38467413
35	0xbec13cb2	-0.3774162
36	0xbce470d1	-0.027885826
37	0xbdf075a0	-0.11741185
38	0xbedd99f5	-0.43281522
39	0x3f007317	0.50175613
40	0x3f03366f	0.51254934
41	0x3dbfd0a6	0.093659684
42	0xbdcddfb5	-0.10052434
43	0xbedfd4fd	-0.43717185
44	0xbde06b04	-0.109579116
45	0x3e168341	0.14698507
46	0x3eb7505e	0.35803503
47	0x3d357691	0.044302527
48	0xbe4373df	-0.1908717
49	0x3ecece21	0.4039164
50	0xbeeb6b1d	-0.45980158
51	0x3eea9061	0.45813277
52	0xbe2a18ce	-0.16611025
53	0x3d6933a5	0.056934018
54	0xbde9a9e4	-0.11409357
55	0x3d86e566	0.06586723
56	0xbe32a966	-0.17447433
57	0x3ef5ff4d	0.48046342
58	0xbc75ea46	-0.015009468
59	0x3f1652ea	0.58720267
60	0x3f23b427	0.63946766
61	0xbe49f819	-0.19723548
62	0xbed7a534	-0.42118227
63	0x3f11cddf	0.5695476
64	0x3f10512e	0.5637387
65	0xbee1b506	-0.44083422
66	0x3d358ea8	0.0443255
67	0xbef48af0	-0.4776225
68	0xbef1fb0a	-0.4726184
69	0x3dcedcae	0.10100685
70	0x3e89649d	0.26834574
71	0x3e578cb0	0.21049762
72	0xbe20e7d4	-0.15713435
73	0x3f29c559	0.66316754
74	0x3da90f1d	0.08254836
75	0xbe676bb0	-0.22599673
76	0xbd05e1c0	-0.032685995
77	0x3e709ed1	0.23498084
78	0x3e9fc857	0.31207535
79	0xbed103f5	-0.4082333
80	0x3e343651	0.17598845
81	0xbe9704b1	-0.29495767
82	0xbef5a0f5	-0.47974363
83	0xbea175f3	-0.315353
84	0x3f280e29	0.65646607
85	0x3f1f7501	0.6228791
86	0x3f1909eb	0.5978076
87	0x3ed53930	0.41645193
88	0x3f0d4a8a	0.5519186
89	0xbd9e4406	-0.07727818
90	0xbea2a632	-0.31767422
91	0x3ec39df7	0.38206455
92	0xbe336d1e	-0.17522094
93	0xbec77e1b	-0.38963398
94	0xbe3ccadb	-0.18436758
95	0x3df823f0	0.121162295
96	0x3ec8f515	0.39249483
97	0xbe65a148	-0.22424805
98	0xbeadfb6f	-0.3398089
99	0x3d9f7fd6	0.07788055
100	0xbeae3d09	-0.3403094
101	0xbec074b7	-0.37589046
102	0x3ed84b13	0.42244777
103	0x3b0083f5	0.0019609903
104	0x3f24e05e	0.6440486
105	0x3f2405ad	0.6407116
106	0x3e823c1e	0.2543649
107	0x3e964792	0.2935148
108	0x3e082531	0.13295437
109	0x3c14241e	0.009041814
110	0x3d79e393	0.061008047
111	0x3e19d215	0.15021546
112	0x3e80d66b	0.25163588
113	0x3f14a36f	0.5806188
114	0xbe193772	-0.14962557
115	0xbe467668	-0.19381106
116	0xbcde8cae	-0.02716669
117	0xbe6d6879	-0.23184384
118	0x3e3e42ec	0.18580216
119	0x3f042f20	0.5163441
120	0x3f0c9971	0.54921633
121	0x3e9e86ba	0.30962163
122	0xbed98b37	-0.42489025
123	0xbe58b995	-0.21164544
124	0xbe01e515	-0.12685044
125	0xbc6ea5f2	-0.014565932
126	0x3c4ba471	0.012429343
127	0xbf07ad7f	-0.5299911

fc2.weight f4 [128, 128]
0	0x3ce15d81	0.027510406
1	0xbd8a1838	-0.067429006
2	0xbd6513fa	-0.055927254
3	0xbd967f0e	-0.073484525
4	0x3d9db9c8	0.077014506
5	0xbdab6a17	-0.083698444
6	0x3d888e12	0.06667723
7	0xbb42bada	-0.0029713423
8	0xbc286b2c	-0.010279458
9	0x3d627289	0.05528501
10	0xbc05d977	-0.008169523
11	0x3d630dd5	0.055433113
12	0x3d82e133	0.063906096
13	0xbd9d29ae	-0.076739654
14	0x3d0b4e83	0.03401042
15	0x3c88b0cb	0.016685864
16	0x3c9baf63	0.01900453
17	0x3c536b0f	0.012903943
18	0x3cc60ebd	0.02417695
19	0xbd2e2a30	-0.042520702
20	0xbc39474f	-0.011308505
21	0x3dabfd76	0.08397953
22	0x3d733c49	0.059383664
23	0xbb599ea5	-0.0033206132
24	0xbdaa4118	-0.08313197
25	0x3b7de0a8	0.0038738642
26	0xbd7689eb	-0.060190123
27	0x3d933411	0.07187665
28	0xbd5bca03	-0.05365945
29	0xbbd11e42	-0.006381781
30	0xbca0b422	-0.019617144
31	0x3c80da33	0.015729045
32	0x3daa581d	0.083175875
33	0x3c099a3f	0.008398592
34	0x3d51ae06	0.051191352
35	0x3d8c82d9	0.06860895
36	0x3d922391	0.0713569
37	0xbcfa0fa8	-0.030525044
38	0xbca1f1d9	-0.019768642
39	0x3d2e7ae8	0.04259768
40	0xbcc593ca	-0.024118323
41	0x3d298798	0.041389078
42	0xbc9e3001	-0.01931
43	0xbd758db7	-0.059949603
44	0x3d135d8d	0.03597789
45	0x3c5e073b	0.013551529
46	0x3d216a12	0.039407797
47	0x3db3d716	0.08781259
48	0x3d772cfc	0.060345635
49	0x3dab9a58	0.08379048
50	0x3b9b04c7	0.004730794
51	0xbd9bb711	-0.076032765
52	0xbd7dfae0	-0.06200683
53	0xbd60e390	-0.05490452
54	0xbd9f85e3	-0.07789209
55	0xbd357892	-0.044304438
56	0xbda6a3fc	-0.08136746
57	0xbda702de	-0.08154844
58	0xbd58567e	-0.05281686
59	0xbdb2747a	-0.087136224
60	0xbd5e394e	-0.05425387
61	0x3d0a0c69	0.03370324
62	0x3d96facc	0.073720545
63	0xbcd762d7	-0.026292248
64	0xbcd29e65	-0.025710294
65	0x3d414fce	0.04719525
66	0xbd329e8d	-0.043608237
67	0xbd2b2f05	-0.04179289
68	0x3d5f100e	0.05445867
69	0xbd9db8f2	-0.07701291
70	0x3c3112a0	0.010807663
71	0x3d9fe8c2	0.07808067
72	0x3c7856c7	0.015157408
73	0x3cc4e889	0.024036663
74	0xbd52d91e	-0.05147659
75	0xba9fd626	-0.0012194559
76	0x3b9f4082	0.004859985
77	0x3cb1b6a1	0.02169353
78	0x3d0cab2e	0.034342937
79	0x3d9d4af1	0.076803096
80	0xbd8a2c06	-0.06746678
81	0x3b2da2ad	0.0026494667
82	0xbd34e33d	-0.044162024
83	0xbd8f32a7	-0.06992083
84	0xbbe7edfd	-0.007077931
85	0xbd9f5703	-0.07780268
86	0x3d7caaa0	0.06168616
87	0x3c27b7be	0.010236679
88	0xbd431fa8	-0.04763761
89	0x3d3d319f	0.0461899
90	0xbdab525f	-0.083653204
91	0xbd0c0949	-0.034188543
92	0xbc8d1057	-0.017219706
93	0xbd99d23c	-0.07510802
94	0xbd663757	-0.05620512
95	0xbc6c5da5	-0.0144266235
96	0x3d8959df	0.06706595
97	0x3daecd56	0.085352585
98	0x3d665a02	0.056238182
99	0xbd582e96	-0.052778803
100	0xbd6cda76	-0.057825528
101	0x3d9df96e	0.077135906
102	0x3d000f34	0.0312645
103	0x3b19e584	0.002348275
104	0x3c43fb59	0.011961781
105	0xbd917c12	-0.07103743
106	0xbcf1c245	-0.02951158
107	0x3dae40a3	0.08508422
108	0xbcb294af	-0.021799413
109	0xbb914a6f	-0.004433922
110	0xbd964e55	-0.073391594
111	0xbd4a86ea	-0.04944507
112	0xbaec90de	-0.0018048545
113	0xbd60e23c	-0.054903254
114	0xbc3395c9	-0.0109610045
115	0x3d1355c0	0.03597045
116	0xbdb111aa	-0.08645947
117	0x3cd70f4a	0.026252408
118	0xbd6f6207	-0.058443096
119	0xbd30b180	-0.043138027
120	0x3d0afd7b	0.033933144
121	0x3d8feea0	0.07027936
122	0xbcc5e587	-0.024157299
123	0xbd14a452	-0.03628952
124	0xbda3af26	-0.07992391
125	0xbd3ab022	-0.04557813
126	0xbd9e81d9	-0.0773961
127	0xbca5b84f	-0.020229487
128	0x3c806567	0.015673352
129	0xbdae87b3	-0.08521976
130	0x3d9e0ce9	0.07717306
131	0x3d5a8be1	0.053356055
132	0xbdb61514	-0.08890739
133	0xbd365321	-0.04451287
134	0x3cf41d47	0.029799117
135	0xbc94c4c5	-0.018160233
136	0xbc402dbc	-0.011729654
137	0xbd2c8de5	-0.04212751
138	0x3d9165f5	0.07099525
139	0xbd4a6104	-0.049408928
140	0x3d9ceb24	0.07662037
141	0x3b5ddd92	0.003385399
142	0x3c7cc656	0.015428146
143	0x3d8a27c5	0.06745867
144	0xbc6e9b27	-0.014563358
145	0xbd4e1fd2	-0.050323315
146	0xbc881763	-0.016612714
147	0x3d8e12aa	0.06937154
148	0xbd865066	-0.065583035
149	0x3ca459f5	0.020062426
150	0xbdb1e77d	-0.08686731
151	0x3d34c95e	0.04413735
152	0x3d05c2f9	0.032656644
153	0x3b758fea	0.0037469813
154	0x3d11a5d9	0.035558555
155	0xbaf0f508	-0.0018383572
156	0x3d3ea775	0.04654642
157	0xbd8f4c72	-0.06997003
158	0xbc7c3f56	-0.01539596
159	0x3d209b0b	0.03921036
160	0x3db44319	0.0880186
161	0x3d386b5d	0.045024265
162	0xbd83a1f4	-0.064273745
163	0x3d8b38ae	0.0679792
164	0xbca177ce	-0.019710448
165	0xbc9a99d9	-0.018872188
166	0xbda487bd	-0.080337025
167	0xbc7b569a	-0.015340472
168	0x3d768303	0.060183536
169	0x3c49f00c	0.012325298
170	0xbd52def0	-0.05148214
171	0x3cdee138	0.027207002
172	0xbcf910ce	-0.03040352
173	0x3da54503	0.080698036
174	0xbda1ec57	-0.079064064
175	0xbcf6e8a4	-0.030140229
176	0xbdaec998	-0.08534545
177	0xbd184196	-0.037171923
178	0x3ce44381	0.02786422
179	0x3da99be0	0.08281684
180	0x3bfa91af	0.0076467614
181	0x3dacd8d7	0.084397964
182	0x3c8daad2	0.017293368
183	0x3d511722	0.05104745
184	0x3d911dca	0.0708576
185	0x3d92a124	0.071596414
186	0xbd4aa442	-0.049473055
187	0x3da1a789	0.07893283
188	0x3d51c4bd	0.051213015
189	0xbd2f0f86	-0.042739414
190	0xbd2cc41d	-0.042179216
191	0xbd9caa0a	-0.0764962
192	0x3ca29307	0.019845499
193	0xbd92b99f	-0.07164311
194	0x3d0fa405	0.03506853
195	0x3ce4a975	0.027912835
196	0xbd9d451e	-0.07679199
197	0x3cc54fcc	0.024085902
198	0xbc1c76fd	-0.009549853
199	0x3d2e0bcd	0.042491723
200	0x3d4fbbe9	0.050716314
201	0xbdb85d10	-0.09002125
202	0x3da6033c	0.08106086
203	0x3d9285b5	0.07154409
204	0x3d100c9d	0.03516828
205	0xbdaa61b1	-0.083194144
206	0xbd0b333f	-0.03398442
207	0xbcd1d813	-0.025615728
208	0xbcba161d	-0.022715623
209	0x3d4c2977	0.04984423
210	0x3d03a069	0.0321354
211	0x3d8f6655	0.0700194
212	0xbd112cb8	-0.035443038
213	0x3ce12748	0.027484551
214	0x3cee5642	0.029093865
215	0xbd9b67a6	-0.07588129
216	0xbdb45cf4	-0.08806792
217	0xbd3bdba0	-0.045863748
218	0x3d77d52d	0.060506035
219	0xbdaf3d35	-0.08556596
220	0xbd9d90bb	-0.07693621
221	0x3d4ad074	0.049515203
222	0x3d435492	0.047688074
223	0x3d94de75	0.07268993
224	0xbd8d9d66	-0.06914787
225	0xbd847cee	-0.06469141
226	0x3d39b894	0.045342043
227	0x3d9d6b7d	0.076865174
228	0x3d589f2e	0.05288618
229	0x3c62db41	0.0138462195
230	0x3cdc070a	0.026858825
231	0x3da71b4f	0.081595056
232	0xbd72e33d	-0.059298743
233	0xbd2df62d	-0.0424711
234	0x3d73def1	0.059538785
235	0xbd809ffd	-0.06280515
236	0xbd47a1f7	-0.048738446
237	0x3d84247b	0.064522706
238	0x3cce9d09	0.025221365
239	0x3cd88b93	0.026433742
240	0xbd22cbae	-0.039745025
241	0xbb65a498	-0.0035040732
242	0x3da5acc1	0.08089591
243	0xbd625e9c	-0.055266008
244	0x3a362bd0	0.00069492776
245	0x3d224133	0.03961296
246	0xbd80b349	-0.06284196
247	0x3daae1d6	0.08343856
248	0xbd3da3a6	-0.046298645
249	0xbcc0e84c	-0.023548268
250	0xbcc3e9ef	-0.02391526
251	0xbd755e56	-0.05990442
252	0xbdb1a0bc	-0.08673236
253	0x3d4c22d6	0.04983791
254	0x3cc05e5d	0.023482496
255	0xbda98af8	-0.08278459

fc2.bias f4 [128]
0	0xbd9a4a35	-0.07533685
1	0x3d9b3b79	0.07579703
2	0xbda06488	-0.07831675
3	0xbd1a2552	-0.037633248
4	0xbcb96962	-0.022633258
5	0xbc895b3b	-0.016767135
6	0xbc9deed4	-0.019278921
7	0x3d7520ed	0.059845854
8	0x3d8770f8	0.06613344
9	0xbdb5a841	-0.088699825
10	0xbda7f29f	-0.08200573
11	0xbdb1263a	-0.08649869
12	0x3de2a9ac	0.110675186
13	0xbc2fa3e7	-0.01072023
14	0xbd33347b	-0.04375122
15	0x3d2e6cba	0.04258416
16	0x3c3d456e	0.011552198
17	0x3c92163f	0.017832873
18	0x3dfce142	0.12347652
19	0x3d837b43	0.06419995
20	0x3dbb45ee	0.091441974
21	0xbd715c3d	-0.058925856
22	0xbb991611	-0.00467182
23	0xbd87190c	-0.06596574
24	0xbd02a0f5	-0.03189178
25	0xbc59ca23	-0.013292822
26	0x3d4b03f9	0.049564335
27	0x3d88a90c	0.06672868
28	0xbd4c1c8a	-0.049831904
29	0xbcde6e0f	-0.02715209
30	0x3d0899ec	0.033349916
31	0x3e114a96	0.14188609
32	0x3e4591dd	0.19293924
33	0xbdb482af	-0.088139884
34	0x3ca9763d	0.020686263
35	0x3d3ca990	0.046060145
36	0x3d436b64	0.047709838
37	0xbdb035bc	-0.08603999
38	0xbd8724fa	-0.065988496
39	0x3d65cfc5	0.056106348
40	0xbc2016db	-0.009771074
41	0x3d0fb62d	0.035085846
42	0x3d93a397	0.07208937
43	0xbc32d500	-0.010915041
44	0xbcd4c0e6	-0.025970887
45	0x3d456253	0.048189472
46	0xbd8d9a6c	-0.06914219
47	0xbc63441b	-0.013871218
48	0xbc5b6140	-0.013389885
49	0xbcad3d2f	-0.021147339
50	0x3d24704c	0.040146157
51	0xbcbaf45e	-0.022821601
52	0x3b411731	0.0029463286
53	0x3ccdac74	0.025106646
54	0x3b973829	0.004614849
55	0xbce8d164	-0.028420158
56	0x3da2979b	0.07939073
57	0x3d49c224	0.049257413
58	0xbc9a8556	-0.018862408
59	0x3d15dce4	0.03658761
60	0xbd1e637b	-0.03866909
61	0x3d3582a4	0.04431404
62	0x3d3181b0	0.04333657
63	0xbd193749	-0.03740624
64	0x3d66411a	0.05621443
65	0xbc2aa049	-0.0104141915
66	0x3dbf99da	0.09355517
67	0xbd08e0f1	-0.033417646
68	0xba2e1722	-0.00066410203
69	0xbc9751a1	-0.01847154
70	0x3c1cccb5	0.00957029
71	0xbdac2a7b	-0.0840654
72	0x3dc816a8	0.09769946
73	0xbd8d8be5	-0.069114484
74	0xbda83307	-0.08212858
75	0xbdc1affd	-0.09457395
76	0xbcbcf90b	-0.023067972
77	0x3d989ada	0.074514106
78	0x3c173a46	0.009230202
79	0xbbc3e723	-0.0059784814
80	0xbd3f682d	-0.04673021
81	0xbc672ac8	-0.014109321
82	0xbcdb5785	-0.026775131
83	0xbd8f2130	-0.06988752
84	0xbc9f8992	-0.019474778
85	0x3cd2907c	0.025703661
86	0x3d2932e7	0.04130831
87	0xbda46ceb	-0.08028587
88	0x3d991ee1	0.07476593
89	0x3e4db20f	0.20087455
90	0xbd2440a1	-0.040100697
91	0xbd9a2f6c	-0.07528576
92	0x3c537396	0.012905976
93	0x3ca35d1f	0.019941865
94	0xbcc197fd	-0.023632044
95	0xbd26515d	-0.040604938
96	0xbb58fe00	-0.003311038
97	0xbd793871	-0.060844842
98	0xbd74fc1a	-0.059810735
99	0x3ce7a2ae	0.028275814
100	0x3c23c336	0.009995272
101	0x3ca528a2	0.020160977
102	0x3d8cc9f3	0.06874456
103	0xba618fc1	-0.000860449
104	0x3da894aa	0.082314804
105	0x3dfed1c3	0.124423526
106	0xbd7b3bdc	-0.061336383
107	0x3d50b126	0.050950192
108	0x3d459e03	0.048246395
109	0xbd0a437a	-0.033755757
110	0x3e1dc629	0.15407623
111	0xbd25fb95	-0.04052313
112	0xbd693552	-0.056935616
113	0x3d6ccf87	0.0578151
114	0x3d27f226	0.041002415
115	0x3dadaa79	0.08479781
116	0xbd8efe0e	-0.06982051
117	0x3d24b155	0.04020818
118	0x3cb1c7f4	0.02170179
119	0xbd58210a	-0.052765884
120	0xbc42d238	-0.01189094
121	0x3d852fc8	0.06503254
122	0x3d18df7d	0.03732251
123	0xbd267707	-0.040640857
124	0xba77f664	-0.00094590173
125	0xbcffec94	-0.031240739
126	0x3d6ef72d	0.058341194
127	0x3dfbcba9	0.122947045

fc3.weight f4 [13, 128]
0	0xbc567157	-0.013088546
1	0xbca7c093	-0.020477569
2	0xbd8c6050	-0.06854308
3	0xbca03eab	-0.019561132
4	0x3d225783	0.03963424
5	0xbdae50d2	-0.08511509
6	0x3d091c9b	0.033474546
7	0x3dac8fad	0.084258415
8	0x3d1bd4c1	0.038044695
9	0x3d3ff0c9	0.04686049
10	0xbcc3f8da	-0.023922373
11	0xbbf44584	-0.007454576
12	0xbe080145	-0.13281734
13	0xbd2f350b	-0.042775195
14	0x3cb5ee62	0.022208396
15	0xbd478387	-0.04870942
16	0x3d55772e	0.05211561
17	0xbd2cf2db	-0.042223793
18	0x3bc4a03d	0.006000547
19	0xbd3e803e	-0.04650902
20	0xbe195ce1	-0.14976837
21	0xbd0ad59e	-0.033895127
22	0xbd7638db	-0.060112815
23	0x3c8d2eb6	0.017234188
24	0x3c640bd7	0.013918838
25	0x3d865c7a	0.06560607
26	0x3d3d0fdb	0.0461577
27	0xbdad2725	-0.08454732
28	0x3d0bb203	0.034105312
29	0x3d2ce27b	0.042208176
30	0xbdc05ea9	-0.09393055
31	0xbe175a1d	-0.14780469
32	0xbe2f1f0d	-0.17101689
33	0xbd33aee3	-0.043867957
34	0xbbe9b86d	-0.007132581
35	0x3db1ec26	0.0868762
36	0x3d985607	0.074382834
37	0xbcb9bcb2	-0.022672985
38	0x3bd75f00	0.006572604
39	0x3b88a2ad	0.004169783
40	0x3c0e958a	0.008702645
41	0xbd758f4b	-0.059951108
42	0x3c318e97	0.010837219
43	0x3d7f0100	0.062256813
44	0x3c6d16dd	0.014470783
45	0x3da557a3	0.08073356
46	0x3da81f48	0.082090914
47	0xbe132990	-0.14371324
48	0x3da0b46f	0.07846915
49	0xbd8ee7cb	-0.06977805
50	0xbd2b7c72	-0.041866727
51	0x3d5f5d63	0.05453242
52	0x3b5cc2ea	0.0033685514
53	0x3d9c5399	0.076331325
54	0x3d28c8f4	0.04120727
55	0xbc9a4061	-0.018829526
56	0x3d04abe0	0.032390475
57	0xbd81e93f	-0.06343316
58	0x3c1551c4	0.009113733
59	0xbd3e83cf	-0.04651242
60	0x3d87cfbf	0.06631421
61	0x3dc7afce	0.09750329
62	0x3d0e33f9	0.034717534
63	0xbd4a67ec	-0.049415514
64	0x3bd494ca	0.0064874636
65	0x3d793ee0	0.060850978
66	0xbda9ca53	-0.082905434
67	0xbc8f3310	-0.017480403
68	0x3d0e6b68	0.0347704
69	0xbbfbdb96	-0.007686089
70	0x3d02d7cb	0.031944077
71	0x398185a7	0.00024704376
72	0xbdb97cbb	-0.090569936
73	0x3c5239b8	0.012831144
74	0xba1a6252	-0.00058892847
75	0xbd831602	-0.06400682
76	0xbd86956a	-0.06571467
77	0x3bdabb1a	0.0066751363
78	0xbd0cfaf3	-0.03441901
79	0xbb2f9fa0	-0.0026798025
80	0x3d85c2e9	0.06531317
81	0xbd3e11d4	-0.04640372
82	0x3d45a96a	0.04825727
83	0x3d7c6dcc	0.061628148
84	0x3d45d202	0.048295982
85	0xbdebf6f0	-0.11521709
86	0x3c5b4343	0.013382736
87	0xbd857a80	-0.06517506
88	0xbd653425	-0.055957932
89	0xbddb7f8a	-0.107176855
90	0x3d9c9feb	0.076476894
91	0x3d4aa92a	0.049477734
92	0x3ccaf120	0.02477318
93	0x3d51e5fe	0.05124473
94	0xbdace2b8	-0.08441681
95	0xbdaca741	-0.08430339
96	0x3d165fc5	0.036712427
97	0xbcac63d3	-0.021043694
98	0x3ceca1a0	0.028885663
99	0xbd807942	-0.06273128
100	0x3dab638e	0.08368598
101	0xbd95362b	-0.07285722
102	0x3d1feb01	0.039042477
103	0x3d3ebbb3	0.046565723
104	0xbe27fc08	-0.16404736
105	0x3ca8bf8f	0.020599155
106	0x3d240cda	0.04005132
107	0xbd059c93	-0.032620024
108	0xbcfbf7ec	-0.030757867
109	0x3d8a8840	0.06764269
110	0xbdd580fb	-0.10424992
111	0x3bbe6f1f	0.0058115865
112	0x3d28c8f8	0.041207284
113	0x3d1226f4	0.03568168
114	0xbd354919	-0.044259164
115	0xbb732b80	-0.0037104785
116	0x3cdb95e8	0.02680488
117	0x3d0c9c0a	0.034328498
118	0xbd2839c1	-0.041070703
119	0x3d233523	0.039845597
120	0xbc9cfe54	-0.019164242
121	0x3b323ca4	0.002719679
122	0x3d39a33e	0.045321696
123	0x3d82f26a	0.06393893
124	0xbc44a16e	-0.012001378
125	0x3d6b4cd9	0.057446335
126	0x3d8b4250	0.067997575
127	0xbc180473	-0.0092784045
128	0xbbb6af28	-0.0055750795
129	0xbd8adcc0	-0.06780386
130	0xbd72d4e7	-0.05928507
131	0x3d5088ea	0.05091182
132	0xbd658675	-0.05603643
133	0xbd552e11	-0.052045885
134	0x3d6a8508	0.057255775
135	0xbd48e616	-0.049047552
136	0xbd8c0485	-0.068367995
137	0x3c6a3147	0.014293975
138	0x3d1c4086	0.03814747
139	0xbda41715	-0.08012215
140	0xbd10fd3c	-0.035397753
141	0xbd8b98a1	-0.06816221
142	0x3d18befe	0.03729152
143	0xbc52ece9	-0.012873867
144	0x3cf3a589	0.02974202
145	0x3dc040c8	0.09387356
146	0xbd408a4c	-0.04700689
147	0xbd17fa9a	-0.037104227
148	0xbcf7e093	-0.030258453
149	0x3cd953e4	0.02652926
150	0xbd21ca56	-0.039499603
151	0xbd793670	-0.06084293
152	0xbcdc74ee	-0.026911225
153	0x3d0e894b	0.0347989
154	0x3d18fc53	0.03735001
155	0xbddb8e2c	-0.107204765
156	0x3d991aad	0.07475791
157	0xbd75ea57	-0.060037937
158	0xbcccdbe4	-0.025007196
159	0xbdc3d79d	-0.09562609
160	0xbe00d2e3	-0.12580447
161	0x3d961520	0.07328248
162	0xbd8ad7b5	-0.06779424
163	0x3d3e59a7	0.046472218
164	0x3ce38eb4	0.027778007
165	0xbd3ae6f6	-0.045630418
166	0x3d9b85f1	0.07593907
167	0xbd43a9ed	-0.047769476
168	0xba021b04	-0.0004963132
169	0x3dab6522	0.08368899
170	0xbdaa77c2	-0.08323623
171	0x3d957e58	0.07299489
172	0xbd32a934	-0.043618396
173	0xbd92ec12	-0.07173933
174	0x3d4b1aa5	0.049585957
175	0xbdb83675	-0.08994762
176	0xbd95c831	-0.07313574
177	0xbd42575d	-0.047446597
178	0x3d720c1c	0.05909358
179	0x3da5bda2	0.0809281
180	0xbbdaecb1	-0.006681048
181	0x3d39ed17	0.045392122
182	0x3ae96e99	0.001780945
183	0xbd878956	-0.066179916
184	0xbc3657c7	-0.011129326
185	0x3d80e5a0	0.062937975
186	0xbc80260a	-0.015643138
187	0xbd705b17	-0.05868062
188	0x3d949708	0.072553694
189	0xbc96b66a	-0.018397529
190	0x3d979026	0.07400541
191	0x3d4fb048	0.050705224
192	0x3c7e3e95	0.01551785
193	0x3cc05c87	0.02348162
194	0xbd3d1533	-0.046162795
195	0xbd1dd20d	-0.0385304
196	0xbd4d84d2	-0.050175495
197	0xbd0f406f	-0.034973558
198	0xbd4a8ad6	-0.04944881
199	0xbc5534b0	-0.01301305
200	0xbdc2353c	-0.0948281
201	0xbce930c3	-0.028465634
202	0xbd768068	-0.06018105
203	0xbdadfa71	-0.084950335
204	0x3ca5584a	0.020183701
205	0x3d1167e9	0.035499487
206	0xbd12d503	-0.035847675
207	0xbd862722	-0.06550433
208	0xbd290f5d	-0.041274417
209	0xbde69701	-0.112592705
210	0xbdc20d19	-0.094751544
211	0x3dbbdace	0.09172593
212	0x3d440257	0.047853794
213	0x3cdc4a40	0.026890874
214	0xbdbd8dfd	-0.09255598
215	0xbd6f6393	-0.05844457
216	0x3d9c035a	0.07617827
217	0xbdd5e2f1	-0.10443676
218	0xbd5fbec1	-0.054625276
219	0xbd96c92a	-0.07362588
220	0x3cdc63df	0.026903091
221	0xbc4142c2	-0.011795701
222	0xbd5ce37c	-0.053927884
223	0x3d9a2430	0.075264335
224	0xbd553849	-0.05205563
225	0x3c1cc310	0.009567991
226	0x3cfb8ab9	0.030705797
227	0x3d2d3ec9	0.042296205
228	0x3d9784da	0.07398386
229	0xbca82452	-0.020525131
230	0x3d22069c	0.039557084
231	0xbbe5d863	-0.0070143207
232	0xbd5eca36	-0.054392062
233	0xbddba232	-0.10724296
234	0x3d477a56	0.048700653
235	0x3cd417d0	0.025890261
236	0x3cca104c	0.024665974
237	0xbbddf37a	-0.0067734094
238	0xbccd0af6	-0.02502964
239	0xbdaed80f	-0.08537304
240	0x3d857669	0.065167256
241	0x3d82a048	0.063782275
242	0x3d41f945	0.047356863
243	0xbd5eab6f	-0.05436271
244	0xbda8e919	-0.08247585
245	0xbcd0a52e	-0.025469389
246	0xbd916e00	-0.07101059
247	0xbd2d74e7	-0.042347815
248	0x3d7eed4f	0.062238034
249	0xbd49b2a1	-0.04924262
250	0x3db457c2	0.08805801
251	0xbd368061	-0.044556025
252	0xbd289de3	-0.041166198
253	0xbd9114ba	-0.070840314
254	0x3d09e3fc	0.03366469
255	0xbc69a02e	-0.014259381

fc3.bias f4 [13]
0	0x3d2b08ea	0.041756548
1	0xbd8c93a9	-0.068641014
2	0xbc2a85f8	-0.010407917
3	0x3d00bde2	0.031431086
4	0x3c9b4c16	0.018957179
5	0xbda16f62	-0.07882573
6	0xbd978e8f	-0.07400238
7	0xbdd8e4a1	-0.105904825
8	0x3cbbc1a1	0.022919478
9	0xbd65fb8e	-0.056148104
10	0xbcd2dfe9	-0.025741534
11	0x3d4e4039	0.050354216
12	0x3ce49f71	0.027908059
