models/model_episode_1800.pth (torch, 77430 bytes, 6 tensors)

fc1.weight f4 [128, 3]
000000 b1 04 d9 3e 6c b5 03 3f 4b 8c 1b be 47 5a 00 3f
       0.42386392 0.514487 -0.15190236 0.5013775
000010 4a 1a 42 bd 64 e2 24 3e cc f7 80 be 59 d5 cc 3e
       -0.047388352 0.16101986 -0.25189054 0.4000652
000020 03 b1 0f 3f a6 83 f5 be eb 43 0b 3f 46 b3 b7 3d
       0.56129473 -0.47952002 0.5440051 0.089697406
000030 c7 af c9 3e d7 ab 08 3e af ee 94 3e 30 69 de bd
       0.3939192 0.13346802 0.2908835 -0.10859907
000040 fe 5e fc 3e 0c 1d 50 3d 19 c7 8d be 25 fa 0f 3e
       0.49291223 0.05080895 -0.27690962 0.14060266
000050 fe 31 88 be 3c aa 8a bd 9e 1f 70 be 3c 18 c4 3e
       -0.2660064 -0.06770751 -0.23449561 0.3829974
000060 b1 56 ea be 80 1e 6f be 0b 31 40 be 4d a3 b6 be
       -0.45769265 -0.23351479 -0.18768708 -0.35671464
000070 ba 44 04 3e 63 03 0d bf 68 06 07 3f 3e ae e6 be
       0.12916842 -0.5508329 0.5274415 -0.4505481
000080 10 a7 f2 3e b6 c6 c4 3d ad f7 3f be 07 ab b6 3e
       0.47393084 0.096082136 -0.18746825 0.35677359
000090 79 4b 94 3d 64 c8 02 3f 4a 09 c5 3d 62 67 2e be
       0.07240958 0.5108702 0.096209124 -0.17031625
0000a0 10 57 83 3e 6a a2 d9 bd 2d 9f 77 3e d3 ec 18 3f
       0.2565236 -0.10626681 0.24181814 0.59736365
0000b0 fd 2b b3 3e bf d2 96 be 1a 42 c2 3e 09 e4 06 3e
       0.34994498 -0.29457662 0.37941056 0.13172926
0000c0 23 1e 96 3e f6 2b b4 be 64 4f 12 bf ff 7f 82 be
       0.29319867 -0.3518979 -0.5715239 -0.25488278
0000d0 9d 4f de be c2 cf fd 3e 62 a8 22 3e 7c a2 9d 3e
       -0.43420115 0.4957257 0.15884545 0.30788028
0000e0 6d db 42 3e 93 c2 49 bb 81 87 07 3f 27 5d dc be
       0.19029017 -0.0030786141 0.5294114 -0.4303982
0000f0 f7 e5 14 3d db c2 c9 be bd 4c 36 3e e2 99 4b be
       0.036352124 -0.39406475 0.17802711 -0.1988292
000100 c5 27 35 3e 83 58 f6 bd c6 2b f5 3e 65 34 af be
       0.17690952 -0.12028601 0.4788496 -0.3421966
000110 18 4c b0 be 0d 45 9f be c3 36 25 3f c1 78 66 3e
       -0.34433055 -0.3110737 0.64536685 0.22507001
000120 e6 38 0e 3f 54 f4 f3 be d7 99 12 bf f3 44 e7 be
       0.5555557 -0.47647345 -0.5726599 -0.45169792
000130 61 d9 c6 be 62 76 6f 3e 60 50 4f 3e 64 61 09 3f
       -0.38837722 0.23385003 0.20245504 0.5366423
000140 2e 0b 9b be 74 c5 9e be 09 27 db 3e 2a 58 55 be
       -0.30281967 -0.3101002 0.4280322 -0.20834413
000150 db 9f 9c 3e 7d f1 c3 bd 82 26 ae 3e ed 4f ea be
       0.3059071 -0.095675446 0.34013754 -0.45764104
000160 b0 c2 99 be 0a f8 2a 3e 3e 00 fb 3d 6c 45 2c bd
       -0.30031347 0.16696182 0.122559056 -0.042058393
000170 5e 55 c2 3e 31 f4 c8 3e 19 5d d6 be 2f d0 9d be
       0.37955755 0.39248803 -0.41867903 -0.30822894
000180 97 ec 02 3f 73 b7 5a be 33 00 54 be 19 03 0f bf
       0.5114226 -0.21359043 -0.20703201 -0.558641
000190 81 48 a9 be 83 af 13 3e 0c 12 9c bd 06 93 d6 be
       -0.3306313 0.14422421 -0.0762063 -0.41909045
0001a0 51 e2 5d 3c d2 eb c9 be f4 c9 fa be 18 c7 a2 be
       0.013542728 -0.3943773 -0.48982203 -0.3179252
0001b0 99 5b 01 bf ce 38 bc be 6d be 13 3f c6 4d 08 3e
       -0.5053039 -0.3676209 0.5771244 0.13310918
0001c0 4d db 8a 3e 30 da 09 bf 00 25 c2 be 5d c9 44 be
       0.27120438 -0.5384855 -0.37918854 -0.19217439
0001d0 32 e5 b8 3d 56 09 b5 be 20 2b d2 bd c9 61 a4 be
       0.090280905 -0.35358685 -0.10262132 -0.32105854
0001e0 e8 53 fe bb 56 bb 33 be cc 2a 42 bd 42 4f c8 be
       -0.0077614672 -0.17551932 -0.047404096 -0.3912297
0001f0 94 e6 ca be 9d 74 ac be 58 5e 4a be 66 50 e9 be
       -0.39629042 -0.3368272 -0.19762552 -0.45569152
000200 c0 da f7 3e 00 a2 08 be f0 55 14 3f f4 5c 6c 3e
       0.4840908 -0.13343048 0.5794363 0.23082334
000210 ef 86 df be f3 96 f9 3e 19 27 17 be fb 9f 62 be
       -0.43657634 0.48747978 -0.14761008 -0.2213134
000220 21 5f f5 be 48 f0 12 bf 09 e3 0a 3e 23 08 54 bd
       -0.4792414 -0.5739789 0.1356317 -0.051765572
000230 a5 c2 85 3e bc 51 c7 be a1 e9 06 3f 9d cd d1 be
       0.26125064 -0.38929546 0.5270024 -0.40977183
000240 04 c8 ed bd 57 cf 1f 3e 7e 5d ae 3e d7 c8 e9 3e
       -0.116104156 0.15606438 0.34055704 0.4566104
000250 d5 b2 19 3f fe 78 e2 be 91 c9 14 3e 18 4b 7e be
       0.600385 -0.44232935 0.14530016 -0.24833333
000260 15 93 81 bd 0a d9 dc be 46 ac 1b 3f 5f ff d5 be
       -0.06326882 -0.43134338 0.60809743 -0.41796395
000270 38 3c 84 3e 55 af 7e 3e ed 03 7d 3e db e8 ae be
       0.25827193 0.24871571 0.24708529 -0.3416203
000280 9d c5 0e 3f bf 98 f3 3d 10 1b 98 3d 3d 40 02 bf
       0.55770284 0.118943684 0.07427037 -0.5087927
000290 87 2e 78 3e 98 17 ca bd 50 94 87 be 31 7d 02 3f
       0.24236499 -0.098677814 -0.2648034 0.50972277
0002a0 0e cf 03 3e e4 8c a3 be c9 9d 95 be 37 5b 96 bd
       0.12871954 -0.3194343 -0.29221943 -0.073416166
0002b0 c8 a0 c1 3e cf a5 f8 bd f1 a9 a8 be 5b 74 4a be
       0.3781798 -0.121410005 -0.32942155 -0.19770949
0002c0 7b d6 dc be 89 90 74 3e 68 1c 13 3f 98 6a 01 bf
       -0.43132386 0.23883261 0.5746522 -0.50553274
0002d0 94 80 10 3e f1 03 c1 3e b2 fe f2 3d 26 e5 7a be
       0.14111549 0.3769832 0.118649855 -0.24501476
0002e0 97 cd bb 3e 6c 6b ae 3e 7a 11 5d 3e 7c c6 cf bd
       0.3668029 0.3406633 0.21588698 -0.1014528
0002f0 62 8d 1c be e9 9d 81 3d 28 6b 82 bb 0e f7 00 be
       -0.15288308 0.06328947 -0.003980059 -0.12594244
000300 dd 2d c1 3e 49 2e 19 3f c4 54 70 b9 8c 5e 04 be
       0.37730303 0.5983625 -0.00022919761 -0.12926692
000310 6f 08 0a 3c 1b 33 0d bd f4 d2 20 3e 78 2b 83 3e
       0.008424862 -0.034472566 0.15705472 0.25619102
000320 5d 88 04 bf 91 0d 39 be 19 b2 0e 3f 41 b8 92 3e
       -0.51770574 -0.18071581 0.55740505 0.286562
000330 d1 3d eb bc 90 38 b2 be 04 da b4 be 3b a3 06 bf
       -0.028716 -0.3480878 -0.35322583 -0.5259282
000340 02 ad 4b be 96 e5 3c 3e 5f 7f c5 3e 00 84 bd 3e
       -0.19890216 0.18446955 0.3857374 0.3701477
000350 6d ef ed be f0 2e ae be 15 b2 27 bc 66 85 16 3f
       -0.4647173 -0.34020185 -0.010235329 0.587973
000360 82 0b ab 3d f0 1a 19 be 59 97 74 3e 9c d0 4b be
       0.08351804 -0.14951682 0.2388586 -0.19903797
000370 0b 3a 82 be eb ff eb 3e 4f 69 86 be d9 08 ed bd
       -0.25434908 0.46093687 -0.2625222 -0.11573953
000380 a2 08 13 bf 86 15 c6 3e 5c 27 0b 3f 84 60 77 3e
       -0.5743505 0.38688296 0.5435693 0.24157912
000390 d8 1d ce be 12 df 11 bf 33 15 f0 be d4 1d df 3e
       -0.40257144 -0.56981003 -0.46891174 0.43577445
0003a0 0d 7b bb 3e 0a 2b fc 3e 15 8d 99 3e 01 b8 7c 3e
       0.36617318 0.49251586 0.2999045 0.24679567
0003b0 e9 1e 90 3c e1 ce e0 be c4 43 fd be ff 3e 0a bf
       0.017592864 -0.43907836 -0.49465764 -0.54002374
0003c0 e9 da 59 3e 5c 75 a6 be 98 7a fa bd 0c 1f aa be
       0.21274914 -0.32511413 -0.12230414 -0.33226812
0003d0 ac 76 d7 bd 52 0e d0 be e0 26 c1 be 12 1c 44 3e
       -0.10520682 -0.40635926 -0.37724972 0.19151333
0003e0 59 b4 2f be 1c 7d b6 3e 0e aa 3d be 4d d8 d8 be
       -0.17158641 0.35642326 -0.18521902 -0.42352524
0003f0 eb 13 df bd 1d ee 43 be e4 08 34 be de 70 08 bf
       -0.10892471 -0.19133802 -0.17581517 -0.5329722

fc1.bias f4 [128]
000000 b3 db 0c 3d 83 e7 17 3f 70 06 dd be b8 1d 3e be
       0.03438921 0.59337634 -0.43168974 -0.18566024
000010 80 a6 c3 3e 1e 81 b6 bd 98 80 ff bd f7 68 76 be
       0.38212967 -0.08911346 -0.12475699 -0.24063478
000020 b2 28 da 3e 3e 2c b3 3e a7 3d 66 3e 4b 1e a6 be
       0.42609173 0.34994692 0.22484456 -0.32444987
000030 c6 73 da be 05 78 1e 3e e9 e9 79 3e 61 76 67 be
       -0.42666453 0.15475471 0.24405636 -0.22603752
000040 12 6b 25 be 9c a3 c8 3e 68 fb d5 3d c5 f2 c2 3d
       -0.16154125 0.39187324 0.104483426 0.09518961
000050 0c 7f 11 be 01 d9 05 bf bc f8 0a bf d5 71 21 be
       -0.14208621 -0.52284247 -0.5428579 -0.1576608
000060 f2 42 96 be 4c 31 38 3e 94 97 f7 bd ae 7d de bd
       -0.2934795 0.17987555 -0.12089458 -0.10863815
000070 25 2c 15 3f 9a a7 44 3e 1e d8 01 3f f8 1a 8f be
       0.58270484 0.1920456 0.50720394 -0.27950263
000080 77 60 82 be d9 4a 59 3e 02 f4 c4 be b2 3c c1 be
       -0.25464222 0.21219958 -0.38467413 -0.3774162
000090 d1 70 e4 bc 71 ab fa bd f5 99 dd be 00 67 f9 3e
       -0.027885826 -0.12239731 -0.43281522 0.48711395
0000a0 b1 08 fe 3e a6 d0 bf 3d b5 df cd bd 77 e0 eb be
       0.49616006 0.093659684 -0.10052434 -0.4606969
0000b0 73 63 00 be 41 83 16 3e c5 63 ac 3e 19 6d ca 3c
       -0.12537937 0.14698507 0.33669868 0.024710225
0000c0 fb c1 4c be 15 eb c5 3e 1d 6b eb be 3b a4 df 3e
       -0.19995873 0.38655916 -0.45980158 0.43679985
0000d0 9d 69 3e be cd 6f 08 3d e4 a9 e9 bd 7a 18 89 3d
       -0.18594976 0.033309747 -0.11409357 0.06694122
0000e0 66 a9 32 be 92 cd ed 3e 46 ea 75 bc 9b c7 11 3f
       -0.17447433 0.464459 -0.015009468 0.569452
0000f0 fd 57 20 3f 7b 9c 64 be 34 a5 d7 be 39 6e 0d 3f
       0.6263426 -0.22325318 -0.42118227 0.5524631
000100 f9 9e 0b 3f 06 b5 e1 be 81 09 29 3d 91 b7 ff be
       0.5453945 -0.44083422 0.04126883 -0.49944738
000110 0a fb f1 be ae dc ce 3d dd 3a 7f 3e 06 4e 49 3e
       -0.4726184 0.10100685 0.24924798 0.1965867
000120 d4 e7 20 be a4 8e 24 3f 1d 0f a9 3d 6e 51 7a be
       -0.15713435 0.6428015 0.08254836 -0.24445125
000130 c0 e1 05 bd ce 40 60 3e fd e4 94 3e f5 03 d1 be
       -0.032685995 0.21899721 0.29080954 -0.4082333
000140 e1 a3 34 3e b1 04 97 be f5 a0 f5 be f3 75 a1 be
       0.1764064 -0.29495767 -0.47974363 -0.315353
000150 21 0d 22 3f 34 4d 1a 3f 4e 27 14 3f 83 93 c9 3e
       0.63301283 0.6027405 0.57872474 0.39370355
000160 eb 6d 09 3f 06 44 9e bd 32 a6 a2 be 80 25 bc 3e
       0.53683347 -0.07727818 -0.31767422 0.3674736
000170 37 1a 3f be 1b 7e c7 be db ca 3c be f0 23 f8 3d
       -0.18662344 -0.38963398 -0.18436758 0.121162295
000180 bf 6e be 3e 48 a1 65 be 6f fb ad be d6 7f 9f 3d
       0.37193868 -0.22424805 -0.3398089 0.07788055
000190 09 3d ae be b7 74 c0 be 49 29 cd 3e b2 ac 9d bc
       -0.3403094 -0.37589046 0.4007056 -0.019247387
0001a0 bb 64 20 3f a2 7c 20 3f 9a ac 72 3e de b5 8f 3e
       0.626537 0.62690175 0.23698655 0.2806844
0001b0 31 25 08 3e 1e 24 14 3c 10 f3 49 3d 66 bc 08 3e
       0.13295437 0.009041814 0.049304068 0.13353118
0001c0 41 a7 6d 3e ff 09 10 3f 72 37 19 be 70 32 55 be
       0.23208334 0.5626525 -0.14962557 -0.20820022
0001d0 5c 1a 53 bd 40 c2 82 be 0c 61 27 3e ee 1f fd 3e
       -0.05153881 -0.25538826 0.16345614 0.49438423
0001e0 44 f3 08 3f 3a d8 97 3e 37 8b d9 be 94 5a 67 be
       0.53496194 0.29657155 -0.42489025 -0.22593147
0001f0 15 e5 01 be d9 b1 4a bd 9e eb 5d 3c 7f ad 07 bf
       -0.12685044 -0.049486015 0.013544945 -0.5299911

fc2.weight f4 [128, 128]
000000 81 5d e1 3c 38 18 8a bd fa 13 65 bd 0e 7f 96 bd
       0.027510406 -0.067429006 -0.055927254 -0.073484525
000010 c8 b9 9d 3d 17 6a ab bd 12 8e 88 3d da ba 42 bb
       0.077014506 -0.083698444 0.06667723 -0.0029713423
000020 2c 6b 28 bc 89 72 62 3d 77 d9 05 bc d5 0d 63 3d
       -0.010279458 0.05528501 -0.008169523 0.055433113
000030 33 e1 82 3d ae 29 9d bd 83 4e 0b 3d cb b0 88 3c
       0.063906096 -0.076739654 0.03401042 0.016685864
000040 63 af 9b 3c 0f 6b 53 3c bd 0e c6 3c 30 2a 2e bd
       0.01900453 0.012903943 0.02417695 -0.042520702
000050 4f 47 39 bc 76 fd ab 3d 49 3c 73 3d a5 9e 59 bb
       -0.011308505 0.08397953 0.059383664 -0.0033206132
000060 18 41 aa bd a8 e0 7d 3b eb 89 76 bd 11 34 93 3d
       -0.08313197 0.0038738642 -0.060190123 0.07187665
000070 03 ca 5b bd 42 1e d1 bb 22 b4 a0 bc 33 da 80 3c
       -0.05365945 -0.006381781 -0.019617144 0.015729045
000080 1d 58 aa 3d 3f 9a 09 3c 06 ae 51 3d d9 82 8c 3d
       0.083175875 0.008398592 0.051191352 0.06860895
000090 91 23 92 3d a8 0f fa bc d9 f1 a1 bc e8 7a 2e 3d
       0.0713569 -0.030525044 -0.019768642 0.04259768
0000a0 ca 93 c5 bc 98 87 29 3d 01 30 9e bc b7 8d 75 bd
       -0.024118323 0.041389078 -0.01931 -0.059949603
0000b0 8d 5d 13 3d 3b 07 5e 3c 12 6a 21 3d 16 d7 b3 3d
       0.03597789 0.013551529 0.039407797 0.08781259
0000c0 fc 2c 77 3d 58 9a ab 3d c7 04 9b 3b 11 b7 9b bd
       0.060345635 0.08379048 0.004730794 -0.076032765
0000d0 e0 fa 7d bd 90 e3 60 bd e3 85 9f bd 92 78 35 bd
       -0.06200683 -0.05490452 -0.07789209 -0.044304438
0000e0 fc a3 a6 bd de 02 a7 bd 7e 56 58 bd 7a 74 b2 bd
       -0.08136746 -0.08154844 -0.05281686 -0.087136224
0000f0 4e 39 5e bd 69 0c 0a 3d cc fa 96 3d d7 62 d7 bc
       -0.05425387 0.03370324 0.073720545 -0.026292248
000100 65 9e d2 bc ce 4f 41 3d 8d 9e 32 bd 05 2f 2b bd
       -0.025710294 0.04719525 -0.043608237 -0.04179289
000110 0e 10 5f 3d f2 b8 9d bd a0 12 31 3c c2 e8 9f 3d
       0.05445867 -0.07701291 0.010807663 0.07808067
000120 c7 56 78 3c 89 e8 c4 3c 1e d9 52 bd 26 d6 9f ba
       0.015157408 0.024036663 -0.05147659 -0.0012194559
000130 82 40 9f 3b a1 b6 b1 3c 2e ab 0c 3d f1 4a 9d 3d
       0.004859985 0.02169353 0.034342937 0.076803096
000140 06 2c 8a bd ad a2 2d 3b 3d e3 34 bd a7 32 8f bd
       -0.06746678 0.0026494667 -0.044162024 -0.06992083
000150 fd ed e7 bb 03 57 9f bd a0 aa 7c 3d be b7 27 3c
       -0.007077931 -0.07780268 0.06168616 0.010236679
000160 a8 1f 43 bd 9f 31 3d 3d 5f 52 ab bd 49 09 0c bd
       -0.04763761 0.0461899 -0.083653204 -0.034188543
000170 57 10 8d bc 3c d2 99 bd 57 37 66 bd a5 5d 6c bc
       -0.017219706 -0.07510802 -0.05620512 -0.0144266235
000180 df 59 89 3d 56 cd ae 3d 02 5a 66 3d 96 2e 58 bd
       0.06706595 0.085352585 0.056238182 -0.052778803
000190 76 da 6c bd 6e f9 9d 3d 34 0f 00 3d 84 e5 19 3b
       -0.057825528 0.077135906 0.0312645 0.002348275
0001a0 59 fb 43 3c 12 7c 91 bd 45 c2 f1 bc a3 40 ae 3d
       0.011961781 -0.07103743 -0.02951158 0.08508422
0001b0 af 94 b2 bc 6f 4a 91 bb 55 4e 96 bd ea 86 4a bd
       -0.021799413 -0.004433922 -0.073391594 -0.04944507
0001c0 de 90 ec ba 3c e2 60 bd c9 95 33 bc c0 55 13 3d
       -0.0018048545 -0.054903254 -0.0109610045 0.03597045
0001d0 aa 11 b1 bd 4a 0f d7 3c 07 62 6f bd 80 b1 30 bd
       -0.08645947 0.026252408 -0.058443096 -0.043138027
0001e0 7b fd 0a 3d a0 ee 8f 3d 87 e5 c5 bc 52 a4 14 bd
       0.033933144 0.07027936 -0.024157299 -0.03628952
0001f0 26 af a3 bd 22 b0 3a bd d9 81 9e bd 4f b8 a5 bc
       -0.07992391 -0.04557813 -0.0773961 -0.020229487
000200 67 65 80 3c b3 87 ae bd e9 0c 9e 3d e1 8b 5a 3d
       0.015673352 -0.08521976 0.07717306 0.053356055
000210 14 15 b6 bd 21 53 36 bd 47 1d f4 3c c5 c4 94 bc
       -0.08890739 -0.04451287 0.029799117 -0.018160233
000220 bc 2d 40 bc e5 8d 2c bd f5 65 91 3d 04 61 4a bd
       -0.011729654 -0.04212751 0.07099525 -0.049408928
000230 24 eb 9c 3d 92 dd 5d 3b 56 c6 7c 3c c5 27 8a 3d
       0.07662037 0.003385399 0.015428146 0.06745867
000240 27 9b 6e bc d2 1f 4e bd 63 17 88 bc aa 12 8e 3d
       -0.014563358 -0.050323315 -0.016612714 0.06937154
000250 66 50 86 bd f5 59 a4 3c 7d e7 b1 bd 5e c9 34 3d
       -0.065583035 0.020062426 -0.08686731 0.04413735
000260 f9 c2 05 3d ea 8f 75 3b d9 a5 11 3d 08 f5 f0 ba
       0.032656644 0.0037469813 0.035558555 -0.0018383572
000270 75 a7 3e 3d 72 4c 8f bd 56 3f 7c bc 0b 9b 20 3d
       0.04654642 -0.06997003 -0.01539596 0.03921036
000280 19 43 b4 3d 5d 6b 38 3d f4 a1 83 bd ae 38 8b 3d
       0.0880186 0.045024265 -0.064273745 0.0679792
000290 ce 77 a1 bc d9 99 9a bc bd 87 a4 bd 9a 56 7b bc
       -0.019710448 -0.018872188 -0.080337025 -0.015340472
0002a0 03 83 76 3d 0c f0 49 3c f0 de 52 bd 38 e1 de 3c
       0.060183536 0.012325298 -0.05148214 0.027207002
0002b0 ce 10 f9 bc 03 45 a5 3d 57 ec a1 bd a4 e8 f6 bc
       -0.03040352 0.080698036 -0.079064064 -0.030140229
0002c0 98 c9 ae bd 96 41 18 bd 81 43 e4 3c e0 9b a9 3d
       -0.08534545 -0.037171923 0.02786422 0.08281684
0002d0 af 91 fa 3b d7 d8 ac 3d d2 aa 8d 3c 22 17 51 3d
       0.0076467614 0.084397964 0.017293368 0.05104745
0002e0 ca 1d 91 3d 24 a1 92 3d 42 a4 4a bd 89 a7 a1 3d
       0.0708576 0.071596414 -0.049473055 0.07893283
0002f0 bd c4 51 3d 86 0f 2f bd 1d c4 2c bd 0a aa 9c bd
       0.051213015 -0.042739414 -0.042179216 -0.0764962
000300 07 93 a2 3c 9f b9 92 bd 05 a4 0f 3d 75 a9 e4 3c
       0.019845499 -0.07164311 0.03506853 0.027912835
000310 1e 45 9d bd cc 4f c5 3c fd 76 1c bc cd 0b 2e 3d
       -0.07679199 0.024085902 -0.009549853 0.042491723
000320 e9 bb 4f 3d 10 5d b8 bd 3c 03 a6 3d b5 85 92 3d
       0.050716314 -0.09002125 0.08106086 0.07154409
000330 9d 0c 10 3d b1 61 aa bd 3f 33 0b bd 13 d8 d1 bc
       0.03516828 -0.083194144 -0.03398442 -0.025615728
000340 1d 16 ba bc 77 29 4c 3d 69 a0 03 3d 55 66 8f 3d
       -0.022715623 0.04984423 0.0321354 0.0700194
000350 b8 2c 11 bd 48 27 e1 3c 42 56 ee 3c a6 67 9b bd
       -0.035443038 0.027484551 0.029093865 -0.07588129
000360 f4 5c b4 bd a0 db 3b bd 2d d5 77 3d 35 3d af bd
       -0.08806792 -0.045863748 0.060506035 -0.08556596
000370 bb 90 9d bd 74 d0 4a 3d 92 54 43 3d 75 de 94 3d
       -0.07693621 0.049515203 0.047688074 0.07268993
000380 66 9d 8d bd ee 7c 84 bd 94 b8 39 3d 7d 6b 9d 3d
       -0.06914787 -0.06469141 0.045342043 0.076865174
000390 2e 9f 58 3d 41 db 62 3c 0a 07 dc 3c 4f 1b a7 3d
       0.05288618 0.0138462195 0.026858825 0.081595056
0003a0 3d e3 72 bd 2d f6 2d bd f1 de 73 3d fd 9f 80 bd
       -0.059298743 -0.0424711 0.059538785 -0.06280515
0003b0 f7 a1 47 bd 7b 24 84 3d 09 9d ce 3c 93 8b d8 3c
       -0.048738446 0.064522706 0.025221365 0.026433742
0003c0 ae cb 22 bd 98 a4 65 bb c1 ac a5 3d 9c 5e 62 bd
       -0.039745025 -0.0035040732 0.08089591 -0.055266008
0003d0 d0 2b 36 3a 33 41 22 3d 49 b3 80 bd d6 e1 aa 3d
       0.00069492776 0.03961296 -0.06284196 0.08343856
0003e0 a6 a3 3d bd 4c e8 c0 bc ef e9 c3 bc 56 5e 75 bd
       -0.046298645 -0.023548268 -0.02391526 -0.05990442
0003f0 bc a0 b1 bd d6 22 4c 3d 5d 5e c0 3c f8 8a a9 bd
       -0.08673236 0.04983791 0.023482496 -0.08278459

fc2.bias f4 [128]
000000 35 4a 9a bd 79 3b 9b 3d 88 64 a0 bd 52 25 1a bd
       -0.07533685 0.07579703 -0.07831675 -0.037633248
000010 62 69 b9 bc 3b 5b 89 bc d4 ee 9d bc ed 20 75 3d
       -0.022633258 -0.016767135 -0.019278921 0.059845854
000020 f8 70 87 3d 41 a8 b5 bd 9f f2 a7 bd 3a 26 b1 bd
       0.06613344 -0.088699825 -0.08200573 -0.08649869
000030 c8 f7 ef 3d e7 a3 2f bc 7b 34 33 bd b8 28 ca 3c
       0.117171824 -0.01072023 -0.04375122 0.02467762
000040 6e 45 3d 3c 3f 16 92 3c be 48 d2 3d 43 7b 83 3d
       0.011552198 0.017832873 0.10267781 0.06419995
000050 cc 17 cf 3d 3d 5c 71 bd 11 16 99 bb 0c 19 87 bd
       0.10111961 -0.058925856 -0.00467182 -0.06596574
000060 f5 a0 02 bd 23 ca 59 bc f9 03 4b 3d 11 ab 76 3d
       -0.03189178 -0.013292822 0.049564335 0.060221735
000070 8a 1c 4c bd 0f 6e de bc ec 99 08 3d 19 1e fd 3d
       -0.049831904 -0.02715209 0.033349916 0.12359256
000080 8d 09 33 3e af 82 b4 bd 6d 2a aa 3c 90 a9 3c 3d
       0.17484112 -0.088139884 0.020772183 0.046060145
000090 64 6b 43 3d bc 35 b0 bd fa 24 87 bd 07 18 4e 3d
       0.047709838 -0.08603999 -0.065988496 0.050315883
0000a0 db 16 20 bc 2d b6 0f 3d 97 a3 93 3d 00 d5 32 bc
       -0.009771074 0.035085846 0.07208937 -0.010915041
0000b0 e6 c0 d4 bc 53 62 45 3d 6c 9a 8d bd c4 72 c9 bb
       -0.025970887 0.048189472 -0.06914219 -0.0061477143
0000c0 40 61 5b bc 2f 3d ad bc 4c 70 24 3d 5e f4 ba bc
       -0.013389885 -0.021147339 0.040146157 -0.022821601
0000d0 31 17 41 3b 74 ac cd 3c 51 58 e3 bb 64 d1 e8 bc
       0.0029463286 0.025106646 -0.0069380184 -0.028420158
0000e0 b4 eb b4 3d 24 c2 49 3d 56 85 9a bc 00 f7 e0 3c
       0.08834019 0.049257413 -0.018862408 0.027461529
0000f0 7b 63 1e bd a4 82 35 3d b0 81 31 3d 49 37 19 bd
       -0.03866909 0.04431404 0.04333657 -0.03740624
000100 04 f2 81 3d 49 a0 2a bc 0f c0 9a 3d 1d 0f c7 bc
       0.06344989 -0.0104141915 0.075561635 -0.024299199
000110 22 17 2e ba a1 51 97 bc b5 cc 1c 3c 7b 2a ac bd
       -0.00066410203 -0.01847154 0.00957029 -0.0840654
000120 57 64 9c 3d e5 8b 8d bd 07 33 a8 bd fd af c1 bd
       0.07636326 -0.069114484 -0.08212858 -0.09457395
000130 0b f9 bc bc c0 d9 5d 3d 46 3a 17 3c 23 e7 c3 bb
       -0.023067972 0.05416274 0.009230202 -0.0059784814
000140 2d 68 3f bd 03 75 44 bc 85 57 db bc 30 21 8f bd
       -0.04673021 -0.011990788 -0.026775131 -0.06988752
000150 92 89 9f bc d2 36 e8 3c 86 5b 47 3d eb 6c a4 bd
       -0.019474778 0.028346453 0.048671268 -0.08028587
000160 e1 1e 99 3d dd e8 3f 3e a1 40 24 bd 6c 2f 9a bd
       0.07476593 0.18741174 -0.040100697 -0.07528576
000170 96 73 53 3c 1f 5d a3 3c fd 97 c1 bc 5d 51 26 bd
       0.012905976 0.019941865 -0.023632044 -0.040604938
000180 00 fe 58 bb 71 38 79 bd 1a fc 74 bd ae a2 e7 3c
       -0.003311038 -0.060844842 -0.059810735 0.028275814
000190 36 c3 23 3c a2 28 a5 3c f3 c9 8c 3d c1 8f 61 ba
       0.009995272 0.020160977 0.06874456 -0.000860449
0001a0 35 fd 9c 3d 6f 72 da 3d dc 3b 7b bd 26 b1 50 3d
       0.07665483 0.10666358 -0.061336383 0.050950192
0001b0 03 9e 45 3d 7a 43 0a bd 2e 92 19 3e 95 fb 25 bd
       0.048246395 -0.033755757 0.1499717 -0.04052313
0001c0 52 35 69 bd 87 cf 6c 3d 26 f2 27 3d f4 51 ab 3d
       -0.056935616 0.0578151 0.041002415 0.08365241
0001d0 0e fe 8e bd 55 b1 24 3d f4 c7 b1 3c 0a 21 58 bd
       -0.06982051 0.04020818 0.02170179 -0.052765884
0001e0 38 d2 42 bc 01 5f 99 3d 7d df 18 3d 07 77 26 bd
       -0.01189094 0.07488824 0.03732251 -0.040640857
0001f0 64 f6 77 ba 94 ec ff bc 2d f7 6e 3d 59 a1 cf 3d
       -0.00094590173 -0.031240739 0.058341194 0.101381965

fc3.weight f4 [13, 128]
000000 57 71 56 bc 93 c0 a7 bc 50 60 8c bd ab 3e a0 bc
       -0.013088546 -0.020477569 -0.06854308 -0.019561132
000010 83 57 22 3d d2 50 ae bd 9b 1c 09 3d ad 8f ac 3d
       0.03963424 -0.08511509 0.033474546 0.084258415
000020 c1 d4 1b 3d c9 f0 3f 3d da f8 c3 bc 84 45 f4 bb
       0.038044695 0.04686049 -0.023922373 -0.007454576
000030 c1 ab 08 be 0b 35 2f bd 62 ee b5 3c 97 3f 4f bd
       -0.13346769 -0.042775195 0.022208396 -0.050597753
000040 2e 77 55 3d db f2 2c bd 9b 15 94 3b 3e 80 3e bd
       0.05211561 -0.042223793 0.004519177 -0.04650902
000050 9f c7 19 be 9e d5 0a bd db 38 76 bd b6 2e 8d 3c
       -0.15017556 -0.033895127 -0.060112815 0.017234188
000060 d7 0b 64 3c 7a 5c 86 3d db 0f 3d 3d 8f 64 b0 bd
       0.013918838 0.06560607 0.0461577 -0.0861293
000070 03 b2 0b 3d 7b e2 2c 3d a9 5e c0 bd 3e 2e 19 be
       0.034105312 0.042208176 -0.09393055 -0.14959046
000080 57 33 31 be e3 ae 33 bd b8 b8 e9 bb 26 ec b1 3d
       -0.17304741 -0.043867957 -0.007132616 0.0868762
000090 07 56 98 3d b2 bc b9 bc 00 5f d7 3b 31 9e 4c 3b
       0.074382834 -0.022672985 0.006572604 0.003122222
0000a0 8a 95 0e 3c 4b 8f 75 bd 97 8e 31 3c 00 01 7f 3d
       0.008702645 -0.059951108 0.010837219 0.062256813
0000b0 dd 16 6d 3c a3 57 a5 3d 48 1f a8 3d 69 c9 13 be
       0.014470783 0.08073356 0.082090914 -0.144323
0000c0 6f b4 a0 3d cb e7 8e bd 72 7c 2b bd 63 5d 5f 3d
       0.07846915 -0.06977805 -0.041866727 0.05453242
0000d0 ea c2 5c 3b 99 53 9c 3d d7 fd 27 3d 61 40 9a bc
       0.0033685514 0.076331325 0.041013565 -0.018829526
0000e0 a0 c4 02 3d 3f e9 81 bd c4 51 15 3c e9 c8 43 bd
       0.031925797 -0.06343316 0.009113733 -0.047799025
0000f0 bf cf 87 3d ce af c7 3d f9 33 0e 3d ec 67 4a bd
       0.06631421 0.09750329 0.034717534 -0.049415514
000100 5a 08 cc 3b e0 3e 79 3d 9e 84 ae bd 85 e7 90 bc
       0.0062265815 0.060850978 -0.085213885 -0.017688522
000110 68 6b 0e 3d 96 db fb bb cb d7 02 3d a7 85 81 39
       0.0347704 -0.007686089 0.031944077 0.00024704376
000120 cd 92 bc bd b8 39 52 3c 52 62 1a ba 02 16 83 bd
       -0.092076875 0.012831144 -0.00058892847 -0.06400682
000130 6a 95 86 bd 86 8f a8 3b f3 fa 0c bd a0 9f 2f bb
       -0.06571467 0.0051440625 -0.03441901 -0.0026798025
000140 e9 c2 85 3d 65 ef 41 bd 6a a9 45 3d cc 6d 7c 3d
       0.06531317 -0.047347445 0.04825727 0.061628148
000150 02 d2 45 3d 2e c2 ec bd c4 85 50 3c 80 7a 85 bd
       0.048295982 -0.11560474 0.012727205 -0.06517506
000160 25 34 65 bd 73 a4 de bd eb 9f 9c 3d 2a a9 4a 3d
       -0.055957932 -0.1087121 0.076476894 0.049477734
000170 20 f1 ca 3c fe e5 51 3d b8 e2 ac bd 41 a7 ac bd
       0.02477318 0.05124473 -0.08441681 -0.08430339
000180 c5 5f 16 3d d3 63 ac bc a0 a1 ec 3c 42 79 80 bd
       0.036712427 -0.021043694 0.028885663 -0.06273128
000190 8e 63 ab 3d 2b 36 95 bd 01 eb 1f 3d b3 bb 3e 3d
       0.08368598 -0.07285722 0.039042477 0.046565723
0001a0 41 d8 29 be 9f ea 9a 3c da 0c 24 3d 93 9c 05 bd
       -0.165864 0.018910704 0.04005132 -0.032620024
0001b0 ec f7 fb bc 40 88 8a 3d 73 63 d7 bd 1f 6f be 3b
       -0.030757867 0.06764269 -0.10517015 0.0058115865
0001c0 f8 c8 28 3d f4 26 12 3d 19 49 35 bd 52 c0 97 bb
       0.041207284 0.03568168 -0.044259164 -0.0046310807
0001d0 e8 95 db 3c 0a 9c 0c 3d c1 39 28 bd 23 35 23 3d
       0.02680488 0.034328498 -0.041070703 0.039845597
0001e0 54 fe 9c bc fd 83 21 3b 3e a3 39 3d 6a f2 82 3d
       -0.019164242 0.0024645322 0.045321696 0.06393893
0001f0 6e a1 44 bc d9 4c 6b 3d 50 42 8b 3d fe fd 34 bc
       -0.012001378 0.057446335 0.067997575 -0.011046885
000200 28 af b6 bb c0 dc 8a bd e7 d4 72 bd ea 88 50 3d
       -0.0055750795 -0.06780386 -0.05928507 0.05091182
000210 75 86 65 bd 11 2e 55 bd 08 85 6a 3d 16 e6 48 bd
       -0.05603643 -0.052045885 0.057255775 -0.049047552
000220 85 04 8c bd 47 31 6a 3c 86 40 1c 3d 15 17 a4 bd
       -0.068367995 0.014293975 0.03814747 -0.08012215
000230 f9 d8 13 bd a1 98 8b bd fe be 18 3d 6b 7b 70 bc
       -0.036095593 -0.06816221 0.03729152 -0.014677863
000240 89 a5 f3 3c c8 40 c0 3d 34 21 4a bd 9a fa 17 bd
       0.02974202 0.09387356 -0.04934807 -0.037104227
000250 b8 03 fb bc e4 53 d9 3c 56 ca 21 bd 70 36 79 bd
       -0.030641422 0.02652926 -0.039499603 -0.06084293
000260 ee 74 dc bc 4b 89 0e 3d 53 fc 18 3d cf 94 de bd
       -0.026911225 0.0347989 0.03735001 -0.10868227
000270 ad 1a 99 3d 57 ea 75 bd e4 db cc bc 11 25 c7 bd
       0.07475791 -0.060037937 -0.025007196 -0.09723867
000280 ab b2 02 be 20 15 96 3d b5 d7 8a bd a7 59 3e 3d
       -0.12763469 0.07328248 -0.06779424 0.046472218
000290 b4 8e e3 3c f6 e6 3a bd f1 85 9b 3d 56 7e 48 bd
       0.027778007 -0.045630418 0.07593907 -0.04894861
0002a0 04 1b 02 ba 22 65 ab 3d c2 77 aa bd 58 7e 95 3d
       -0.0004963132 0.08368899 -0.08323623 0.07299489
0002b0 34 a9 32 bd 12 ec 92 bd a5 1a 4b 3d 6b 66 b9 bd
       -0.043618396 -0.07173933 0.049585957 -0.09052738
0002c0 31 c8 95 bd 5d 57 42 bd 1c 0c 72 3d a2 bd a5 3d
       -0.07313574 -0.047446597 0.05909358 0.0809281
0002d0 b1 ec da bb 17 ed 39 3d 64 bd bf 3a 56 89 87 bd
       -0.006681048 0.045392122 0.0014628586 -0.066179916
0002e0 81 27 3f bc a0 e5 80 3d 0a 26 80 bc 2a 99 75 bd
       -0.011667133 0.062937975 -0.015643138 -0.05996052
0002f0 08 97 94 3d 6a b6 96 bc 26 90 97 3d 48 b0 4f 3d
       0.072553694 -0.018397529 0.07400541 0.050705224
000300 6f 3a 79 3c 87 5c c0 3c 2c 68 46 bd b8 bc 1e bd
       0.015211686 0.02348162 -0.04843919 -0.038754195
000310 d2 84 4d bd 6f 40 0f bd d6 8a 4a bd b0 34 55 bc
       -0.050175495 -0.034973558 -0.04944881 -0.01301305
000320 7b 7f c5 bd c3 30 e9 bc 68 80 76 bd 71 fa ad bd
       -0.096434556 -0.028465634 -0.06018105 -0.084950335
000330 4a 58 a5 3c c2 ec 08 3d 03 d5 12 bd 22 27 86 bd
       0.020183701 0.033428915 -0.035847675 -0.06550433
000340 5d 0f 29 bd 85 54 e8 bd 19 0d c2 bd ce da bb 3d
       -0.041274417 -0.11344246 -0.094751544 0.09172593
000350 57 02 44 3d 9c ed d8 3c 64 fa be bd 93 63 6f bd
       0.047853794 0.026480488 -0.09325102 -0.05844457
000360 5a 03 9c 3d 0a d8 d8 bd c1 be 5f bd 2a c9 96 bd
       0.07617827 -0.10588081 -0.054625276 -0.07362588
000370 df 63 dc 3c c2 42 41 bc 7c e3 5c bd 30 24 9a 3d
       0.026903091 -0.011795701 -0.053927884 0.075264335
000380 49 38 55 bd 10 c3 1c 3c b9 8a fb 3c c9 3e 2d 3d
       -0.05205563 0.009567991 0.030705797 0.042296205
000390 da 84 97 3d 52 24 a8 bc 9c 06 22 3d 63 d8 e5 bb
       0.07398386 -0.020525131 0.039557084 -0.0070143207
0003a0 e9 2b 65 bd 8a 9b df bd 56 7a 47 3d d0 17 d4 3c
       -0.05595008 -0.109183386 0.048700653 0.025890261
0003b0 4c 10 ca 3c 7a f3 dd bb 17 86 d4 bc 0f d8 ae bd
       0.024665974 -0.0067734094 -0.025942845 -0.08537304
0003c0 69 76 85 3d 48 a0 82 3d 45 f9 41 3d fa a2 62 bd
       0.065167256 0.063782275 0.047356863 -0.055331208
0003d0 19 e9 a8 bd 2e a5 d0 bc 00 6e 91 bd e7 74 2d bd
       -0.08247585 -0.025469389 -0.07101059 -0.042347815
0003e0 4f ed 7e 3d 21 f3 4a bd c2 57 b4 3d 61 80 36 bd
       0.062238034 -0.049548272 0.08805801 -0.044556025
0003f0 e3 9d 28 bd ba 14 91 bd fc e3 09 3d 0b d1 87 bc
       -0.041166198 -0.070840314 0.03366469 -0.016579172

fc3.bias f4 [13]
000000 a2 bc 29 3d 9f 85 8d bd af a8 4a bc 48 14 d6 3c
       0.04143966 -0.06910252 -0.012369319 0.026132718
000010 1f a6 90 3c a6 04 a2 bd be 99 9a bd 99 5b cf bd
       0.017657338 -0.07911043 -0.07548855 -0.10124893
000020 8b af bf 3c 9a f1 7f bd 5b 64 10 bc b4 78 13 3d
       0.023399135 -0.06248627 -0.008812989 0.036003783
000030 62 b7 d2 3c
       0.02572221
