models/model_episode_1900.pth (torch, 77430 bytes, 6 tensors)

fc1.weight f4 [128, 3]
0	0x3ed211a3	0.4102908
1	0x3eff4501	0.49857333
2	0xbe2c4265	-0.16822203
3	0x3ef98a7a	0.48738462
4	0xbd7aef1a	-0.06126318
5	0x3e153ec9	0.14574732
6	0xbe899d37	-0.26877758
7	0x3ec6de22	0.3884135
8	0x3f0c0402	0.54693615
9	0xbef74732	-0.48296505
10	0x3f08e1ba	0.5346943
11	0x3da191fb	0.07889172
12	0x3ec57801	0.38568118
13	0x3dff5cfd	0.12468908
14	0x3e902e61	0.28160384
15	0xbdf8033c	-0.12109992
16	0x3ef53ae5	0.47896495
17	0x3d1433f4	0.03618236
18	0xbe8dc719	-0.27690962
19	0x3e0ffa25	0.14060266
20	0xbe8831fe	-0.2660064
21	0xbd8aaa3c	-0.06770751
22	0xbe701f9e	-0.23449561
23	0x3ec4183c	0.3829974
24	0xbeebce9c	-0.46056068
25	0xbe746b1b	-0.23868982
26	0xbe451e73	-0.19249897
27	0xbeb82f41	-0.35973552
28	0x3dfbe92d	0.12300334
29	0xbf0e3351	-0.5554705
30	0x3f06dc79	0.52680165
31	0xbee77cb9	-0.45212343
32	0x3ef1cede	0.4722814
33	0x3dc4c6b6	0.096082136
34	0xbe3ff7ad	-0.18746825
35	0x3eb6ab07	0.35677359
36	0x3d348cbd	0.04407953
37	0x3efb1f92	0.49047524
38	0x3d9af74d	0.075667
39	0xbe3c586c	-0.18393105
40	0x3e777cff	0.24168776
41	0xbdfa3e5a	-0.12218924
42	0x3e6cd440	0.23127842
43	0x3f1613b8	0.5862384
44	0x3eacf7bd	0.3378276
45	0xbe9a2a8a	-0.3011058
46	0x3ebe1f18	0.37133098
47	0x3dfbe2e0	0.12299132
48	0x3e961e23	0.29319867
49	0xbeb42bf6	-0.3518979
50	0xbf124f64	-0.5715239
51	0xbe8726a6	-0.26396674
52	0xbee291bb	-0.4425181
53	0x3ef81f92	0.48461586
54	0x3e1628ba	0.14663973
55	0x3e96d3c2	0.29458433
56	0x3e3456d7	0.17611252
57	0xbc470649	-0.012147495
58	0x3f04d55f	0.5188808
59	0xbee1d1a7	-0.44105265
60	0x3d14e5f7	0.036352124
61	0xbec9c2db	-0.39406475
62	0x3e364cbd	0.17802711
63	0xbe4b99e2	-0.1988292
64	0x3e3527c5	0.17690952
65	0xbdf65883	-0.12028601
66	0x3ef52bc6	0.4788496
67	0xbeaf3465	-0.3421966
68	0xbeb04c18	-0.34433055
69	0xbea470a7	-0.32117197
70	0x3f22a887	0.635384
71	0x3e5bacfc	0.21452707
72	0x3f0e38e6	0.5555557
73	0xbef3f454	-0.47647345
74	0xbf1299d7	-0.5726599
75	0xbee744f3	-0.45169792
76	0xbec6d961	-0.38837722
77	0x3e6f7662	0.23385003
78	0x3e426673	0.18984394
79	0x3f057c42	0.5214273
80	0xbea2ebc9	-0.31820515
81	0xbea063a2	-0.31326014
82	0x3ed839a9	0.4223149
83	0xbe5a4b71	-0.21317841
84	0x3e952537	0.29129955
85	0xbde1d41d	-0.110267855
86	0x3ea5f1a0	0.32410908
87	0xbeea4fed	-0.45764104
88	0xbe99c2b0	-0.30031347
89	0x3e2af80a	0.16696182
90	0x3ddea76a	0.108717754
91	0xbd6670b9	-0.056259844
92	0x3eba670b	0.3640674
93	0x3ec8f431	0.39248803
94	0xbed65d19	-0.41867903
95	0xbe9dd02f	-0.30822894
96	0x3f02d315	0.51103336
97	0xbe5b0215	-0.21387513
98	0xbe540033	-0.20703201
99	0xbf0f0319	-0.558641
100	0xbea94881	-0.3306313
101	0x3e13af83	0.14422421
102	0xbd9c120c	-0.0762063
103	0xbed69306	-0.41909045
104	0x3c5de251	0.013542728
105	0xbec9ebd2	-0.3943773
106	0xbefac9f4	-0.48982203
107	0xbea2c718	-0.3179252
108	0xbf015b99	-0.5053039
109	0xbebc38ce	-0.3676209
110	0x3f13be6d	0.5771244
111	0x3e024c50	0.12724423
112	0x3e8735d6	0.2640826
113	0xbf09da30	-0.5384855
114	0xbec22500	-0.37918854
115	0xbe44c95d	-0.19217439
116	0x3db8e532	0.090280905
117	0xbeb81023	-0.3594981
118	0xbde46e03	-0.111537956
119	0xbea883cd	-0.32913056
120	0xbc96f075	-0.018425206
121	0xbe3fe709	-0.18740477
122	0xbd749ef6	-0.05972191
123	0xbec84f42	-0.3912297
124	0xbecae694	-0.39629042
125	0xbeac749d	-0.3368272
126	0xbe4a5e58	-0.19762552
127	0xbee95066	-0.45569152
128	0x3ef7dac0	0.4840908
129	0xbe136ffd	-0.14398189
130	0x3f117786	0.56823003
131	0x3e5fea16	0.2186664
132	0xbedf6f76	-0.43639725
133	0x3ef62d82	0.48081595
134	0xbe1d94fc	-0.15388864
135	0xbe629ffb	-0.2213134
136	0xbef55f21	-0.4792414
137	0xbf12f048	-0.5739789
138	0x3dfb2a21	0.12263895
139	0xbd852639	-0.06501431
140	0x3e7c94c9	0.24666132
141	0xbeca1e32	-0.39476162
142	0x3f04a53f	0.51814646
143	0xbed5601c	-0.41674888
144	0xbe009cff	-0.1255989
145	0x3e17457c	0.147726
146	0x3ea92400	0.33035278
147	0x3ee4812c	0.446298
148	0x3f16c2d9	0.58891064
149	0xbee89640	-0.45427132
150	0x3e14c991	0.14530016
151	0xbe7e4b18	-0.24833333
152	0xbd819315	-0.06326882
153	0xbee2bfdc	-0.44287002
154	0x3f1857f2	0.59509194
155	0xbedd04b8	-0.43167663
156	0x3e7b9552	0.2456868
157	0x3e738bd6	0.23783812
158	0x3e70f074	0.23529226
159	0xbeb565c4	-0.35429204
160	0x3f0b1f60	0.5434475
161	0x3dd49143	0.10379269
162	0x3d981b10	0.07427037
163	0xbf02403d	-0.5087927
164	0x3e782e87	0.24236499
165	0xbddc1f62	-0.10748173
166	0xbe8c0d2f	-0.27353808
167	0x3f000165	0.5000213
168	0x3e03cf0e	0.12871954
169	0xbea38ce4	-0.3194343
170	0xbe959dc9	-0.29221943
171	0xbda9c3ee	-0.08289324
172	0x3ebc43ab	0.36770377
173	0xbe07b816	-0.13253817
174	0xbea8a9f1	-0.32942155
175	0xbe4a745b	-0.19770949
176	0xbedcd67b	-0.43132386
177	0x3e6a044d	0.22853203
178	0x3f103778	0.5633464
179	0xbf0477bc	-0.517452
180	0x3e088f33	0.13335876
181	0x3ebcbae6	0.36861342
182	0x3de110a0	0.10989499
183	0xbe85ada4	-0.2610904
184	0x3eb5c512	0.35501915
185	0x3ea66c9b	0.32504734
186	0x3e5d117a	0.21588698
187	0xbdcfc67c	-0.1014528
188	0xbe1c8d62	-0.15288308
189	0x3d59785f	0.05309331
190	0xbc780620	-0.015138179
191	0xbe0d1869	-0.13778843
192	0x3ebba937	0.36652538
193	0x3f1638b5	0.5868028
194	0xbc4fb1e3	-0.012676689
195	0xbe045e8c	-0.12926692
196	0x3c0a086f	0.008424862
197	0xbd0d331b	-0.034472566
198	0x3e1d68f1	0.15372063
199	0x3e81be60	0.25340557
200	0xbf04f424	-0.5193503
201	0xbe4993a8	-0.19685233
202	0x3f0c45d6	0.5479406
203	0x3e8da32f	0.27663562
204	0xbceb3dd1	-0.028716
205	0xbeb23890	-0.3480878
206	0xbeb4da04	-0.35322583
207	0xbf06a33b	-0.5259282
208	0xbe4bad02	-0.19890216
209	0x3e3ce596	0.18446955
210	0x3ebf7d49	0.37400272
211	0x3eb6a41a	0.35672075
212	0xbef51614	-0.47868407
213	0xbeb22f3a	-0.34801656
214	0xbc939d3b	-0.01801931
215	0x3f1403c0	0.5781822
216	0x3dab0b82	0.08351804
217	0xbe191af0	-0.14951682
218	0x3e749759	0.2388586
219	0xbe58228f	-0.21106933
220	0xbe886be5	-0.26644817
221	0x3ee5245e	0.44754308
222	0xbe86694f	-0.2625222
223	0xbded08d9	-0.11573953
224	0xbf1308a2	-0.5743505
225	0x3ec05796	0.37566823
226	0x3f081742	0.5316049
227	0x3e6a14d9	0.22859515
228	0xbece1dd8	-0.40257144
229	0xbf11df12	-0.56981003
230	0xbef01533	-0.46891174
231	0x3eda2bf6	0.42611665
232	0x3eb617fb	0.3556517
233	0x3ef6832c	0.4814695
234	0x3e932ca9	0.2874501
235	0x3e6ee061	0.23327781
236	0x3b4bf96d	0.003112401
237	0xbee0cee1	-0.43907836
238	0xbefd43c4	-0.49465764
239	0xbf0a3eff	-0.54002374
240	0x3e5bce37	0.21465383
241	0xbea59545	-0.32340446
242	0xbdf60e56	-0.12014453
243	0xbeaa1f0c	-0.33226812
244	0xbdd776ac	-0.10520682
245	0xbed00e52	-0.40635926
246	0xbec126e0	-0.37724972
247	0x3e441c12	0.19151333
248	0xbe2fb459	-0.17158641
249	0x3eb67d1c	0.35642326
250	0xbe3daa0e	-0.18521902
251	0xbed8d84d	-0.42352524
252	0xbdfb27f6	-0.12263481
253	0xbe53cee9	-0.20684399
254	0xbe44b909	-0.1921121
255	0xbf0b2347	-0.54350704

fc1.bias f4 [128]
0	0x3c95af77	0.018272145
1	0x3f143b51	0.5790301
2	0xbee37477	-0.44424793
3	0xbe475990	-0.19467759
4	0x3ebf091d	0.3731164
5	0xbdd39c15	-0.10332505
6	0xbdff8098	-0.12475699
7	0xbe7668f7	-0.24063478
8	0x3ed78581	0.42094043
9	0x3eb02366	0.34402007
10	0x3e64bc97	0.22337566
11	0xbea61e4b	-0.32444987
12	0xbee5bbc2	-0.4486981
13	0x3e0f0209	0.1396562
14	0x3e6e3ce3	0.23265414
15	0xbe6fcb57	-0.23417412
16	0xbe256b12	-0.16154125
17	0x3ec437a5	0.38323703
18	0x3dba2a85	0.09090141
19	0x3dad28ff	0.08455085
20	0xbe117f0c	-0.14208621
21	0xbf05d901	-0.52284247
22	0xbf0af8bc	-0.5428579
23	0xbe2bfaf0	-0.16794944
24	0xbe9642f2	-0.2934795
25	0x3e38314c	0.17987555
26	0xbe0b7ce9	-0.13621868
27	0xbde9e2ea	-0.114202335
28	0x3f114ed4	0.5676091
29	0x3e44a79a	0.1920456
30	0x3efc3121	0.49256232
31	0xbe8f1af8	-0.27950263
32	0xbe8286be	-0.25493425
33	0x3e594ad9	0.21219958
34	0xbec4f402	-0.38467413
35	0xbec13cb2	-0.3774162
36	0xbce470d1	-0.027885826
37	0xbe04da2c	-0.12973851
38	0xbedd99f5	-0.43281522
39	0x3ef4e94a	0.47834235
40	0x3ef7d386	0.48403567
41	0x3dbfd0a6	0.093659684
42	0xbdcddfb5	-0.10052434
43	0xbef1e5ee	-0.47245735
44	0xbe06cf83	-0.13165097
45	0x3e168341	0.14698507
46	0x3ea562f0	0.32302046
47	0x3c83a12a	0.01606806
48	0xbe55e88a	-0.20889488
49	0x3ebfefd0	0.3748765
50	0xbeeb6b1d	-0.45980158
51	0x3ed8e2ef	0.42360637
52	0xbe4a2424	-0.19740349
53	0x3c99b228	0.01876171
54	0xbde9a9e4	-0.11409357
55	0x3d6c9d9f	0.057767507
56	0xbe32a966	-0.17447433
57	0x3ee85396	0.4537627
58	0xbc75ea46	-0.015009468
59	0x3f0ed62f	0.5579557
60	0x3f1e27de	0.6177958
61	0xbe711e13	-0.23546629
62	0xbed7a534	-0.42118227
63	0x3f0a8362	0.54106724
64	0x3f089823	0.5335714
65	0xbee1b506	-0.44083422
66	0x3d1d8fe3	0.0384673
67	0xbf026306	-0.5093235
68	0xbef1fb0a	-0.4726184
69	0x3dcedcae	0.10100685
70	0x3e71528c	0.23566645
71	0x3e411d3f	0.18858813
72	0xbe20e7d4	-0.15713435
73	0x3f215bef	0.63030905
74	0x3da90f1d	0.08254836
75	0xbe836ed6	-0.256705
76	0xbd05e1c0	-0.032685995
77	0x3e55387e	0.20822331
78	0x3e8dd40c	0.2770084
79	0xbed103f5	-0.4082333
80	0x3e366fed	0.17816134
81	0xbe9704b1	-0.29495767
82	0xbef5a0f5	-0.47974363
83	0xbea175f3	-0.315353
84	0x3f1e05c1	0.6172753
85	0x3f173853	0.5907032
86	0x3f110ec1	0.5666314
87	0x3ec26909	0.3797076
88	0x3f06f369	0.52715164
89	0xbd9e4406	-0.07727818
90	0xbea2a632	-0.31767422
91	0x3eb71a8c	0.3576244
92	0xbe50cb81	-0.2039013
93	0xbec77e1b	-0.38963398
94	0xbe3ccadb	-0.18436758
95	0x3df823f0	0.121162295
96	0x3eb74c97	0.3580062
97	0xbe65a148	-0.22424805
98	0xbeadfb6f	-0.3398089
99	0x3d9f7fd6	0.07788055
100	0xbeae3d09	-0.3403094
101	0xbec074b7	-0.37589046
102	0x3ec65b34	0.38741457
103	0xbd04f48a	-0.032459773
104	0x3f1db826	0.61609113
105	0x3f1e29ed	0.61782724
106	0x3e687767	0.22701798
107	0x3e8b6701	0.27227023
108	0x3e082531	0.13295437
109	0x3c14241e	0.009041814
110	0x3d24f4b5	0.040272433
111	0x3e0197fd	0.12655635
112	0x3e6043dc	0.21900886
113	0x3f0d1176	0.5510477
114	0xbe193772	-0.14962557
115	0xbe5ae1ef	-0.2137525
116	0xbd770a4d	-0.060312558
117	0xbe89652f	-0.2683501
118	0x3e1baf79	0.15203656
119	0x3ef67a8d	0.48140374
120	0x3f082a44	0.5318949
121	0x3e9348d4	0.287665
122	0xbed98b37	-0.42489025
123	0xbe7084f9	-0.23488225
124	0xbe01e515	-0.12685044
125	0xbd7e729f	-0.06212103
126	0x3cb7010d	0.022339368
127	0xbf07ad7f	-0.5299911

fc2.weight f4 [128, 128]
0	0x3ce15d81	0.027510406
1	0xbd8a1838	-0.067429006
2	0xbd6513fa	-0.055927254
3	0xbd967f0e	-0.073484525
4	0x3d9db9c8	0.077014506
5	0xbdab6a17	-0.083698444
6	0x3d888e12	0.06667723
7	0xbb42bada	-0.0029713423
8	0xbc286b2c	-0.010279458
9	0x3d627289	0.05528501
10	0xbc05d977	-0.008169523
11	0x3d630dd5	0.055433113
12	0x3d82e133	0.063906096
13	0xbd9d29ae	-0.076739654
14	0x3d0b4e83	0.03401042
15	0x3c88b0cb	0.016685864
16	0x3c9baf63	0.01900453
17	0x3c536b0f	0.012903943
18	0x3cc60ebd	0.02417695
19	0xbd2e2a30	-0.042520702
20	0xbc39474f	-0.011308505
21	0x3dabfd76	0.08397953
22	0x3d733c49	0.059383664
23	0xbb599ea5	-0.0033206132
24	0xbdaa4118	-0.08313197
25	0x3b7de0a8	0.0038738642
26	0xbd7689eb	-0.060190123
27	0x3d933411	0.07187665
28	0xbd5bca03	-0.05365945
29	0xbbd11e42	-0.006381781
30	0xbca0b422	-0.019617144
31	0x3c80da33	0.015729045
32	0x3daa581d	0.083175875
33	0x3c099a3f	0.008398592
34	0x3d51ae06	0.051191352
35	0x3d8c82d9	0.06860895
36	0x3d922391	0.0713569
37	0xbcfa0fa8	-0.030525044
38	0xbca1f1d9	-0.019768642
39	0x3d2e7ae8	0.04259768
40	0xbcc593ca	-0.024118323
41	0x3d298798	0.041389078
42	0xbc9e3001	-0.01931
43	0xbd758db7	-0.059949603
44	0x3d135d8d	0.03597789
45	0x3c5e073b	0.013551529
46	0x3d216a12	0.039407797
47	0x3db3d716	0.08781259
48	0x3d772cfc	0.060345635
49	0x3dab9a58	0.08379048
50	0x3b9b04c7	0.004730794
51	0xbd9bb711	-0.076032765
52	0xbd7dfae0	-0.06200683
53	0xbd60e390	-0.05490452
54	0xbd9f85e3	-0.07789209
55	0xbd357892	-0.044304438
56	0xbda6a3fc	-0.08136746
57	0xbda702de	-0.08154844
58	0xbd58567e	-0.05281686
59	0xbdb2747a	-0.087136224
60	0xbd5e394e	-0.05425387
61	0x3d0a0c69	0.03370324
62	0x3d96facc	0.073720545
63	0xbcd762d7	-0.026292248
64	0xbcd29e65	-0.025710294
65	0x3d414fce	0.04719525
66	0xbd329e8d	-0.043608237
67	0xbd2b2f05	-0.04179289
68	0x3d5f100e	0.05445867
69	0xbd9db8f2	-0.07701291
70	0x3c3112a0	0.010807663
71	0x3d9fe8c2	0.07808067
72	0x3c7856c7	0.015157408
73	0x3cc4e889	0.024036663
74	0xbd52d91e	-0.05147659
75	0xba9fd626	-0.0012194559
76	0x3b9f4082	0.004859985
77	0x3cb1b6a1	0.02169353
78	0x3d0cab2e	0.034342937
79	0x3d9d4af1	0.076803096
80	0xbd8a2c06	-0.06746678
81	0x3b2da2ad	0.0026494667
82	0xbd34e33d	-0.044162024
83	0xbd8f32a7	-0.06992083
84	0xbbe7edfd	-0.007077931
85	0xbd9f5703	-0.07780268
86	0x3d7caaa0	0.06168616
87	0x3c27b7be	0.010236679
88	0xbd431fa8	-0.04763761
89	0x3d3d319f	0.0461899
90	0xbdab525f	-0.083653204
91	0xbd0c0949	-0.034188543
92	0xbc8d1057	-0.017219706
93	0xbd99d23c	-0.07510802
94	0xbd663757	-0.05620512
95	0xbc6c5da5	-0.0144266235
96	0x3d8959df	0.06706595
97	0x3daecd56	0.085352585
98	0x3d665a02	0.056238182
99	0xbd582e96	-0.052778803
100	0xbd6cda76	-0.057825528
101	0x3d9df96e	0.077135906
102	0x3d000f34	0.0312645
103	0x3b19e584	0.002348275
104	0x3c43fb59	0.011961781
105	0xbd917c12	-0.07103743
106	0xbcf1c245	-0.02951158
107	0x3dae40a3	0.08508422
108	0xbcb294af	-0.021799413
109	0xbb914a6f	-0.004433922
110	0xbd964e55	-0.073391594
111	0xbd4a86ea	-0.04944507
112	0xbaec90de	-0.0018048545
113	0xbd60e23c	-0.054903254
114	0xbc3395c9	-0.0109610045
115	0x3d1355c0	0.03597045
116	0xbdb111aa	-0.08645947
117	0x3cd70f4a	0.026252408
118	0xbd6f6207	-0.058443096
119	0xbd30b180	-0.043138027
120	0x3d0afd7b	0.033933144
121	0x3d8feea0	0.07027936
122	0xbcc5e587	-0.024157299
123	0xbd14a452	-0.03628952
124	0xbda3af26	-0.07992391
125	0xbd3ab022	-0.04557813
126	0xbd9e81d9	-0.0773961
127	0xbca5b84f	-0.020229487
128	0x3c806567	0.015673352
129	0xbdae87b3	-0.08521976
130	0x3d9e0ce9	0.07717306
131	0x3d5a8be1	0.053356055
132	0xbdb61514	-0.08890739
133	0xbd365321	-0.04451287
134	0x3cf41d47	0.029799117
135	0xbc94c4c5	-0.018160233
136	0xbc402dbc	-0.011729654
137	0xbd2c8de5	-0.04212751
138	0x3d9165f5	0.07099525
139	0xbd4a6104	-0.049408928
140	0x3d9ceb24	0.07662037
141	0x3b5ddd92	0.003385399
142	0x3c7cc656	0.015428146
143	0x3d8a27c5	0.06745867
144	0xbc6e9b27	-0.014563358
145	0xbd4e1fd2	-0.050323315
146	0xbc881763	-0.016612714
147	0x3d8e12aa	0.06937154
148	0xbd865066	-0.065583035
149	0x3ca459f5	0.020062426
150	0xbdb1e77d	-0.08686731
151	0x3d34c95e	0.04413735
152	0x3d05c2f9	0.032656644
153	0x3b758fea	0.0037469813
154	0x3d11a5d9	0.035558555
155	0xbaf0f508	-0.0018383572
156	0x3d3ea775	0.04654642
157	0xbd8f4c72	-0.06997003
158	0xbc7c3f56	-0.01539596
159	0x3d209b0b	0.03921036
160	0x3db44319	0.0880186
161	0x3d386b5d	0.045024265
162	0xbd83a1f4	-0.064273745
163	0x3d8b38ae	0.0679792
164	0xbca177ce	-0.019710448
165	0xbc9a99d9	-0.018872188
166	0xbda487bd	-0.080337025
167	0xbc7b569a	-0.015340472
168	0x3d768303	0.060183536
169	0x3c49f00c	0.012325298
170	0xbd52def0	-0.05148214
171	0x3cdee138	0.027207002
172	0xbcf910ce	-0.03040352
173	0x3da54503	0.080698036
174	0xbda1ec57	-0.079064064
175	0xbcf6e8a4	-0.030140229
176	0xbdaec998	-0.08534545
177	0xbd184196	-0.037171923
178	0x3ce44381	0.02786422
179	0x3da99be0	0.08281684
180	0x3bfa91af	0.0076467614
181	0x3dacd8d7	0.084397964
182	0x3c8daad2	0.017293368
183	0x3d511722	0.05104745
184	0x3d911dca	0.0708576
185	0x3d92a124	0.071596414
186	0xbd4aa442	-0.049473055
187	0x3da1a789	0.07893283
188	0x3d51c4bd	0.051213015
189	0xbd2f0f86	-0.042739414
190	0xbd2cc41d	-0.042179216
191	0xbd9caa0a	-0.0764962
192	0x3ca29307	0.019845499
193	0xbd92b99f	-0.07164311
194	0x3d0fa405	0.03506853
195	0x3ce4a975	0.027912835
196	0xbd9d451e	-0.07679199
197	0x3cc54fcc	0.024085902
198	0xbc1c76fd	-0.009549853
199	0x3d2e0bcd	0.042491723
200	0x3d4fbbe9	0.050716314
201	0xbdb85d10	-0.09002125
202	0x3da6033c	0.08106086
203	0x3d9285b5	0.07154409
204	0x3d100c9d	0.03516828
205	0xbdaa61b1	-0.083194144
206	0xbd0b333f	-0.03398442
207	0xbcd1d813	-0.025615728
208	0xbcba161d	-0.022715623
209	0x3d4c2977	0.04984423
210	0x3d03a069	0.0321354
211	0x3d8f6655	0.0700194
212	0xbd112cb8	-0.035443038
213	0x3ce12748	0.027484551
214	0x3cee5642	0.029093865
215	0xbd9b67a6	-0.07588129
216	0xbdb45cf4	-0.08806792
217	0xbd3bdba0	-0.045863748
218	0x3d77d52d	0.060506035
219	0xbdaf3d35	-0.08556596
220	0xbd9d90bb	-0.07693621
221	0x3d4ad074	0.049515203
222	0x3d435492	0.047688074
223	0x3d94de75	0.07268993
224	0xbd8d9d66	-0.06914787
225	0xbd847cee	-0.06469141
226	0x3d39b894	0.045342043
227	0x3d9d6b7d	0.076865174
228	0x3d589f2e	0.05288618
229	0x3c62db41	0.0138462195
230	0x3cdc070a	0.026858825
231	0x3da71b4f	0.081595056
232	0xbd72e33d	-0.059298743
233	0xbd2df62d	-0.0424711
234	0x3d73def1	0.059538785
235	0xbd809ffd	-0.06280515
236	0xbd47a1f7	-0.048738446
237	0x3d84247b	0.064522706
238	0x3cce9d09	0.025221365
239	0x3cd88b93	0.026433742
240	0xbd22cbae	-0.039745025
241	0xbb65a498	-0.0035040732
242	0x3da5acc1	0.08089591
243	0xbd625e9c	-0.055266008
244	0x3a362bd0	0.00069492776
245	0x3d224133	0.03961296
246	0xbd80b349	-0.06284196
247	0x3daae1d6	0.08343856
248	0xbd3da3a6	-0.046298645
249	0xbcc0e84c	-0.023548268
250	0xbcc3e9ef	-0.02391526
251	0xbd755e56	-0.05990442
252	0xbdb1a0bc	-0.08673236
253	0x3d4c22d6	0.04983791
254	0x3cc05e5d	0.023482496
255	0xbda98af8	-0.08278459

fc2.bias f4 [128]
0	0xbd9a4a35	-0.07533685
1	0x3d9b3b79	0.07579703
2	0xbda06488	-0.07831675
3	0xbd1a2552	-0.037633248
4	0xbcb96962	-0.022633258
5	0xbc895b3b	-0.016767135
6	0xbc9deed4	-0.019278921
7	0x3d7520ed	0.059845854
8	0x3d8770f8	0.06613344
9	0xbdb5a841	-0.088699825
10	0xbda7f29f	-0.08200573
11	0xbdb1263a	-0.08649869
12	0x3df0b129	0.117525406
13	0xbc2fa3e7	-0.01072023
14	0xbd33347b	-0.04375122
15	0x3c81386c	0.015773974
16	0x3c3d456e	0.011552198
17	0x3c92163f	0.017832873
18	0x3dbc5bcf	0.091971986
19	0x3d837b43	0.06419995
20	0x3dd40725	0.10352925
21	0xbd715c3d	-0.058925856
22	0xbb991611	-0.00467182
23	0xbd87190c	-0.06596574
24	0xbd02a0f5	-0.03189178
25	0xbc59ca23	-0.013292822
26	0x3d4b03f9	0.049564335
27	0x3d5ebf7c	0.054381832
28	0xbd4c1c8a	-0.049831904
29	0xbcde6e0f	-0.02715209
30	0x3d0899ec	0.033349916
31	0x3dedf122	0.11618258
32	0x3e2a16de	0.16610286
33	0xbdb482af	-0.088139884
34	0x3ca9bcd2	0.02071992
35	0x3d3ca990	0.046060145
36	0x3d436b64	0.047709838
37	0xbdb035bc	-0.08603999
38	0xbd8724fa	-0.065988496
39	0x3d3bb738	0.045829028
40	0xbc2016db	-0.009771074
41	0x3d0fb62d	0.035085846
42	0x3d93a397	0.07208937
43	0xbc32d500	-0.010915041
44	0xbcd4c0e6	-0.025970887
45	0x3d456253	0.048189472
46	0xbd8d9a6c	-0.06914219
47	0xbb9c3768	-0.004767347
48	0xbc5b6140	-0.013389885
49	0xbcad3d2f	-0.021147339
50	0x3d24704c	0.040146157
51	0xbcbaf45e	-0.022821601
52	0x3b411731	0.0029463286
53	0x3ccdac74	0.025106646
54	0xbc4b22fa	-0.012398476
55	0xbce8d164	-0.028420158
56	0x3db8653a	0.090036824
57	0x3d49c224	0.049257413
58	0xbc9a8556	-0.018862408
59	0x3cb2124c	0.02173724
60	0xbd1e637b	-0.03866909
61	0x3d3582a4	0.04431404
62	0x3d3181b0	0.04333657
63	0xbd193749	-0.03740624
64	0x3d83ccbb	0.064355336
65	0xbc2aa049	-0.0104141915
66	0x3d88b34d	0.06674824
67	0xbcb1992d	-0.021679485
68	0xba2e1722	-0.00066410203
69	0xbc9751a1	-0.01847154
70	0x3c1cccb5	0.00957029
71	0xbdac2a7b	-0.0840654
72	0x3d89a77a	0.06721397
73	0xbd8d8be5	-0.069114484
74	0xbda83307	-0.08212858
75	0xbdc1affd	-0.09457395
76	0xbcbcf90b	-0.023067972
77	0x3d373308	0.0447264
78	0x3c173a46	0.009230202
79	0xbbc3e723	-0.0059784814
80	0xbd3f682d	-0.04673021
81	0xbc4aa5a5	-0.012368594
82	0xbcdb5785	-0.026775131
83	0xbd8f2130	-0.06988752
84	0xbc9f8992	-0.019474778
85	0x3ce81977	0.028332455
86	0x3d4b2dab	0.0496041
87	0xbda46ceb	-0.08028587
88	0x3d991ee1	0.07476593
89	0x3e38c18c	0.18042582
90	0xbd2440a1	-0.040100697
91	0xbd9a2f6c	-0.07528576
92	0x3c537396	0.012905976
93	0x3ca35d1f	0.019941865
94	0xbcc197fd	-0.023632044
95	0xbd26515d	-0.040604938
96	0xbb58fe00	-0.003311038
97	0xbd793871	-0.060844842
98	0xbd74fc1a	-0.059810735
99	0x3ce7a2ae	0.028275814
100	0x3c23c336	0.009995272
101	0x3ca528a2	0.020160977
102	0x3d8cc9f3	0.06874456
103	0xba618fc1	-0.000860449
104	0x3d929ac7	0.07158428
105	0x3dc555b6	0.09635489
106	0xbd7b3bdc	-0.061336383
107	0x3d50b126	0.050950192
108	0x3d459e03	0.048246395
109	0xbd0a437a	-0.033755757
110	0x3e168b14	0.14701492
111	0xbd25fb95	-0.04052313
112	0xbd693552	-0.056935616
113	0x3d6ccf87	0.0578151
114	0x3d27f226	0.041002415
115	0x3da5f534	0.081034094
116	0xbd8efe0e	-0.06982051
117	0x3d24b155	0.04020818
118	0x3cb1c7f4	0.02170179
119	0xbd58210a	-0.052765884
120	0xbc42d238	-0.01189094
121	0x3d9d2903	0.07673838
122	0x3d18df7d	0.03732251
123	0xbd267707	-0.040640857
124	0xba77f664	-0.00094590173
125	0xbcffec94	-0.031240739
126	0x3d6ef72d	0.058341194
127	0x3db80e76	0.08987133

fc3.weight f4 [13, 128]
0	0xbc567157	-0.013088546
1	0xbca7c093	-0.020477569
2	0xbd8c6050	-0.06854308
3	0xbca03eab	-0.019561132
4	0x3d225783	0.03963424
5	0xbdae50d2	-0.08511509
6	0x3d091c9b	0.033474546
7	0x3dac8fad	0.084258415
8	0x3d1bd4c1	0.038044695
9	0x3d3ff0c9	0.04686049
10	0xbcc3f8da	-0.023922373
11	0xbbf44584	-0.007454576
12	0xbe0892f1	-0.13337304
13	0xbd2f350b	-0.042775195
14	0x3cb5ee62	0.022208396
15	0xbd4e474c	-0.050360963
16	0x3d55772e	0.05211561
17	0xbd2cf2db	-0.042223793
18	0x3b99da60	0.004695222
19	0xbd3e803e	-0.04650902
20	0xbe19b5d8	-0.15010774
21	0xbd0ad59e	-0.033895127
22	0xbd7638db	-0.060112815
23	0x3c8d2eb6	0.017234188
24	0x3c640bd7	0.013918838
25	0x3d865c7a	0.06560607
26	0x3d3d0fdb	0.0461577
27	0xbdaff787	-0.08592134
28	0x3d0bb203	0.034105312
29	0x3d2ce27b	0.042208176
30	0xbdc05ea9	-0.09393055
31	0xbe18f284	-0.14936262
32	0xbe30ef98	-0.17278898
33	0xbd33aee3	-0.043867957
34	0xbbe9b86d	-0.007132581
35	0x3db1ec26	0.0868762
36	0x3d985607	0.074382834
37	0xbcb9bcb2	-0.022672985
38	0x3bd75f00	0.006572604
39	0x3b55b5ba	0.0032609538
40	0x3c0e958a	0.008702645
41	0xbd758f4b	-0.059951108
42	0x3c318e97	0.010837219
43	0x3d7f0100	0.062256813
44	0x3c6d16dd	0.014470783
45	0x3da557a3	0.08073356
46	0x3da81f48	0.082090914
47	0xbe13b183	-0.14423184
48	0x3da0b46f	0.07846915
49	0xbd8ee7cb	-0.06977805
50	0xbd2b7c72	-0.041866727
51	0x3d5f5d63	0.05453242
52	0x3b5cc2ea	0.0033685514
53	0x3d9c5399	0.076331325
54	0x3d280c73	0.041027498
55	0xbc9a4061	-0.018829526
56	0x3d031407	0.03200152
57	0xbd81e93f	-0.06343316
58	0x3c1551c4	0.009113733
59	0xbd431893	-0.047630858
60	0x3d87cfbf	0.06631421
61	0x3dc7afce	0.09750329
62	0x3d0e33f9	0.034717534
63	0xbd4a67ec	-0.049415514
64	0x3bcd83bb	0.006271807
65	0x3d793ee0	0.060850978
66	0xbdadf067	-0.08493119
67	0xbc909902	-0.017651085
68	0x3d0e6b68	0.0347704
69	0xbbfbdb96	-0.007686089
70	0x3d02d7cb	0.031944077
71	0x398185a7	0.00024704376
72	0xbdbc311a	-0.09189053
73	0x3c5239b8	0.012831144
74	0xba1a6252	-0.00058892847
75	0xbd831602	-0.06400682
76	0xbd86956a	-0.06571467
77	0x3bae3006	0.0053157834
78	0xbd0cfaf3	-0.03441901
79	0xbb2f9fa0	-0.0026798025
80	0x3d85c2e9	0.06531317
81	0xbd41648d	-0.047215033
82	0x3d45a96a	0.04825727
83	0x3d7c6dcc	0.061628148
84	0x3d45d202	0.048295982
85	0xbdeca3ba	-0.11554666
86	0x3c5225bf	0.012826382
87	0xbd857a80	-0.06517506
88	0xbd653425	-0.055957932
89	0xbdde3c5a	-0.10851355
90	0x3d9c9feb	0.076476894
91	0x3d4aa92a	0.049477734
92	0x3ccaf120	0.02477318
93	0x3d51e5fe	0.05124473
94	0xbdace2b8	-0.08441681
95	0xbdaca741	-0.08430339
96	0x3d165fc5	0.036712427
97	0xbcac63d3	-0.021043694
98	0x3ceca1a0	0.028885663
99	0xbd807942	-0.06273128
100	0x3dab638e	0.08368598
101	0xbd95362b	-0.07285722
102	0x3d1feb01	0.039042477
103	0x3d3ebbb3	0.046565723
104	0xbe299b03	-0.16563039
105	0x3c9c81bf	0.019104837
106	0x3d240cda	0.04005132
107	0xbd059c93	-0.032620024
108	0xbcfbf7ec	-0.030757867
109	0x3d8a8840	0.06764269
110	0xbdd722b0	-0.10504663
111	0x3bbe6f1f	0.0058115865
112	0x3d28c8f8	0.041207284
113	0x3d1226f4	0.03568168
114	0xbd354919	-0.044259164
115	0xbb93a328	-0.0045055337
116	0x3cdb95e8	0.02680488
117	0x3d0c9c0a	0.034328498
118	0xbd2839c1	-0.041070703
119	0x3d233523	0.039845597
120	0xbc9cfe54	-0.019164242
121	0x3b2490d5	0.002511074
122	0x3d39a33e	0.045321696
123	0x3d82f26a	0.06393893
124	0xbc44a16e	-0.012001378
125	0x3d6b4cd9	0.057446335
126	0x3d8b4250	0.067997575
127	0xbc31aae7	-0.010843969
128	0xbbb6af28	-0.0055750795
129	0xbd8adcc0	-0.06780386
130	0xbd72d4e7	-0.05928507
131	0x3d5088ea	0.05091182
132	0xbd658675	-0.05603643
133	0xbd552e11	-0.052045885
134	0x3d6a8508	0.057255775
135	0xbd48e616	-0.049047552
136	0xbd8c0485	-0.068367995
137	0x3c6a3147	0.014293975
138	0x3d1c4086	0.03814747
139	0xbda41715	-0.08012215
140	0xbd136f22	-0.035994656
141	0xbd8b98a1	-0.06816221
142	0x3d18befe	0.03729152
143	0xbc6ccb99	-0.014452838
144	0x3cf3a589	0.02974202
145	0x3dc040c8	0.09387356
146	0xbd48ff47	-0.049071576
147	0xbd17fa9a	-0.037104227
148	0xbcfa7e78	-0.030577883
149	0x3cd953e4	0.02652926
150	0xbd21ca56	-0.039499603
151	0xbd793670	-0.06084293
152	0xbcdc74ee	-0.026911225
153	0x3d0e894b	0.0347989
154	0x3d18fc53	0.03735001
155	0xbdde2fa0	-0.108489275
156	0x3d991aad	0.07475791
157	0xbd75ea57	-0.060037937
158	0xbcccdbe4	-0.025007196
159	0xbdc6b9c6	-0.09703402
160	0xbe0275ff	-0.12740324
161	0x3d961520	0.07328248
162	0xbd8ad7b5	-0.06779424
163	0x3d3e59a7	0.046472218
164	0x3ce38eb4	0.027778007
165	0xbd3ae6f6	-0.045630418
166	0x3d9b85f1	0.07593907
167	0xbd47db9d	-0.048793424
168	0xba021b04	-0.0004963132
169	0x3dab6522	0.08368899
170	0xbdaa77c2	-0.08323623
171	0x3d957e58	0.07299489
172	0xbd32a934	-0.043618396
173	0xbd92ec12	-0.07173933
174	0x3d4b1aa5	0.049585957
175	0xbdb9393e	-0.09044121
176	0xbd95c831	-0.07313574
177	0xbd42575d	-0.047446597
178	0x3d720c1c	0.05909358
179	0x3da5bda2	0.0809281
180	0xbbdaecb1	-0.006681048
181	0x3d39ed17	0.045392122
182	0x3ac2a9d9	0.0014851644
183	0xbd878956	-0.066179916
184	0xbc3db8bc	-0.011579689
185	0x3d80e5a0	0.062937975
186	0xbc80260a	-0.015643138
187	0xbd74ead9	-0.05979428
188	0x3d949708	0.072553694
189	0xbc96b66a	-0.018397529
190	0x3d979026	0.07400541
191	0x3d4fb048	0.050705224
192	0x3c7a1810	0.015264526
193	0x3cc05c87	0.02348162
194	0xbd454632	-0.048162647
195	0xbd1e92c3	-0.03871418
196	0xbd4d84d2	-0.050175495
197	0xbd0f406f	-0.034973558
198	0xbd4a8ad6	-0.04944881
199	0xbc5534b0	-0.01301305
200	0xbdc51807	-0.096237235
201	0xbce930c3	-0.028465634
202	0xbd768068	-0.06018105
203	0xbdadfa71	-0.084950335
204	0x3ca5584a	0.020183701
205	0x3d09dea6	0.0336596
206	0xbd12d503	-0.035847675
207	0xbd862722	-0.06550433
208	0xbd290f5d	-0.041274417
209	0xbde8164d	-0.113323785
210	0xbdc20d19	-0.094751544
211	0x3dbbdace	0.09172593
212	0x3d440257	0.047853794
213	0x3cd96e14	0.026541747
214	0xbdbec378	-0.093146265
215	0xbd6f6393	-0.05844457
216	0x3d9c035a	0.07617827
217	0xbdd876b9	-0.105695195
218	0xbd5fbec1	-0.054625276
219	0xbd96c92a	-0.07362588
220	0x3cdc63df	0.026903091
221	0xbc4142c2	-0.011795701
222	0xbd5ce37c	-0.053927884
223	0x3d9a2430	0.075264335
224	0xbd553849	-0.05205563
225	0x3c1cc310	0.009567991
226	0x3cfb8ab9	0.030705797
227	0x3d2d3ec9	0.042296205
228	0x3d9784da	0.07398386
229	0xbca82452	-0.020525131
230	0x3d22069c	0.039557084
231	0xbbe5d863	-0.0070143207
232	0xbd645bd6	-0.055751644
233	0xbddf2782	-0.108962074
234	0x3d477a56	0.048700653
235	0x3cd417d0	0.025890261
236	0x3cca104c	0.024665974
237	0xbbddf37a	-0.0067734094
238	0xbcd3869e	-0.025821026
239	0xbdaed80f	-0.08537304
240	0x3d857669	0.065167256
241	0x3d82a048	0.063782275
242	0x3d41f945	0.047356863
243	0xbd621933	-0.055199813
244	0xbda8e919	-0.08247585
245	0xbcd0a52e	-0.025469389
246	0xbd916e00	-0.07101059
247	0xbd2d74e7	-0.042347815
248	0x3d7eed4f	0.062238034
249	0xbd4ab8f1	-0.04949278
250	0x3db457c2	0.08805801
251	0xbd368061	-0.044556025
252	0xbd289de3	-0.041166198
253	0xbd9114ba	-0.070840314
254	0x3d09e3fc	0.03366469
255	0xbc85a6f2	-0.016314957

fc3.bias f4 [13]
0	0x3d29eb9a	0.041484453
1	0xbd8d637d	-0.069037415
2	0xbc47050c	-0.012147199
3	0x3cd9d7b3	0.026592111
4	0x3c944399	0.01809864
5	0xbda1ee60	-0.079067945
6	0xbd9cdef3	-0.07659712
7	0xbdcf2bcc	-0.101157755
8	0x3cb8d95c	0.022564583
9	0xbd7f6598	-0.062352747
10	0xbb7a4b66	-0.0038191914
11	0x3cfa143f	0.030527232
12	0x3cd4b8bd	0.025966996
