models/model_episode_2400.pth (torch, 77430 bytes, 6 tensors)

fc1.weight f4 [128, 3]
00000000: 7fb5 d23e dfd8 043f 3f5d 22be 8476 fa3e
00000010: 65f4 2abd 5412 1f3e bc15 91be a8f3 ce3e
00000020: 0fcf 0e3f e9af f8be 8894 0e3f 4e5c c53d
00000030: 3782 c53e 9dee 0a3e 097b 923e 9e93 f6bd
00000040: a2a0 ff3e 39bc 3b3d 19c7 8dbe 25fa 0f3e
00000050: fe31 88be 3caa 8abd 9e1f 70be 3c18 c43e
00000060: 0406 e8be 7992 67be 417f 37be dc09 b3be
00000070: e408 103e 3c40 0abf 0ff2 063f a125 e8be
00000080: 1082 f13e b6c6 c43d adf7 3fbe 07ab b63e
00000090: 2f2d 753d 5eae 043f fb03 b73d 83d5 3bbe
000000a0: 9224 873e 8aee e4bd 6f8d 6d3e 804d 1a3f
000000b0: ffd5 b03e 293b 9bbe cd28 c73e a9de 0b3e
000000c0: 231e 963e f62b b4be 644f 12bf fb7c 8abe
000000d0: 3f45 ddbe 77ed fb3e 4662 173e 1e58 a03e
000000e0: 7e42 3d3e 2d23 41bc 9ac9 083f d158 debe
000000f0: f7e5 143d dbc2 c9be bd4c 363e e299 4bbe
00000100: c527 353e 8358 f6bd c62b f53e 6534 afbe
00000110: 184c b0be 6e2c a4be 1b8c 263f 4673 623e
00000120: e638 0e3f 54f4 f3be d799 12bf f344 e7be
00000130: 61d9 c6be 6276 6f3e 4ea1 423e 75a5 0a3f
00000140: 6a2a 9ebe f4fd 97be 2d1d e13e 41da 4abe
00000150: 8d0a 963e bcc6 b8bd 8223 ab3e ed4f eabe
00000160: b0c2 99be 0af8 2a3e af66 e33d 880e 13bd
00000170: c48c bf3e 31f4 c83e 195d d6be 2fd0 9dbe
00000180: ce6c 033f 2113 59be 3300 54be 1903 0fbf
00000190: 8148 a9be 83af 133e 0c12 9cbd 0693 d6be
000001a0: 51e2 5d3c d2eb c9be f4c9 fabe 18c7 a2be
000001b0: 995b 01bf ce38 bcbe 6dbe 133f 6f36 0a3e
000001c0: 09b4 8b3e 30da 09bf 0025 c2be 5dc9 44be
000001d0: 32e5 b83d d9a1 b4be 461f bcbd 1581 a1be
000001e0: aa4b 99bc e813 30be 67a2 58bd 424f c8be
000001f0: 94e6 cabe 9d74 acbe 585e 4abe 6650 e9be
00000200: c0da f73e cad2 0fbe ef65 163f 82ec 6e3e
00000210: 0f1d dbbe a92f 003f 722f 0abe fb9f 62be
00000220: 215f f5be 48f0 12bf 2759 ff3d 824e 3ebd
00000230: 0cf7 823e f0cd c3be a1de 0a3f d2bc cbbe
00000240: c825 06be 8ed2 213e 34d6 ac3e 09b7 e43e
00000250: f9ce 1a3f 9c0e e5be 91c9 143e 184b 7ebe
00000260: 1593 81bd f270 e2be 666f 1d3f ab57 d8be
00000270: 61ae 7f3e c939 813e 6912 793e 41bc b4be
00000280: a296 103f 56e4 e93d 101b 983d 3d40 02bf
00000290: 872e 783e 86fe ecbd bfaf 8abe 1572 003f
000002a0: 0ecf 033e e48c a3be c99d 95be 0d95 a9bd
000002b0: 86c3 c33e f52a 01be f1a9 a8be 5b74 4abe
000002c0: 7bd6 dcbe b811 6a3e 2974 143f 539b 02bf
000002d0: 62e0 083e d4b8 c23e d1c4 ea3d c9d9 8bbe
000002e0: 5b9f c03e b0a2 ac3e 7a11 5d3e 7cc6 cfbd
000002f0: 628d 1cbe 7ac9 5a3d 8043 2e3a 6101 06be
00000300: 1cd8 bb3e 0684 1a3f ef87 a9bb 8c5e 04be
00000310: 6f08 0a3c 1b33 0dbd b242 1d3e f083 833e
00000320: b336 06bf a41f 44be ff37 113f 6754 953e
00000330: d13d ebbc 9038 b2be 04da b4be 3ba3 06bf
00000340: 02ad 4bbe 96e5 3c3e ef7d bf3e 2a10 c03e
00000350: 0dea f0be 9130 b6be 12f2 fcbb 2c84 153f
00000360: 820b ab3d f01a 19be 5997 743e b8ba 56be
00000370: 6433 7ebe fb7e e93e 4f69 86be d908 edbd
00000380: a208 13bf 1ae0 c03e 0e5e 0c3f 05ea 713e
00000390: d81d cebe 12df 11bf 3315 f0be 69aa da3e
000003a0: 9640 bd3e e7a5 f93e baed 933e ba52 813e
000003b0: fc43 473c e1ce e0be c443 fdbe ff3e 0abf
000003c0: a25b 5c3e aa08 a5be 5e7c edbd 0c1f aabe
000003d0: ac76 d7bd 520e d0be e026 c1be 121c 443e
000003e0: 59b4 2fbe 1c7d b63e 0eaa 3dbe 4dd8 d8be
000003f0: ba9a f9bd 4723 3dbe a7ea 39be 4fef 0abf
0.41154096 0.5189342 -0.15855883 0.48918545 -0.04173698 0.15534335 -0.28336895 0.4042027
0.55784696 -0.4857171 0.5569539 0.09636746 0.3857591 0.13567586 0.28609493 -0.120398745
0.4992724 0.0458338 -0.27690962 0.14060266 -0.2660064 -0.06770751 -0.23449561 0.3829974
-0.4531709 -0.22614469 -0.17919637 -0.3496846 0.14065892 -0.54004264 0.527131 -0.4534121
0.47169542 0.096082136 -0.18746825 0.35677359 0.059857544 0.51828563 0.08936306 -0.18343167
0.26395088 -0.1117831 0.23198484 0.60274506 0.34538266 -0.30318573 0.38898316 0.13659157
0.29319867 -0.3518979 -0.5715239 -0.27048478 -0.43216893 0.4920461 0.14783582 0.31317228
0.18482396 -0.011788172 0.5343262 -0.43427137 0.036352124 -0.39406475 0.17802711 -0.1988292
0.17690952 -0.12028601 0.4788496 -0.3421966 -0.34433055 -0.32065147 0.65057534 0.22114286
0.5555557 -0.47647345 -0.5726599 -0.45169792 -0.38837722 0.23385003 0.19006845 0.5415872
-0.30891734 -0.29685938 0.43967572 -0.1980982 0.29304925 -0.090222806 0.33425528 -0.45764104
-0.30031347 0.16696182 0.1110357 -0.03590253 0.37412083 0.39248803 -0.41867903 -0.30822894
0.513379 -0.21198703 -0.20703201 -0.558641 -0.3306313 0.14422421 -0.0762063 -0.41909045
0.013542728 -0.3943773 -0.48982203 -0.3179252 -0.5053039 -0.3676209 0.5771244 0.13497327
0.27285793 -0.5384855 -0.37918854 -0.19217439 0.090280905 -0.3527973 -0.091856524 -0.31543794
-0.018712837 -0.17195094 -0.052889254 -0.3912297 -0.39629042 -0.3368272 -0.19762552 -0.45569152
0.4840908 -0.14045253 0.5874929 0.23332408 -0.42795607 0.50072724 -0.13494661 -0.2213134
-0.4792414 -0.5739789 0.12468176 -0.04646159 0.25579107 -0.38243055 0.54245955 -0.39792496
-0.1310035 0.15802976 0.33757174 0.44670895 0.60472065 -0.4473771 0.14530016 -0.24833333
-0.06326882 -0.44226795 0.61498106 -0.42254385 0.24968864 0.252394 0.24323429 -0.35299876
0.5647985 0.11420505 0.07427037 -0.5087927 0.24236499 -0.11571984 -0.2708721 0.50174075
0.12871954 -0.3194343 -0.29221943 -0.08280382 0.3823511 -0.12614043 -0.32942155 -0.19770949
-0.43132386 0.22858322 0.57989746 -0.51018256 0.13366845 0.38031638 0.11463321 -0.27314594
0.3762158 0.3371787 0.21588698 -0.1014528 -0.15288308 0.0534148 0.00066476315 -0.13086464
0.36688316 0.603577 -0.0051736753 -0.12926692 0.008424862 -0.034472566 0.15357473 0.25686598
-0.52427214 -0.19152695 0.5672607 0.29165956 -0.028716 -0.3480878 -0.35322583 -0.5259282
-0.19890216 0.18446955 0.37400767 0.37512332 -0.47053567 -0.35583928 -0.0077192867 0.58404803
0.08351804 -0.14951682 0.2388586 -0.20969665 -0.24824291 0.4560469 -0.2625222 -0.11573953
-0.5743505 0.37670976 0.54831016 0.23624428 -0.40257144 -0.56981003 -0.46891174 0.42708138
0.36963338 0.48759386 0.28892308 0.25258428 0.012162205 -0.43907836 -0.49465764 -0.54002374
0.2151933 -0.32233173 -0.11595987 -0.33226812 -0.10520682 -0.40635926 -0.37724972 0.19151333
-0.17158641 0.35642326 -0.18521902 -0.42352524 -0.12187715 -0.18470488 -0.18155919 -0.54271406

fc1.bias f4 [128]
00000000: 3ed9 163d 6ce0 183f 2321 dcbe 81b5 31be
00000010: 7a24 c43e 47d9 adbd 9880 ffbd f768 76be
00000020: e1ef dd3e eb27 b93e f4e1 633e 4b1e a6be
00000030: b340 d7be b799 233e db9c 7d3e 1257 5ebe
00000040: 126b 25be 66e6 c83e fdfa dc3d a497 c93d
00000050: 0c7f 11be 01d9 05bf bcf8 0abf dace 1dbe
00000060: f242 96be 4c31 383e bcff f1bd b8ae c5bd
00000070: 4416 163f 9aa7 443e daf0 023f f81a 8fbe
00000080: d589 81be d94a 593e 02f4 c4be b23c c1be
00000090: d170 e4bc 9150 f7bd f599 ddbe f583 fe3e
000000a0: 28f8 fe3e a6d0 bf3d b5df cdbd 9c66 e8be
000000b0: a15f e5bd 4183 163e 9337 ae3e 692a 243d
000000c0: 216a 4cbe 0540 c73e 1d6b ebbe 5b0d e23e
000000d0: db9d 3bbe a186 1c3d e4a9 e9bd 7672 733d
000000e0: 66a9 32be dd15 ef3e 46ea 75bc e9a4 123f
000000f0: 11dd 203f cefe 5cbe 34a5 d7be a52a 0e3f
00000100: bf7a 0c3f 06b5 e1be bd25 293d 9103 fbbe
00000110: 0afb f1be aedc ce3d 271b 813e 373c 4a3e
00000120: d4e7 20be b0a6 253f 1d0f a93d d832 77be
00000130: c0e1 05bd 5258 623e fade 963e f503 d1be
00000140: 1796 373e b104 97be f5a0 f5be f375 a1be
00000150: a727 233f 246d 1b3f 0306 153f 081a cc3e
00000160: ec25 0a3f 0644 9ebd 32a6 a2be 0939 bd3e
00000170: 110d 3bbe 1b7e c7be dbca 3cbe f023 f83d
00000180: eef2 bf3e 48a1 65be 6ffb adbe d67f 9f3d
00000190: 093d aebe b774 c0be 6892 cf3e c7b8 74bc
000001a0: fb60 213f c206 213f ac64 763e 01cb 903e
000001b0: 3125 083e 1e24 143c cb81 3d3d 9515 143e
000001c0: a6f1 703e 81c2 103f 7237 19be d314 4bbe
000001d0: cb99 17bd 004c 80be 79b8 2f3e 9c42 ff3e
000001e0: 67be 0b3f 46a3 983e 378b d9be 6fbe 64be
000001f0: 15e5 01be 1745 16bd 8f13 fa3c 7fad 07bf
0.036828272 0.5971744 -0.4299403 -0.17354394 0.3830908 -0.08488708 -0.12475699 -0.24063478
0.43347076 0.36163267 0.22254163 -0.32444987 -0.4204155 0.15976606 0.24766867 -0.21712902
-0.16154125 0.3923828 0.1079006 0.09843376 -0.14208621 -0.52284247 -0.5428579 -0.15410939
-0.2934795 0.17987555 -0.118163556 -0.096524656 0.58627725 0.1920456 0.5114876 -0.27950263
-0.2530047 0.21219958 -0.38467413 -0.3774162 -0.027885826 -0.12075914 -0.43281522 0.4971005
0.49798703 0.093659684 -0.10052434 -0.45390785 -0.111998804 0.14698507 0.34026775 0.040079508
-0.1996236 0.3891603 -0.45980158 0.44150814 -0.18321936 0.03821433 -0.11409357 0.05943533
-0.17447433 0.46696368 -0.015009468 0.5728288 0.6283732 -0.21581575 -0.42118227 0.5553382
0.54874796 -0.44083422 0.041295756 -0.49026158 -0.4726184 0.10100685 0.25216028 0.19749533
-0.15713435 0.6470747 0.08254836 -0.24140489 -0.032685995 0.22104004 0.29466993 -0.4082333
0.17928348 -0.29495767 -0.47974363 -0.315353 0.6373238 0.6071341 0.582123 0.3986361
0.53964114 -0.07727818 -0.31767422 0.36957577 -0.18266703 -0.38963398 -0.18436758 0.121162295
0.37490028 -0.22424805 -0.3398089 0.07788055 -0.3403094 -0.37589046 0.40541387 -0.0149366325
0.63038605 0.62900937 0.24061841 0.2827988 0.13295437 0.009041814 0.04626636 0.14461358
0.23529682 0.5654679 -0.14962557 -0.19832163 -0.037011903 -0.25057983 0.17160214 0.49855506
0.54587406 0.29812068 -0.42489025 -0.2233827 -0.12685044 -0.036686983 0.030526904 -0.5299911

fc2.weight f4 [128, 128]
00000000: 815d e13c 3818 8abd fa13 65bd 0e7f 96bd
00000010: c8b9 9d3d 176a abbd 128e 883d daba 42bb
00000020: 2c6b 28bc 8972 623d 77d9 05bc d50d 633d
00000030: 33e1 823d ae29 9dbd 834e 0b3d cbb0 883c
00000040: 63af 9b3c 0f6b 533c bd0e c63c 302a 2ebd
00000050: 4f47 39bc 76fd ab3d 493c 733d a59e 59bb
00000060: 1841 aabd a8e0 7d3b eb89 76bd 1134 933d
00000070: 03ca 5bbd 421e d1bb 22b4 a0bc 33da 803c
00000080: 1d58 aa3d 3f9a 093c 06ae 513d d982 8c3d
00000090: 9123 923d a80f fabc d9f1 a1bc e87a 2e3d
000000a0: ca93 c5bc 9887 293d 0130 9ebc b78d 75bd
000000b0: 8d5d 133d 3b07 5e3c 126a 213d 16d7 b33d
000000c0: fc2c 773d 589a ab3d c704 9b3b 11b7 9bbd
000000d0: e0fa 7dbd 90e3 60bd e385 9fbd 9278 35bd
000000e0: fca3 a6bd de02 a7bd 7e56 58bd 7a74 b2bd
000000f0: 4e39 5ebd 690c 0a3d ccfa 963d d762 d7bc
00000100: 659e d2bc ce4f 413d 8d9e 32bd 052f 2bbd
00000110: 0e10 5f3d f2b8 9dbd a012 313c c2e8 9f3d
00000120: c756 783c 89e8 c43c 1ed9 52bd 26d6 9fba
00000130: 8240 9f3b a1b6 b13c 2eab 0c3d f14a 9d3d
00000140: 062c 8abd ada2 2d3b 3de3 34bd a732 8fbd
00000150: fded e7bb 0357 9fbd a0aa 7c3d beb7 273c
00000160: a81f 43bd 9f31 3d3d 5f52 abbd 4909 0cbd
00000170: 5710 8dbc 3cd2 99bd 5737 66bd a55d 6cbc
00000180: df59 893d 56cd ae3d 025a 663d 962e 58bd
00000190: 76da 6cbd 6ef9 9d3d 340f 003d 84e5 193b
000001a0: 59fb 433c 127c 91bd 45c2 f1bc a340 ae3d
000001b0: af94 b2bc 6f4a 91bb 554e 96bd ea86 4abd
000001c0: de90 ecba 3ce2 60bd c995 33bc c055 133d
000001d0: aa11 b1bd 4a0f d73c 0762 6fbd 80b1 30bd
000001e0: 7bfd 0a3d a0ee 8f3d 87e5 c5bc 52a4 14bd
000001f0: 26af a3bd 22b0 3abd d981 9ebd 4fb8 a5bc
00000200: 6765 803c b387 aebd e90c 9e3d e18b 5a3d
00000210: 1415 b6bd 2153 36bd 471d f43c c5c4 94bc
00000220: bc2d 40bc e58d 2cbd f565 913d 0461 4abd
00000230: 24eb 9c3d 92dd 5d3b 56c6 7c3c c527 8a3d
00000240: 279b 6ebc d21f 4ebd 6317 88bc aa12 8e3d
00000250: 6650 86bd f559 a43c 7de7 b1bd 5ec9 343d
00000260: f9c2 053d ea8f 753b d9a5 113d 08f5 f0ba
00000270: 75a7 3e3d 724c 8fbd 563f 7cbc 0b9b 203d
00000280: 1943 b43d 5d6b 383d f4a1 83bd ae38 8b3d
00000290: ce77 a1bc d999 9abc bd87 a4bd 9a56 7bbc
000002a0: 0383 763d 0cf0 493c f0de 52bd 38e1 de3c
000002b0: ce10 f9bc 0345 a53d 57ec a1bd a4e8 f6bc
000002c0: 98c9 aebd 9641 18bd 8143 e43c e09b a93d
000002d0: af91 fa3b d7d8 ac3d d2aa 8d3c 2217 513d
000002e0: ca1d 913d 24a1 923d 42a4 4abd 89a7 a13d
000002f0: bdc4 513d 860f 2fbd 1dc4 2cbd 0aaa 9cbd
00000300: 0793 a23c 9fb9 92bd 05a4 0f3d 75a9 e43c
00000310: 1e45 9dbd cc4f c53c fd76 1cbc cd0b 2e3d
00000320: e9bb 4f3d 105d b8bd 3c03 a63d b585 923d
00000330: 9d0c 103d b161 aabd 3f33 0bbd 13d8 d1bc
00000340: 1d16 babc 7729 4c3d 69a0 033d 5566 8f3d
00000350: b82c 11bd 4827 e13c 4256 ee3c a667 9bbd
00000360: f45c b4bd a0db 3bbd 2dd5 773d 353d afbd
00000370: bb90 9dbd 74d0 4a3d 9254 433d 75de 943d
00000380: 669d 8dbd ee7c 84bd 94b8 393d 7d6b 9d3d
00000390: 2e9f 583d 41db 623c 0a07 dc3c 4f1b a73d
000003a0: 3de3 72bd 2df6 2dbd f1de 733d fd9f 80bd
000003b0: f7a1 47bd 7b24 843d 099d ce3c 938b d83c
000003c0: aecb 22bd 98a4 65bb c1ac a53d 9c5e 62bd
000003d0: d02b 363a 3341 223d 49b3 80bd d6e1 aa3d
000003e0: a6a3 3dbd 4ce8 c0bc efe9 c3bc 565e 75bd
000003f0: bca0 b1bd d622 4c3d 5d5e c03c f88a a9bd
0.027510406 -0.067429006 -0.055927254 -0.073484525 0.077014506 -0.083698444 0.06667723 -0.0029713423
-0.010279458 0.05528501 -0.008169523 0.055433113 0.063906096 -0.076739654 0.03401042 0.016685864
0.01900453 0.012903943 0.02417695 -0.042520702 -0.011308505 0.08397953 0.059383664 -0.0033206132
-0.08313197 0.0038738642 -0.060190123 0.07187665 -0.05365945 -0.006381781 -0.019617144 0.015729045
0.083175875 0.008398592 0.051191352 0.06860895 0.0713569 -0.030525044 -0.019768642 0.04259768
-0.024118323 0.041389078 -0.01931 -0.059949603 0.03597789 0.013551529 0.039407797 0.08781259
0.060345635 0.08379048 0.004730794 -0.076032765 -0.06200683 -0.05490452 -0.07789209 -0.044304438
-0.08136746 -0.08154844 -0.05281686 -0.087136224 -0.05425387 0.03370324 0.073720545 -0.026292248
-0.025710294 0.04719525 -0.043608237 -0.04179289 0.05445867 -0.07701291 0.010807663 0.07808067
0.015157408 0.024036663 -0.05147659 -0.0012194559 0.004859985 0.02169353 0.034342937 0.076803096
-0.06746678 0.0026494667 -0.044162024 -0.06992083 -0.007077931 -0.07780268 0.06168616 0.010236679
-0.04763761 0.0461899 -0.083653204 -0.034188543 -0.017219706 -0.07510802 -0.05620512 -0.0144266235
0.06706595 0.085352585 0.056238182 -0.052778803 -0.057825528 0.077135906 0.0312645 0.002348275
0.011961781 -0.07103743 -0.02951158 0.08508422 -0.021799413 -0.004433922 -0.073391594 -0.04944507
-0.0018048545 -0.054903254 -0.0109610045 0.03597045 -0.08645947 0.026252408 -0.058443096 -0.043138027
0.033933144 0.07027936 -0.024157299 -0.03628952 -0.07992391 -0.04557813 -0.0773961 -0.020229487
0.015673352 -0.08521976 0.07717306 0.053356055 -0.08890739 -0.04451287 0.029799117 -0.018160233
-0.011729654 -0.04212751 0.07099525 -0.049408928 0.07662037 0.003385399 0.015428146 0.06745867
-0.014563358 -0.050323315 -0.016612714 0.06937154 -0.065583035 0.020062426 -0.08686731 0.04413735
0.032656644 0.0037469813 0.035558555 -0.0018383572 0.04654642 -0.06997003 -0.01539596 0.03921036
0.0880186 0.045024265 -0.064273745 0.0679792 -0.019710448 -0.018872188 -0.080337025 -0.015340472
0.060183536 0.012325298 -0.05148214 0.027207002 -0.03040352 0.080698036 -0.079064064 -0.030140229
-0.08534545 -0.037171923 0.02786422 0.08281684 0.0076467614 0.084397964 0.017293368 0.05104745
0.0708576 0.071596414 -0.049473055 0.07893283 0.051213015 -0.042739414 -0.042179216 -0.0764962
0.019845499 -0.07164311 0.03506853 0.027912835 -0.07679199 0.024085902 -0.009549853 0.042491723
0.050716314 -0.09002125 0.08106086 0.07154409 0.03516828 -0.083194144 -0.03398442 -0.025615728
-0.022715623 0.04984423 0.0321354 0.0700194 -0.035443038 0.027484551 0.029093865 -0.07588129
-0.08806792 -0.045863748 0.060506035 -0.08556596 -0.07693621 0.049515203 0.047688074 0.07268993
-0.06914787 -0.06469141 0.045342043 0.076865174 0.05288618 0.0138462195 0.026858825 0.081595056
-0.059298743 -0.0424711 0.059538785 -0.06280515 -0.048738446 0.064522706 0.025221365 0.026433742
-0.039745025 -0.0035040732 0.08089591 -0.055266008 0.00069492776 0.03961296 -0.06284196 0.08343856
-0.046298645 -0.023548268 -0.02391526 -0.05990442 -0.08673236 0.04983791 0.023482496 -0.08278459

fc2.bias f4 [128]
00000000: 354a 9abd 793b 9b3d 8864 a0bd 5225 1abd
00000010: 6269 b9bc 3b5b 89bc d4ee 9dbc ed20 753d
00000020: f870 873d 41a8 b5bd 9ff2 a7bd 3a26 b1bd
00000030: efc3 e93d e7a3 2fbc 7b34 33bd 89bf f33c
00000040: 6e45 3d3c 3f16 923c 4ca6 dd3d 437b 833d
00000050: dfd9 c63d 3d5c 71bd 1116 99bb 0c19 87bd
00000060: f5a0 02bd 23ca 59bc f903 4b3d 8f05 7b3d
00000070: 8a1c 4cbd 0f6e debc ec99 083d a157 053e
00000080: 997d 383e af82 b4bd 3d76 a93c 90a9 3c3d
00000090: 646b 433d bc35 b0bd fa24 87bd ef24 503d
000000a0: db16 20bc 2db6 0f3d 97a3 933d 00d5 32bc
000000b0: e6c0 d4bc 5362 453d 6c9a 8dbd 171e 20bc
000000c0: 4061 5bbc 2f3d adbc 4c70 243d 5ef4 babc
000000d0: 3117 413b 74ac cd3c ce35 a6bb 64d1 e8bc
000000e0: b43c ad3d 24c2 493d 5685 9abc b8d4 f33c
000000f0: 7b63 1ebd a482 353d b081 313d 4937 19bd
00000100: 3b58 773d 49a0 2abc 59b0 a53d 828a e4bc
00000110: 2217 2eba a151 97bc b5cc 1c3c 7b2a acbd
00000120: c4f8 aa3d e58b 8dbd 0733 a8bd fdaf c1bd
00000130: 0bf9 bcbc d1f8 703d 463a 173c 23e7 c3bb
00000140: 2d68 3fbd d4c5 54bc 8557 dbbc 3021 8fbd
00000150: 9289 9fbc fb3f da3c a703 3c3d eb6c a4bd
00000160: e11e 993d 23c2 433e a140 24bd 6c2f 9abd
00000170: 9673 533c 1f5d a33c fd97 c1bc 5d51 26bd
00000180: 00fe 58bb 7138 79bd 1afc 74bd aea2 e73c
00000190: 36c3 233c a228 a53c f3c9 8c3d c18f 61ba
000001a0: 899d 9d3d 68d9 df3d dc3b 7bbd 26b1 503d
000001b0: 039e 453d 7a43 0abd 5d80 1a3e 95fb 25bd
000001c0: 5235 69bd 87cf 6c3d 26f2 273d 3256 ab3d
000001d0: 0efe 8ebd 55b1 243d f4c7 b13c 0a21 58bd
000001e0: 38d2 42bc 6be7 903d 7ddf 183d 0777 26bd
000001f0: 64f6 77ba 94ec ffbc 2df7 6e3d 8452 da3d
-0.07533685 0.07579703 -0.07831675 -0.037633248 -0.022633258 -0.016767135 -0.019278921 0.059845854
0.06613344 -0.088699825 -0.08200573 -0.08649869 0.114143245 -0.01072023 -0.04375122 0.029754417
0.011552198 0.017832873 0.10822734 0.06419995 0.09709524 -0.058925856 -0.00467182 -0.06596574
-0.03189178 -0.013292822 0.049564335 0.061284598 -0.049831904 -0.02715209 0.033349916 0.13021709
0.18016662 -0.088139884 0.020686263 0.046060145 0.047709838 -0.08603999 -0.065988496 0.050816473
-0.009771074 0.035085846 0.07208937 -0.010915041 -0.025970887 0.048189472 -0.06914219 -0.009772799
-0.013389885 -0.021147339 0.040146157 -0.022821601 0.0029463286 0.025106646 -0.005072332 -0.028420158
0.08458844 0.049257413 -0.018862408 0.029764518 -0.03866909 0.04431404 0.04333657 -0.03740624
0.060386878 -0.0104141915 0.08090276 -0.027898077 -0.00066410203 -0.01847154 0.00957029 -0.0840654
0.083482295 -0.069114484 -0.08212858 -0.09457395 -0.023067972 0.05883104 0.009230202 -0.0059784814
-0.04673021 -0.012986619 -0.026775131 -0.06988752 -0.019474778 0.026641836 0.04590192 -0.08028587
0.07476593 0.19117026 -0.040100697 -0.07528576 0.012905976 0.019941865 -0.023632044 -0.040604938
-0.003311038 -0.060844842 -0.059810735 0.028275814 0.009995272 0.020160977 0.06874456 -0.000860449
0.07696063 0.10930139 -0.061336383 0.050950192 0.048246395 -0.033755757 0.15088029 -0.04052313
-0.056935616 0.0578151 0.041002415 0.0836605 -0.06982051 0.04020818 0.02170179 -0.052765884
-0.01189094 0.070753895 0.03732251 -0.040640857 -0.00094590173 -0.031240739 0.058341194 0.1066027

fc3.weight f4 [13, 128]
00000000: 5771 56bc 93c0 a7bc 5060 8cbd ab3e a0bc
00000010: 8357 223d d250 aebd 9b1c 093d ad8f ac3d
00000020: c1d4 1b3d c9f0 3f3d daf8 c3bc 8445 f4bb
00000030: 952a 08be 0b35 2fbd 62ee b53c 83c3 49bd
00000040: 2e77 553d dbf2 2cbd ec36 b53b 3e80 3ebd
00000050: fa70 19be 9ed5 0abd db38 76bd b62e 8d3c
00000060: d70b 643c 7a5c 863d db0f 3d3d 360d aebd
00000070: 03b2 0b3d 7be2 2c3d a95e c0bd 33de 17be
00000080: 3fb8 2fbe e3ae 33bd 6db8 e9bb 26ec b13d
00000090: 0756 983d b2bc b9bc 005f d73b 8be4 7d3b
000000a0: 8a95 0e3c 4b8f 75bd 978e 313c 0001 7f3d
000000b0: dd16 6d3c a357 a53d 481f a83d ce4e 13be
000000c0: 6fb4 a03d cbe7 8ebd 727c 2bbd 635d 5f3d
000000d0: eac2 5c3b 9953 9c3d 795d 283d 6140 9abc
000000e0: 7d4b 043d 3fe9 81bd c451 153c cefd 3fbd
000000f0: bfcf 873d ceaf c73d f933 0e3d ec67 4abd
00000100: f1ff d23b e03e 793d 7d39 abbd a478 8fbc
00000110: 686b 0e3d 96db fbbb cbd7 023d a785 8139
00000120: bf66 babd b839 523c 5262 1aba 0216 83bd
00000130: 6a95 86bd a39b c93b f3fa 0cbd a09f 2fbb
00000140: e9c2 853d 0d0d 3fbd 6aa9 453d cc6d 7c3d
00000150: 02d2 453d 5227 ecbd 05d8 583c 807a 85bd
00000160: 2534 65bd b962 dcbd eb9f 9c3d 2aa9 4a3d
00000170: 20f1 ca3c fee5 513d b8e2 acbd 41a7 acbd
00000180: c55f 163d d363 acbc a0a1 ec3c 4279 80bd
00000190: 8e63 ab3d 2b36 95bd 01eb 1f3d b3bb 3e3d
000001a0: 4f89 28be e31b a43c da0c 243d 939c 05bd
000001b0: ecf7 fbbc 4088 8a3d fb04 d6bd 1f6f be3b
000001c0: f8c8 283d f426 123d 1949 35bd f279 81bb
000001d0: e895 db3c 0a9c 0c3d c139 28bd 2335 233d
000001e0: 54fe 9cbc 8b86 2f3b 3ea3 393d 6af2 823d
000001f0: 6ea1 44bc d94c 6b3d 5042 8b3d fc84 21bc
00000200: 28af b6bb c0dc 8abd e7d4 72bd ea88 503d
00000210: 7586 65bd 112e 55bd 0885 6a3d 16e6 48bd
00000220: 8504 8cbd 4731 6a3c 8640 1c3d 1517 a4bd
00000230: 47b2 11bd a198 8bbd febe 183d 8eaf 5bbc
00000240: 89a5 f33c c840 c03d 03a4 43bd 9afa 17bd
00000250: ef7a f8bc e453 d93c 56ca 21bd 7036 79bd
00000260: ee74 dcbc 4b89 0e3d 53fc 183d 6369 dcbd
00000270: ad1a 993d 57ea 75bd e4db ccbc c6ca c4bd
00000280: b35f 01be 2015 963d b5d7 8abd a759 3e3d
00000290: b48e e33c f6e6 3abd f185 9b3d cc0d 45bd
000002a0: 041b 02ba 2265 ab3d c277 aabd 587e 953d
000002b0: 34a9 32bd 12ec 92bd a51a 4b3d d87e b8bd
000002c0: 31c8 95bd 5d57 42bd 1c0c 723d a2bd a53d
000002d0: b1ec dabb 17ed 393d dafd d23a 5689 87bd
000002e0: 151f 38bc a0e5 803d 0a26 80bc 8cda 71bd
000002f0: 0897 943d 6ab6 96bc 2690 973d 48b0 4f3d
00000300: e54b 7d3c 875c c03c d7f7 3fbd 20f8 1dbd
00000310: d284 4dbd 6f40 0fbd d68a 4abd b034 55bc
00000320: a033 c3bd c330 e9bc 6880 76bd 71fa adbd
00000330: 4a58 a53c b375 0e3d 03d5 12bd 2227 86bd
00000340: 5d0f 29bd 5f0a e7bd 190d c2bd ceda bb3d
00000350: 5702 443d ff78 db3c c1e1 bdbd 9363 6fbd
00000360: 5a03 9c3d d9bc d6bd c1be 5fbd 2ac9 96bd
00000370: df63 dc3c c242 41bc 7ce3 5cbd 3024 9a3d
00000380: 4938 55bd 10c3 1c3c b98a fb3c c93e 2d3d
00000390: da84 973d 5224 a8bc 9c06 223d 63d8 e5bb
000003a0: 00b9 60bd d4fd dcbd 567a 473d d017 d43c
000003b0: 4c10 ca3c 7af3 ddbb 4e21 cfbc 0fd8 aebd
000003c0: 6976 853d 48a0 823d 45f9 413d 65ba 5fbd
000003d0: 19e9 a8bd 2ea5 d0bc 006e 91bd e774 2dbd
000003e0: 4fed 7e3d cbe7 49bd c257 b43d 6180 36bd
000003f0: e39d 28bd ba14 91bd fce3 093d 7c52 76bc
-0.013088546 -0.020477569 -0.06854308 -0.019561132 0.03963424 -0.08511509 0.033474546 0.084258415
0.038044695 0.04686049 -0.023922373 -0.007454576 -0.13297494 -0.042775195 0.022208396 -0.04925872
0.05211561 -0.042223793 0.005530229 -0.04650902 -0.14984503 -0.033895127 -0.060112815 0.017234188
0.013918838 0.06560607 0.0461577 -0.084986135 0.034105312 0.042208176 -0.09393055 -0.14830856
-0.17160128 -0.043867957 -0.007132581 0.0868762 0.074382834 -0.022672985 0.006572604 0.0038740959
0.008702645 -0.059951108 0.010837219 0.062256813 0.014470783 0.08073356 0.082090914 -0.1438553
0.07846915 -0.06977805 -0.041866727 0.05453242 0.0033685514 0.076331325 0.041104767 -0.018829526
0.032298554 -0.06343316 0.009113733 -0.046872906 0.06631421 0.09750329 0.034717534 -0.049415514
0.006439202 0.060850978 -0.083605744 -0.01751358 0.0347704 -0.007686089 0.031944077 0.00024704376
-0.091016285 0.012831144 -0.00058892847 -0.06400682 -0.06571467 0.0061525865 -0.03441901 -0.0026798025
0.06531317 -0.046643306 0.04825727 0.061628148 0.048295982 -0.11530937 0.013235097 -0.06517506
-0.055957932 -0.10761017 0.076476894 0.049477734 0.02477318 0.05124473 -0.08441681 -0.08430339
0.036712427 -0.021043694 0.028885663 -0.06273128 0.08368598 -0.07285722 0.039042477 0.046565723
-0.16458629 0.020032829 0.04005132 -0.032620024 -0.030757867 0.06764269 -0.10450169 0.0058115865
0.041207284 0.03568168 -0.044259164 -0.0039513046 0.02680488 0.034328498 -0.041070703 0.039845597
-0.019164242 0.0026783075 0.045321696 0.06393893 -0.012001378 0.057446335 0.067997575 -0.009858366
-0.0055750795 -0.06780386 -0.05928507 0.05091182 -0.05603643 -0.052045885 0.057255775 -0.049047552
-0.068367995 0.014293975 0.03814747 -0.08012215 -0.03557041 -0.06816221 0.03729152 -0.013408555
0.02974202 0.09387356 -0.047763836 -0.037104227 -0.030332057 0.02652926 -0.039499603 -0.06084293
-0.026911225 0.0347989 0.03735001 -0.107622884 0.07475791 -0.060037937 -0.025007196 -0.096089885
-0.12634163 0.07328248 -0.06779424 0.046472218 0.027778007 -0.045630418 0.07593907 -0.04810886
-0.0004963132 0.08368899 -0.08323623 0.07299489 -0.043618396 -0.07173933 0.049585957 -0.090085685
-0.07313574 -0.047446597 0.05909358 0.0809281 -0.006681048 0.045392122 0.0016097382 -0.066179916
-0.011237879 0.062937975 -0.015643138 -0.059046313 0.072553694 -0.018397529 0.07400541 0.050705224
0.015459989 0.02348162 -0.046867218 -0.03856671 -0.050175495 -0.034973558 -0.04944881 -0.01301305
-0.09531331 -0.028465634 -0.06018105 -0.084950335 0.020183701 0.034780215 -0.035847675 -0.06550433
-0.041274417 -0.11281275 -0.094751544 0.09172593 0.047853794 0.026791094 -0.09271575 -0.05844457
0.07617827 -0.104852386 -0.054625276 -0.07362588 0.026903091 -0.011795701 -0.053927884 0.075264335
-0.05205563 0.009567991 0.030705797 0.042296205 0.07398386 -0.020525131 0.039557084 -0.0070143207
-0.05486393 -0.107906014 0.048700653 0.025890261 0.024665974 -0.0067734094 -0.025284436 -0.08537304
0.065167256 0.063782275 0.047356863 -0.05462112 -0.08247585 -0.025469389 -0.07101059 -0.042347815
0.062238034 -0.04929332 0.08805801 -0.044556025 -0.041166198 -0.070840314 0.03366469 -0.015034314

fc3.bias f4 [13]
00000000: 2bba 2a3d 0bce 8cbd e549 35bc c0b6 ed3c
00000010: 81b5 9c3c 868e a1bd 0d14 9abd fe06 d9bd
00000020: 56d8 b73c 78e5 7cbd 5d6a 7cbc ac09 2b3d
00000030: 3686 de3c
0.04168145 -0.06875237 -0.011064981 0.029017806 0.019129517 -0.07888512 -0.07523356 -0.10597037
0.022442024 -0.061742276 -0.015406218 0.04175727 0.027163606
