models/model_episode_3500.pth (torch, 77430 bytes, 6 tensors)

fc1.weight f4 [128, 3]
00000000: 6439 d43e 53aa 063f 5d94 19be 8a0e fc3e
00000010: 7356 11bd 1bbf 263e ccb5 86be 5e95 d13e
00000020: 3053 103f 77cd fcbe e0e1 0f3f bcad b63d
00000030: 262b c63e b015 0f3e aafd 943e f6a1 f0bd
00000040: a088 013f 898c 5c3d 19c7 8dbe 25fa 0f3e
00000050: fe31 88be 3caa 8abd 9e1f 70be 3c18 c43e
00000060: 99df e5be 9757 62be 6f99 38be 9dc2 b7be
00000070: bb06 113e 398b 0abf 97a5 063f 31b0 e8be
00000080: 7395 f03e b6c6 c43d adf7 3fbe 07ab b63e
00000090: f41b 863d 73be 063f b4e4 c83d b8f1 38be
000000a0: 1daf 8a3e 80ac d3bd 89eb 6f3e d1ac 1b3f
000000b0: 4923 b43e 14b0 a2be 5bf5 c83e 6e8a 063e
000000c0: 231e 963e f62b b4be 644f 12bf bd69 83be
000000d0: cbcd dabe 08d0 fe3e 531c 1a3e bf82 a33e
000000e0: 1ed2 443e 3088 21bc 4226 0a3f d525 dbbe
000000f0: f7e5 143d dbc2 c9be bd4c 363e e299 4bbe
00000100: c527 353e 8358 f6bd c62b f53e 6534 afbe
00000110: 184c b0be b516 a3be 65d7 273f 709a 683e
00000120: e638 0e3f 54f4 f3be d799 12bf f344 e7be
00000130: 61d9 c6be 6276 6f3e 555c 453e c26a 0c3f
00000140: c5d4 99be f393 9dbe 5c7d e23e 15c5 4bbe
00000150: f1be 973e 984f abbd 642a af3e ed4f eabe
00000160: b0c2 99be 0af8 2a3e c048 ea3d e73e f0bc
00000170: fa8e c33e 31f4 c83e 195d d6be 2fd0 9dbe
00000180: fbae 023f ddb8 5bbe 3300 54be 1903 0fbf
00000190: 8148 a9be 83af 133e 0c12 9cbd 0693 d6be
000001a0: 51e2 5d3c d2eb c9be f4c9 fabe 18c7 a2be
000001b0: 995b 01bf ce38 bcbe 6dbe 133f 3ad5 003e
000001c0: 1423 8c3e 30da 09bf 0025 c2be 5dc9 44be
000001d0: 32e5 b83d e7c4 bcbe 7ce1 bebd a432 a5be
000001e0: acfa 88bc ec6e 2abe ac99 3dbd 424f c8be
000001f0: 94e6 cabe 9d74 acbe 585e 4abe 6650 e9be
00000200: c0da f73e 373e f7bd e1fc 183f 3d4b 763e
00000210: 0add dfbe cf49 013f 3d3a 0cbe fb9f 62be
00000220: 215f f5be 48f0 12bf c8d4 023e 4d31 25bd
00000230: e7be 863e cad2 cabe 4bf1 0a3f 07a2 cdbe
00000240: afb0 f4bd c094 253e 032a af3e 19cb e53e
00000250: 4c36 1c3f 05aa e1be 91c9 143e 184b 7ebe
00000260: 1593 81bd 3520 e1be ed0d 1f3f 3d79 d4be
00000270: 1871 813e b1b0 833e ee7a 7e3e 6a2a b3be
00000280: cf5c 123f 84f0 fa3d 101b 983d 3d40 02bf
00000290: 872e 783e 3e31 d9bd 2796 89be c438 013f
000002a0: 0ecf 033e e48c a3be c99d 95be 6a05 a6bd
000002b0: fa5a c63e a1bd f5bd f1a9 a8be 5b74 4abe
000002c0: 7bd6 dcbe 793a 6c3e ccd8 153f 1ef3 00bf
000002d0: 9551 0a3e d5d8 c43e ebf5 f43d 26f4 7fbe
000002e0: fa48 c63e fff3 b03e 7a11 5d3e 7cc6 cfbd
000002f0: 628d 1cbe e736 633d 36f6 c33b cbd6 febd
00000300: dff9 bc3e 7aea 1b3f c7e0 b53a 8c5e 04be
00000310: 6f08 0a3c 1b33 0dbd edd6 1c3e f20c 853e
00000320: ffd0 03bf 3125 2fbe d8cd 123f 0b39 963e
00000330: d13d ebbc 9038 b2be 04da b4be 3ba3 06bf
00000340: 02ad 4bbe 96e5 3c3e 18b2 c03e 8234 c33e
00000350: 5820 edbe 0555 afbe d6a8 e439 fee3 163f
00000360: 820b ab3d f01a 19be 5997 743e 7a01 54be
00000370: 5c42 78be 5d0b ed3e 4f69 86be d908 edbd
00000380: a208 13bf 8302 c23e 05c4 0d3f b58d 783e
00000390: d81d cebe 12df 11bf 3315 f0be ce9c db3e
000003a0: 82c4 bf3e 5b9b fc3e 135d 953e f185 843e
000003b0: b0f7 a03c e1ce e0be c443 fdbe ff3e 0abf
000003c0: 916e 5b3e 4797 a5be 7994 f0bd 0c1f aabe
000003d0: ac76 d7bd 520e d0be e026 c1be 121c 443e
000003e0: 59b4 2fbe 1c7d b63e 0eaa 3dbe 4dd8 d8be
000003f0: b745 f3bd 29db 35be c52a 31be d348 0abf
0.41450036 0.52603644 -0.14998002 0.49229842 -0.035482835 0.16283838 -0.26310575 0.4093427
0.56376934 -0.49375507 0.5620403 0.08919856 0.38704795 0.13973117 0.2909978 -0.117496416
0.505991 0.053844962 -0.27690962 0.14060266 -0.2660064 -0.06770751 -0.23449561 0.3829974
-0.44897154 -0.22103725 -0.1802728 -0.35890666 0.14162724 -0.54118687 0.5259642 -0.45446923
0.4698902 0.096082136 -0.18746825 0.35677359 0.065483004 0.5263435 0.09809247 -0.18060958
0.27086726 -0.10335636 0.23429693 0.6081057 0.3518317 -0.31774962 0.3924969 0.13138744
0.29319867 -0.3518979 -0.5715239 -0.2566661 -0.42735133 0.4976809 0.15049867 0.3193569
0.19220778 -0.00985913 0.53964627 -0.428023 0.036352124 -0.39406475 0.17802711 -0.1988292
0.17690952 -0.12028601 0.4788496 -0.3421966 -0.34433055 -0.31853262 0.6556304 0.22715163
0.5555557 -0.47647345 -0.5726599 -0.45169792 -0.38837722 0.23385003 0.19273503 0.548504
-0.30045143 -0.3077694 0.44236267 -0.198994 0.29637864 -0.08364791 0.3421203 -0.45764104
-0.30031347 0.16696182 0.11439657 -0.02932687 0.3819502 0.39248803 -0.41867903 -0.30822894
0.5104825 -0.21457238 -0.20703201 -0.558641 -0.3306313 0.14422421 -0.0762063 -0.41909045
0.013542728 -0.3943773 -0.48982203 -0.3179252 -0.5053039 -0.3676209 0.5771244 0.1258134
0.27370512 -0.5384855 -0.37918854 -0.19217439 0.090280905 -0.36868975 -0.093203515 -0.32265198
-0.016721092 -0.16643876 -0.04628913 -0.3912297 -0.39629042 -0.3368272 -0.19762552 -0.45569152
0.4840908 -0.120724134 0.5976086 0.24052139 -0.43723327 0.5050325 -0.13694091 -0.2213134
-0.4792414 -0.5739789 0.12776482 -0.04033022 0.26317522 -0.39613944 0.54274434 -0.4016268
-0.11947762 0.16170025 0.3421174 0.44881514 0.6102035 -0.44075027 0.14530016 -0.24833333
-0.06326882 -0.43969885 0.62130624 -0.41498747 0.25281596 0.25720742 0.24851581 -0.34993297
0.57172865 0.12252906 0.07427037 -0.5087927 0.24236499 -0.10605095 -0.2687237 0.5047724
0.12871954 -0.3194343 -0.29221943 -0.081065014 0.38741285 -0.119990595 -0.32942155 -0.19770949
-0.43132386 0.2306918 0.5853393 -0.5037097 0.13507684 0.3844668 0.11960968 -0.24995479
0.38727552 0.34561154 0.21588698 -0.1014528 -0.15288308 0.05547228 0.0059802784 -0.12443312
0.36909387 0.6090466 0.0013876193 -0.12926692 0.008424862 -0.034472566 0.15316363 0.2598644
-0.5149078 -0.17104031 0.5734534 0.29340395 -0.028716 -0.3480878 -0.35322583 -0.5259282
-0.19890216 0.18446955 0.37635875 0.38125998 -0.4631374 -0.34244552 0.0004361334 0.5894164
0.08351804 -0.14951682 0.2388586 -0.20703688 -0.24244064 0.46297732 -0.2625222 -0.11573953
-0.5743505 0.3789254 0.5537723 0.24272807 -0.40257144 -0.56981003 -0.46891174 0.4289307
0.3745461 0.49337277 0.29172572 0.2588344 0.019649357 -0.43907836 -0.49465764 -0.54002374
0.21428896 -0.32341978 -0.11747069 -0.33226812 -0.10520682 -0.40635926 -0.37724972 0.19151333
-0.17158641 0.35642326 -0.18521902 -0.42352524 -0.118785314 -0.17759384 -0.17301472 -0.5401737

fc1.bias f4 [128]
00000000: cbed 2f3d 284b 1a3f 1d74 d9be 4507 2ebe
00000010: 53e6 c53e 86d9 a1bd 9880 ffbd f768 76be
00000020: da51 e03e 61e3 b83e 63a7 623e 4b1e a6be
00000030: 3a8f d3be 4abb 293e 5d35 813e 102a 5cbe
00000040: 126b 25be d877 cb3e a0ff e73d f0e9 d23d
00000050: 0c7f 11be 01d9 05bf bcf8 0abf c04a 19be
00000060: f242 96be 4c31 383e 24dd e5bd 3c7c c2bd
00000070: 8f93 173f 9aa7 443e a46f 043f f81a 8fbe
00000080: 41e2 82be d94a 593e 02f4 c4be b23c c1be
00000090: d170 e4bc 27e6 f7bd f599 ddbe 38a0 fc3e
000000a0: c2af 003f a6d0 bf3d b5df cdbd bf12 e3be
000000b0: 800a dfbd 4183 163e 82ff b03e 5abf 1c3d
000000c0: cf9c 48be deaa c93e 1d6b ebbe 8fdc e43e
000000d0: d823 37be dd66 353d e4a9 e9bd d2b2 7c3d
000000e0: 66a9 32be 444c f13e 46ea 75bc a4d8 133f
000000f0: 45c5 213f a55d 51be 34a5 d7be 5657 0f3f
00000100: ffb1 0d3f 06b5 e1be 3017 343d e81f f8be
00000110: 0afb f1be aedc ce3d a7cc 833e a9c8 523e
00000120: d4e7 20be 45f5 263f 1d0f a93d fb5b 72be
00000130: c0e1 05bd 0aaa 663e 74ab 993e f503 d1be
00000140: 4773 363e b104 97be f5a0 f5be f375 a1be
00000150: ddbc 243f 8cc2 1c3f 0b46 163f 8822 cf3e
00000160: de2c 0b3f 0644 9ebd 32a6 a2be 1d43 bf3e
00000170: 7577 38be 1b7e c7be dbca 3cbe f023 f83d
00000180: 24a2 c23e 48a1 65be 6ffb adbe d67f 9f3d
00000190: 093d aebe b774 c0be 5267 d23e a6fe 1dbc
000001a0: 6b83 223f d3fc 213f c718 7b3e 2897 923e
000001b0: 3125 083e 1e24 143c a078 5a3d a2bb 113e
000001c0: 6479 763e c602 123f 7237 19be 1c8e 4bbe
000001d0: 2ec3 cebc 9414 7bbe a4f6 3c3e 57f8 003f
000001e0: c7d5 0b3f 0886 9a3e 378b d9be 56ef 60be
000001f0: 15e5 01be 6ec7 c3bc ef86 963c 7fad 07bf
0.042951386 0.6027093 -0.424714 -0.1699496 0.38652286 -0.079028174 -0.12475699 -0.24063478
0.43812448 0.36110976 0.22134165 -0.32444987 -0.4132021 0.16575351 0.25236025 -0.2150042
-0.16154125 0.3973987 0.113280535 0.10298526 -0.14208621 -0.52284247 -0.5428579 -0.14969921
-0.2934795 0.17987555 -0.1122382 -0.09496352 0.5920953 0.1920456 0.5173285 -0.27950263
-0.25563243 0.21219958 -0.38467413 -0.3774162 -0.027885826 -0.12104445 -0.43281522 0.49340987
0.50268185 0.093659684 -0.10052434 -0.4435024 -0.108906746 0.14698507 0.34569937 0.038268425
-0.19591068 0.39388174 -0.45980158 0.44699523 -0.17884767 0.04428755 -0.11409357 0.061693974
-0.17447433 0.471285 -0.015009468 0.5775244 0.63191634 -0.20445879 -0.42118227 0.5599264
0.55349725 -0.44083422 0.043967426 -0.48461843 -0.4726184 0.10100685 0.25742075 0.20584358
-0.15713435 0.65218 0.08254836 -0.236679 -0.032685995 0.22525802 0.3001362 -0.4082333
0.17817412 -0.29495767 -0.47974363 -0.315353 0.6435068 0.61234355 0.5870063 0.40456033
0.54365337 -0.07727818 -0.31767422 0.3735589 -0.18014319 -0.38963398 -0.18436758 0.121162295
0.38014328 -0.22424805 -0.3398089 0.07788055 -0.3403094 -0.37589046 0.41094452 -0.009643232
0.6348178 0.63276404 0.2452117 0.28630948 0.13295437 0.009041814 0.053337693 0.14231732
0.24069744 0.5703548 -0.14962557 -0.19878429 -0.025239553 -0.24519569 0.18453461 0.50378937
0.54623073 0.30180383 -0.42489025 -0.219663 -0.12685044 -0.023898806 0.018374888 -0.5299911

fc2.weight f4 [128, 128]
00000000: 815d e13c 3818 8abd fa13 65bd 0e7f 96bd
00000010: c8b9 9d3d 176a abbd 128e 883d daba 42bb
00000020: 2c6b 28bc 8972 623d 77d9 05bc d50d 633d
00000030: 33e1 823d ae29 9dbd 834e 0b3d cbb0 883c
00000040: 63af 9b3c 0f6b 533c bd0e c63c 302a 2ebd
00000050: 4f47 39bc 76fd ab3d 493c 733d a59e 59bb
00000060: 1841 aabd a8e0 7d3b eb89 76bd 1134 933d
00000070: 03ca 5bbd 421e d1bb 22b4 a0bc 33da 803c
00000080: 1d58 aa3d 3f9a 093c 06ae 513d d982 8c3d
00000090: 9123 923d a80f fabc d9f1 a1bc e87a 2e3d
000000a0: ca93 c5bc 9887 293d 0130 9ebc b78d 75bd
000000b0: 8d5d 133d 3b07 5e3c 126a 213d 16d7 b33d
000000c0: fc2c 773d 589a ab3d c704 9b3b 11b7 9bbd
000000d0: e0fa 7dbd 90e3 60bd e385 9fbd 9278 35bd
000000e0: fca3 a6bd de02 a7bd 7e56 58bd 7a74 b2bd
000000f0: 4e39 5ebd 690c 0a3d ccfa 963d d762 d7bc
00000100: 659e d2bc ce4f 413d 8d9e 32bd 052f 2bbd
00000110: 0e10 5f3d f2b8 9dbd a012 313c c2e8 9f3d
00000120: c756 783c 89e8 c43c 1ed9 52bd 26d6 9fba
00000130: 8240 9f3b a1b6 b13c 2eab 0c3d f14a 9d3d
00000140: 062c 8abd ada2 2d3b 3de3 34bd a732 8fbd
00000150: fded e7bb 0357 9fbd a0aa 7c3d beb7 273c
00000160: a81f 43bd 9f31 3d3d 5f52 abbd 4909 0cbd
00000170: 5710 8dbc 3cd2 99bd 5737 66bd a55d 6cbc
00000180: df59 893d 56cd ae3d 025a 663d 962e 58bd
00000190: 76da 6cbd 6ef9 9d3d 340f 003d 84e5 193b
000001a0: 59fb 433c 127c 91bd 45c2 f1bc a340 ae3d
000001b0: af94 b2bc 6f4a 91bb 554e 96bd ea86 4abd
000001c0: de90 ecba 3ce2 60bd c995 33bc c055 133d
000001d0: aa11 b1bd 4a0f d73c 0762 6fbd 80b1 30bd
000001e0: 7bfd 0a3d a0ee 8f3d 87e5 c5bc 52a4 14bd
000001f0: 26af a3bd 22b0 3abd d981 9ebd 4fb8 a5bc
00000200: 6765 803c b387 aebd e90c 9e3d e18b 5a3d
00000210: 1415 b6bd 2153 36bd 471d f43c c5c4 94bc
00000220: bc2d 40bc e58d 2cbd f565 913d 0461 4abd
00000230: 24eb 9c3d 92dd 5d3b 56c6 7c3c c527 8a3d
00000240: 279b 6ebc d21f 4ebd 6317 88bc aa12 8e3d
00000250: 6650 86bd f559 a43c 7de7 b1bd 5ec9 343d
00000260: f9c2 053d ea8f 753b d9a5 113d 08f5 f0ba
00000270: 75a7 3e3d 724c 8fbd 563f 7cbc 0b9b 203d
00000280: 1943 b43d 5d6b 383d f4a1 83bd ae38 8b3d
00000290: ce77 a1bc d999 9abc bd87 a4bd 9a56 7bbc
000002a0: 0383 763d 0cf0 493c f0de 52bd 38e1 de3c
000002b0: ce10 f9bc 0345 a53d 57ec a1bd a4e8 f6bc
000002c0: 98c9 aebd 9641 18bd 8143 e43c e09b a93d
000002d0: af91 fa3b d7d8 ac3d d2aa 8d3c 2217 513d
000002e0: ca1d 913d 24a1 923d 42a4 4abd 89a7 a13d
000002f0: bdc4 513d 860f 2fbd 1dc4 2cbd 0aaa 9cbd
00000300: 0793 a23c 9fb9 92bd 05a4 0f3d 75a9 e43c
00000310: 1e45 9dbd cc4f c53c fd76 1cbc cd0b 2e3d
00000320: e9bb 4f3d 105d b8bd 3c03 a63d b585 923d
00000330: 9d0c 103d b161 aabd 3f33 0bbd 13d8 d1bc
00000340: 1d16 babc 7729 4c3d 69a0 033d 5566 8f3d
00000350: b82c 11bd 4827 e13c 4256 ee3c a667 9bbd
00000360: f45c b4bd a0db 3bbd 2dd5 773d 353d afbd
00000370: bb90 9dbd 74d0 4a3d 9254 433d 75de 943d
00000380: 669d 8dbd ee7c 84bd 94b8 393d 7d6b 9d3d
00000390: 2e9f 583d 41db 623c 0a07 dc3c 4f1b a73d
000003a0: 3de3 72bd 2df6 2dbd f1de 733d fd9f 80bd
000003b0: f7a1 47bd 7b24 843d 099d ce3c 938b d83c
000003c0: aecb 22bd 98a4 65bb c1ac a53d 9c5e 62bd
000003d0: d02b 363a 3341 223d 49b3 80bd d6e1 aa3d
000003e0: a6a3 3dbd 4ce8 c0bc efe9 c3bc 565e 75bd
000003f0: bca0 b1bd d622 4c3d 5d5e c03c f88a a9bd
0.027510406 -0.067429006 -0.055927254 -0.073484525 0.077014506 -0.083698444 0.06667723 -0.0029713423
-0.010279458 0.05528501 -0.008169523 0.055433113 0.063906096 -0.076739654 0.03401042 0.016685864
0.01900453 0.012903943 0.02417695 -0.042520702 -0.011308505 0.08397953 0.059383664 -0.0033206132
-0.08313197 0.0038738642 -0.060190123 0.07187665 -0.05365945 -0.006381781 -0.019617144 0.015729045
0.083175875 0.008398592 0.051191352 0.06860895 0.0713569 -0.030525044 -0.019768642 0.04259768
-0.024118323 0.041389078 -0.01931 -0.059949603 0.03597789 0.013551529 0.039407797 0.08781259
0.060345635 0.08379048 0.004730794 -0.076032765 -0.06200683 -0.05490452 -0.07789209 -0.044304438
-0.08136746 -0.08154844 -0.05281686 -0.087136224 -0.05425387 0.03370324 0.073720545 -0.026292248
-0.025710294 0.04719525 -0.043608237 -0.04179289 0.05445867 -0.07701291 0.010807663 0.07808067
0.015157408 0.024036663 -0.05147659 -0.0012194559 0.004859985 0.02169353 0.034342937 0.076803096
-0.06746678 0.0026494667 -0.044162024 -0.06992083 -0.007077931 -0.07780268 0.06168616 0.010236679
-0.04763761 0.0461899 -0.083653204 -0.034188543 -0.017219706 -0.07510802 -0.05620512 -0.0144266235
0.06706595 0.085352585 0.056238182 -0.052778803 -0.057825528 0.077135906 0.0312645 0.002348275
0.011961781 -0.07103743 -0.02951158 0.08508422 -0.021799413 -0.004433922 -0.073391594 -0.04944507
-0.0018048545 -0.054903254 -0.0109610045 0.03597045 -0.08645947 0.026252408 -0.058443096 -0.043138027
0.033933144 0.07027936 -0.024157299 -0.03628952 -0.07992391 -0.04557813 -0.0773961 -0.020229487
0.015673352 -0.08521976 0.07717306 0.053356055 -0.08890739 -0.04451287 0.029799117 -0.018160233
-0.011729654 -0.04212751 0.07099525 -0.049408928 0.07662037 0.003385399 0.015428146 0.06745867
-0.014563358 -0.050323315 -0.016612714 0.06937154 -0.065583035 0.020062426 -0.08686731 0.04413735
0.032656644 0.0037469813 0.035558555 -0.0018383572 0.04654642 -0.06997003 -0.01539596 0.03921036
0.0880186 0.045024265 -0.064273745 0.0679792 -0.019710448 -0.018872188 -0.080337025 -0.015340472
0.060183536 0.012325298 -0.05148214 0.027207002 -0.03040352 0.080698036 -0.079064064 -0.030140229
-0.08534545 -0.037171923 0.02786422 0.08281684 0.0076467614 0.084397964 0.017293368 0.05104745
0.0708576 0.071596414 -0.049473055 0.07893283 0.051213015 -0.042739414 -0.042179216 -0.0764962
0.019845499 -0.07164311 0.03506853 0.027912835 -0.07679199 0.024085902 -0.009549853 0.042491723
0.050716314 -0.09002125 0.08106086 0.07154409 0.03516828 -0.083194144 -0.03398442 -0.025615728
-0.022715623 0.04984423 0.0321354 0.0700194 -0.035443038 0.027484551 0.029093865 -0.07588129
-0.08806792 -0.045863748 0.060506035 -0.08556596 -0.07693621 0.049515203 0.047688074 0.07268993
-0.06914787 -0.06469141 0.045342043 0.076865174 0.05288618 0.0138462195 0.026858825 0.081595056
-0.059298743 -0.0424711 0.059538785 -0.06280515 -0.048738446 0.064522706 0.025221365 0.026433742
-0.039745025 -0.0035040732 0.08089591 -0.055266008 0.00069492776 0.03961296 -0.06284196 0.08343856
-0.046298645 -0.023548268 -0.02391526 -0.05990442 -0.08673236 0.04983791 0.023482496 -0.08278459

fc2.bias f4 [128]
00000000: 354a 9abd 793b 9b3d 8864 a0bd 5225 1abd
00000010: 6269 b9bc 3b5b 89bc d4ee 9dbc ed20 753d
00000020: f870 873d 41a8 b5bd 9ff2 a7bd 3a26 b1bd
00000030: 3c48 e83d e7a3 2fbc 7b34 33bd 9731 0a3d
00000040: 6e45 3d3c 3f16 923c 9cf4 e73d 437b 833d
00000050: 2784 c33d 3d5c 71bd 1116 99bb 0c19 87bd
00000060: f5a0 02bd 23ca 59bc f903 4b3d 8fb3 813d
00000070: 8a1c 4cbd 0f6e debc ec99 083d 8d23 093e
00000080: 07be 3c3e af82 b4bd 3d76 a93c 90a9 3c3d
00000090: 646b 433d bc35 b0bd fa24 87bd 216c 573d
000000a0: db16 20bc 2db6 0f3d 97a3 933d 00d5 32bc
000000b0: e6c0 d4bc 5362 453d 6c9a 8dbd e318 2fbc
000000c0: 4061 5bbc 2f3d adbc 4c70 243d 5ef4 babc
000000d0: 3117 413b 74ac cd3c a68c 2bbb 64d1 e8bc
000000e0: faff aa3d 24c2 493d 5685 9abc 6a9e 023d
000000f0: 7b63 1ebd a482 353d b081 313d 4937 19bd
00000100: b01d 733d 49a0 2abc 1161 ae3d 13e4 f0bc
00000110: 2217 2eba a151 97bc b5cc 1c3c 7b2a acbd
00000120: 7790 b33d e58b 8dbd 0733 a8bd fdaf c1bd
00000130: 0bf9 bcbc d007 823d 463a 173c 23e7 c3bb
00000140: 2d68 3fbd d4a3 54bc 8557 dbbc 3021 8fbd
00000150: 9289 9fbc 4f12 d63c 10d1 373d eb6c a4bd
00000160: e11e 993d 6b16 473e a140 24bd 6c2f 9abd
00000170: 9673 533c 1f5d a33c fd97 c1bc 5d51 26bd
00000180: 00fe 58bb 7138 79bd 1afc 74bd aea2 e73c
00000190: 36c3 233c a228 a53c f3c9 8c3d c18f 61ba
000001a0: 4148 a13d ece9 e83d dc3b 7bbd 26b1 503d
000001b0: 039e 453d 7a43 0abd 3dc5 1b3e 95fb 25bd
000001c0: 5235 69bd 87cf 6c3d 26f2 273d 33bc ac3d
000001d0: 0efe 8ebd 55b1 243d f4c7 b13c 0a21 58bd
000001e0: 38d2 42bc f1e8 8d3d 7ddf 183d 0777 26bd
000001f0: 64f6 77ba 94ec ffbc 2df7 6e3d 2ad9 e43d
-0.07533685 0.07579703 -0.07831675 -0.037633248 -0.022633258 -0.016767135 -0.019278921 0.059845854
0.06613344 -0.088699825 -0.08200573 -0.08649869 0.113419026 -0.01072023 -0.04375122 0.0337387
0.011552198 0.017832873 0.113259524 0.06419995 0.095466904 -0.058925856 -0.00467182 -0.06596574
-0.03189178 -0.013292822 0.049564335 0.06333076 -0.049831904 -0.02715209 0.033349916 0.13392468
0.18431865 -0.088139884 0.020686263 0.046060145 0.047709838 -0.08603999 -0.065988496 0.052593354
-0.009771074 0.035085846 0.07208937 -0.010915041 -0.025970887 0.048189472 -0.06914219 -0.010687086
-0.013389885 -0.021147339 0.040146157 -0.022821601 0.0029463286 0.025106646 -0.0026176362 -0.028420158
0.08349605 0.049257413 -0.018862408 0.031889357 -0.03866909 0.04431404 0.04333657 -0.03740624
0.059354484 -0.0104141915 0.08514608 -0.02940563 -0.00066410203 -0.01847154 0.00957029 -0.0840654
0.08767789 -0.069114484 -0.08212858 -0.09457395 -0.023067972 0.06349146 0.009230202 -0.0059784814
-0.04673021 -0.012978513 -0.026775131 -0.06988752 -0.019474778 0.026131777 0.044877112 -0.08028587
0.07476593 0.19442146 -0.040100697 -0.07528576 0.012905976 0.019941865 -0.023632044 -0.040604938
-0.003311038 -0.060844842 -0.059810735 0.028275814 0.009995272 0.020160977 0.06874456 -0.000860449
0.078751095 0.11372742 -0.061336383 0.050950192 0.048246395 -0.033755757 0.15211959 -0.04052313
-0.056935616 0.0578151 0.041002415 0.08434334 -0.06982051 0.04020818 0.02170179 -0.052765884
-0.01189094 0.06929196 0.03732251 -0.040640857 -0.00094590173 -0.031240739 0.058341194 0.11174233

fc3.weight f4 [13, 128]
00000000: 5771 56bc 93c0 a7bc 5060 8cbd ab3e a0bc
00000010: 8357 223d d250 aebd 9b1c 093d ad8f ac3d
00000020: c1d4 1b3d c9f0 3f3d daf8 c3bc 8445 f4bb
00000030: 2d18 08be 0b35 2fbd 62ee b53c f3cf 48bd
00000040: 2e77 553d dbf2 2cbd 52a8 bb3b 3e80 3ebd
00000050: 4167 19be 9ed5 0abd db38 76bd b62e 8d3c
00000060: d70b 643c 7a5c 863d db0f 3d3d 3faa adbd
00000070: 03b2 0b3d 7be2 2c3d a95e c0bd 44a6 17be
00000080: 6577 2fbe e3ae 33bd 6db8 e9bb 26ec b13d
00000090: 0756 983d b2bc b9bc 005f d73b e017 833b
000000a0: 8a95 0e3c 4b8f 75bd 978e 313c 0001 7f3d
000000b0: dd16 6d3c a357 a53d 481f a83d 133e 13be
000000c0: 6fb4 a03d cbe7 8ebd 727c 2bbd 635d 5f3d
000000d0: eac2 5c3b 9953 9c3d 2387 283d 6140 9abc
000000e0: 2e79 043d 3fe9 81bd c451 153c 125c 3fbd
000000f0: bfcf 873d ceaf c73d f933 0e3d ec67 4abd
00000100: aeca d33b e03e 793d ce9e aabd d253 8fbc
00000110: 686b 0e3d 96db fbbb cbd7 023d a785 8139
00000120: 8504 babd b839 523c 5262 1aba 0216 83bd
00000130: 6a95 86bd 4398 d03b f3fa 0cbd a09f 2fbb
00000140: e9c2 853d 139e 3ebd 6aa9 453d cc6d 7c3d
00000150: 02d2 453d 1212 ecbd 60f6 593c 807a 85bd
00000160: 2534 65bd 0e02 dcbd eb9f 9c3d 2aa9 4a3d
00000170: 20f1 ca3c fee5 513d b8e2 acbd 41a7 acbd
00000180: c55f 163d d363 acbc a0a1 ec3c 4279 80bd
00000190: 8e63 ab3d 2b36 95bd 01eb 1f3d b3bb 3e3d
000001a0: be4c 28be f906 a63c da0c 243d 939c 05bd
000001b0: ecf7 fbbc 4088 8a3d 3acc d5bd 1f6f be3b
000001c0: f8c8 283d f426 123d 1949 35bd ae19 7cbb
000001d0: e895 db3c 0a9c 0c3d c139 28bd 2335 233d
000001e0: 54fe 9cbc 2cf0 303b 3ea3 393d 6af2 823d
000001f0: 6ea1 44bc d94c 6b3d 5042 8b3d 8e91 1dbc
00000200: 28af b6bb c0dc 8abd e7d4 72bd ea88 503d
00000210: 7586 65bd 112e 55bd 0885 6a3d 16e6 48bd
00000220: 8504 8cbd 4731 6a3c 8640 1c3d 1517 a4bd
00000230: 6161 11bd a198 8bbd febe 183d 05fb 57bc
00000240: 89a5 f33c c840 c03d 0a58 42bd 9afa 17bd
00000250: 1a31 f8bc e453 d93c 56ca 21bd 7036 79bd
00000260: ee74 dcbc 4b89 0e3d 53fc 183d 0d0b dcbd
00000270: ad1a 993d 57ea 75bd e4db ccbc c663 c4bd
00000280: 1224 01be 2015 963d b5d7 8abd a759 3e3d
00000290: b48e e33c f6e6 3abd f185 9b3d 8275 44bd
000002a0: 041b 02ba 2265 ab3d c277 aabd 587e 953d
000002b0: 34a9 32bd 12ec 92bd a51a 4b3d 515e b8bd
000002c0: 31c8 95bd 5d57 42bd 1c0c 723d a2bd a53d
000002d0: b1ec dabb 17ed 393d d2af db3a 5689 87bd
000002e0: 1d47 37bc a0e5 803d 0a26 80bc 7536 71bd
000002f0: 0897 943d 6ab6 96bc 2690 973d 48b0 4f3d
00000300: 81c5 7d3c 875c c03c 86c0 3ebd f6e3 1dbd
00000310: d284 4dbd 6f40 0fbd d68a 4abd b034 55bc
00000320: c9c8 c2bd c330 e9bc 6880 76bd 71fa adbd
00000330: 4a58 a53c 96a9 0f3d 03d5 12bd 2227 86bd
00000340: 5d0f 29bd 63d7 e6bd 190d c2bd ceda bb3d
00000350: 5702 443d 6ad5 db3c ffba bdbd 9363 6fbd
00000360: 5a03 9c3d 2c60 d6bd c1be 5fbd 2ac9 96bd
00000370: df63 dc3c c242 41bc 7ce3 5cbd 3024 9a3d
00000380: 4938 55bd 10c3 1c3c b98a fb3c c93e 2d3d
00000390: da84 973d 5224 a8bc 9c06 223d 63d8 e5bb
000003a0: efe4 5fbd 0a6e dcbd 567a 473d d017 d43c
000003b0: 4c10 ca3c 7af3 ddbb 473b cebc 0fd8 aebd
000003c0: 6976 853d 48a0 823d 45f9 413d b744 5fbd
000003d0: 19e9 a8bd 2ea5 d0bc 006e 91bd e774 2dbd
000003e0: 4fed 7e3d 1ecc 49bd c257 b43d 6180 36bd
000003f0: e39d 28bd ba14 91bd fce3 093d 9d0a 71bc
-0.013088546 -0.020477569 -0.06854308 -0.019561132 0.03963424 -0.08511509 0.033474546 0.084258415
0.038044695 0.04686049 -0.023922373 -0.007454576 -0.13290472 -0.042775195 0.022208396 -0.04902644
0.05211561 -0.042223793 0.0057268525 -0.04650902 -0.14980794 -0.033895127 -0.060112815 0.017234188
0.013918838 0.06560607 0.0461577 -0.084797375 0.034105312 0.042208176 -0.09393055 -0.14809519
-0.17135389 -0.043867957 -0.007132581 0.0868762 0.074382834 -0.022672985 0.006572604 0.004000649
0.008702645 -0.059951108 0.010837219 0.062256813 0.014470783 0.08073356 0.082090914 -0.14379148
0.07846915 -0.06977805 -0.041866727 0.05453242 0.0033685514 0.076331325 0.0411445 -0.018829526
0.03234213 -0.06343316 0.009113733 -0.046718664 0.06631421 0.09750329 0.034717534 -0.049415514
0.0064633703 0.060850978 -0.08331071 -0.017496023 0.0347704 -0.007686089 0.031944077 0.00024704376
-0.09082893 0.012831144 -0.00058892847 -0.06400682 -0.06571467 0.0063658073 -0.03441901 -0.0026798025
0.06531317 -0.04653747 0.04825727 0.061628148 0.048295982 -0.11526884 0.013303369 -0.06517506
-0.055957932 -0.107425794 0.076476894 0.049477734 0.02477318 0.05124473 -0.08441681 -0.08430339
0.036712427 -0.021043694 0.028885663 -0.06273128 0.08368598 -0.07285722 0.039042477 0.046565723
-0.16435525 0.020266997 0.04005132 -0.032620024 -0.030757867 0.06764269 -0.10439344 0.0058115865
0.041207284 0.03568168 -0.044259164 -0.0038467455 0.02680488 0.034328498 -0.041070703 0.039845597
-0.019164242 0.0026998622 0.045321696 0.06393893 -0.012001378 0.057446335 0.067997575 -0.0096172225
-0.0055750795 -0.06780386 -0.05928507 0.05091182 -0.05603643 -0.052045885 0.057255775 -0.049047552
-0.068367995 0.014293975 0.03814747 -0.08012215 -0.03549326 -0.06816221 0.03729152 -0.013182406
0.02974202 0.09387356 -0.04744724 -0.037104227 -0.030296851 0.02652926 -0.039499603 -0.06084293
-0.026911225 0.0347989 0.03735001 -0.10744295 0.07475791 -0.060037937 -0.025007196 -0.09589343
-0.12611416 0.07328248 -0.06779424 0.046472218 0.027778007 -0.045630418 0.07593907 -0.047963627
-0.0004963132 0.08368899 -0.08323623 0.07299489 -0.043618396 -0.07173933 0.049585957 -0.090023644
-0.07313574 -0.047446597 0.05909358 0.0809281 -0.006681048 0.045392122 0.0016760773 -0.066179916
-0.011186388 0.062937975 -0.015643138 -0.058889825 0.072553694 -0.018397529 0.07400541 0.050705224
0.015488983 0.02348162 -0.046570323 -0.03854748 -0.050175495 -0.034973558 -0.04944881 -0.01301305
-0.09510953 -0.028465634 -0.06018105 -0.084950335 0.020183701 0.03507384 -0.035847675 -0.06550433
-0.041274417 -0.112715505 -0.094751544 0.09172593 0.047853794 0.026835162 -0.09264182 -0.05844457
0.07617827 -0.10467562 -0.054625276 -0.07362588 0.026903091 -0.011795701 -0.053927884 0.075264335
-0.05205563 0.009567991 0.030705797 0.042296205 0.07398386 -0.020525131 0.039557084 -0.0070143207
-0.054661687 -0.10763176 0.048700653 0.025890261 0.024665974 -0.0067734094 -0.02517475 -0.08537304
0.065167256 0.063782275 0.047356863 -0.05450889 -0.08247585 -0.025469389 -0.07101059 -0.042347815
0.062238034 -0.049266927 0.08805801 -0.044556025 -0.041166198 -0.070840314 0.03366469 -0.014712003

fc3.bias f4 [13]
00000000: 3ddc 2a3d d6b4 8cbd c6de 30bc 3300 f53c
00000010: 3770 953c a580 a1bd 721b 99bd bcf7 d8bd
00000020: 1b7a b93c 38aa 7abd 90c0 95bc 1f6d 363d
00000030: 3703 e13c
0.04171394 -0.06870429 -0.010795301 0.029907322 0.018241985 -0.07885865 -0.07475938 -0.105941266
0.022641232 -0.06119749 -0.018280298 0.04453766 0.027467353
