models/model_episode_600.pth (torch, 77420 bytes, 6 tensors)

fc1.weight f4 [128, 3]
00000000: 573b d53e 457e ee3e c880 22be e11a fd3e
00000010: f8f7 e6bd d72c ef3d 2a6d 78be b283 bb3e
00000020: d4ab 093f 2ca6 e7be 1556 fc3e 77a4 a53d
00000030: 4d9e c53e 22bd ca3d f1b8 943e 17eb 02be
00000040: 497b e03e 3aa4 333d 19c7 8dbe 25fa 0f3e
00000050: fe31 88be 3caa 8abd 9e1f 70be 3c18 c43e
00000060: 0619 dcbe bed0 83be 383b 33be 3a6b c3be
00000070: 89c8 a93d de84 0dbf 9c9a 083f 0a45 ffbe
00000080: fa52 d63e b6c6 c43d adf7 3fbe 07ab b63e
00000090: ec1b 883d 5938 e83e 6c6f 693d 8663 46be
000000a0: e216 423e de57 00be 6dfb 693e e1a6 0a3f
000000b0: b0b4 a83e e15a 87be a69f b13e f883 053e
000000c0: 231e 963e f62b b4be 644f 12bf 0c4c 74be
000000d0: 14f3 e4be a73a f93e 00e8 183e d33e 823e
000000e0: cd53 343e a544 a5bc 8c31 fb3e 9ece d8be
000000f0: f7e5 143d dbc2 c9be bd4c 363e e299 4bbe
00000100: c527 353e 8358 f6bd c62b f53e 6534 afbe
00000110: 184c b0be a3b5 acbe 555b 183f 370c 613e
00000120: e638 0e3f 54f4 f3be d799 12bf f344 e7be
00000130: 61d9 c6be 6276 6f3e 7d4b 433e 5e4a f63e
00000140: dc62 9fbe 7321 93be 3a54 cc3e a4f0 4dbe
00000150: e363 983e 10f3 22be 7348 9b3e ed4f eabe
00000160: b0c2 99be 0af8 2a3e 1c43 e13d 941d d4bd
00000170: 3fe3 b33e 31f4 c83e 195d d6be 2fd0 9dbe
00000180: fa66 073f e1e7 48be ab5f 57be 1903 0fbf
00000190: 8148 a9be 83af 133e 0c12 9cbd 0693 d6be
000001a0: 51e2 5d3c d2eb c9be f4c9 fabe 18c7 a2be
000001b0: 995b 01bf ce38 bcbe 6dbe 133f c5b7 df3d
000001c0: 6b21 653e 30da 09bf 0025 c2be 5dc9 44be
000001d0: 32e5 b83d 18f4 d6be b76b 41be 44d3 babe
000001e0: 0323 c0bc 128f 64be 6b8c 6abd 424f c8be
000001f0: 94e6 cabe 9d74 acbe 585e 4abe 6650 e9be
00000200: c0da f73e 944d c5bd a808 0d3f 99b2 6c3e
00000210: 650f e0be f1ff e23e 9cb0 1dbe fb9f 62be
00000220: 215f f5be 48f0 12bf 6c08 013e 5ee8 e4bd
00000230: ea82 6b3e 58ad dbbe 5202 ed3e 8504 d9be
00000240: ec9a c8bd 16ae 183e 38d4 ae3e dee2 e43e
00000250: 6429 0e3f b10a e5be 91c9 143e 184b 7ebe
00000260: 1593 81bd b04e e6be 9398 0c3f 08c1 dcbe
00000270: 580e 863e 4dfe 4e3e be1b 3e3e 61bb b7be
00000280: 3e9f 003f 3bbf e53d 101b 983d 3d40 02bf
00000290: 872e 783e b3be aabd d3d3 89be 0fe6 013f
000002a0: 0ecf 033e e48c a3be c99d 95be 4202 b3bd
000002b0: 7535 ab3e d801 01be f1a9 a8be 5b74 4abe
000002c0: 7bd6 dcbe e2b7 643e 9a60 053f c940 05bf
000002d0: 3d62 053e 0c08 af3e c198 f93d 2405 6cbe
000002e0: ad91 9d3e 1546 9a3e 7a11 5d3e 7cc6 cfbd
000002f0: 628d 1cbe 3a56 4a3d 14bc 62bd f63b 0ebe
00000300: 9224 bb3e df47 0b3f 6807 96bc 8c5e 04be
00000310: 6f08 0a3c 1b33 0dbd 1b20 053e 350f 553e
00000320: 06c2 08bf bc41 55be f725 053f 60cb 873e
00000330: d13d ebbc 9038 b2be 04da b4be 3ba3 06bf
00000340: 02ad 4bbe 96e5 3c3e 4117 bc3e 6df3 9c3e
00000350: 612d fabe 0276 aabe 9266 26bd fc1a 163f
00000360: 820b ab3d f01a 19be 5997 743e af1d 59be
00000370: 251c a1be 9d1f df3e 4f69 86be d908 edbd
00000380: a208 13bf b383 bf3e 1fb1 f93e cf54 613e
00000390: d81d cebe 12df 11bf 3315 f0be 9f3c da3e
000003a0: d5ea a73e 2090 fb3e 176e 933e fcc6 3e3e
000003b0: 2939 f8bb e1ce e0be c443 fdbe ff3e 0abf
000003c0: b361 763e c41c 97be 2029 dabd 0c1f aabe
000003d0: ac76 d7bd 520e d0be e026 c1be 121c 443e
000003e0: 59b4 2fbe 1c7d b63e 0eaa 3dbe 4dd8 d8be
000003f0: 65c4 ffbd 4723 82be c4db 45be 379b 0cbf
0.41646835 0.4658071 -0.15869439 0.4943457 -0.11277765 0.116784744 -0.24260393 0.36623913
0.53777814 -0.45243967 0.49284425 0.0808801 0.38597336 0.098993555 0.2904735 -0.12784992
0.4384406 0.04385779 -0.27690962 0.14060266 -0.2660064 -0.06770751 -0.23449561 0.3829974
-0.4298784 -0.25745195 -0.17503059 -0.38167745 0.08290202 -0.55280864 0.53360915 -0.4985736
0.4186018 0.096082136 -0.18746825 0.35677359 0.06645951 0.4535549 0.056991026 -0.19373903
0.18954042 -0.12533519 0.22849818 0.54160887 0.32950354 -0.26436523 0.34692115 0.13038623
0.29319867 -0.3518979 -0.5715239 -0.23857135 -0.44716704 0.4867756 0.14932251 0.25438556
0.17610092 -0.020174334 0.4906124 -0.42345136 0.036352124 -0.39406475 0.17802711 -0.1988292
0.17690952 -0.12028601 0.4788496 -0.3421966 -0.34433055 -0.33732328 0.5951436 0.21977316
0.5555557 -0.47647345 -0.5726599 -0.45169792 -0.38837722 0.23385003 0.19071765 0.48103613
-0.3113011 -0.28736457 0.3990801 -0.20111328 0.29763708 -0.15913033 0.30328712 -0.45764104
-0.30031347 0.16696182 0.10999128 -0.10357204 0.35134313 0.39248803 -0.41867903 -0.30822894
0.52891505 -0.19619705 -0.21032588 -0.558641 -0.3306313 0.14422421 -0.0762063 -0.41909045
0.013542728 -0.3943773 -0.48982203 -0.3179252 -0.5053039 -0.3676209 0.5771244 0.10923723
0.22376029 -0.5384855 -0.37918854 -0.19217439 0.090280905 -0.41983104 -0.18888746 -0.36489308
-0.023454195 -0.22320202 -0.05726282 -0.3912297 -0.39629042 -0.3368272 -0.19762552 -0.45569152
0.4840908 -0.096339375 0.55091333 0.23115005 -0.43761745 0.44335893 -0.15399402 -0.2213134
-0.4792414 -0.5739789 0.12600869 -0.11177133 0.22999159 -0.42905688 0.46290833 -0.4238626
-0.09795174 0.14910159 0.34146285 0.44704336 0.5553191 -0.4473472 0.14530016 -0.24833333
-0.06326882 -0.4498191 0.5492031 -0.4311602 0.26182818 0.20214196 0.1856527 -0.35885146
0.50242984 0.11218115 0.07427037 -0.5087927 0.24236499 -0.08337154 -0.26919422 0.50741667
0.12871954 -0.3194343 -0.29221943 -0.08740665 0.33439222 -0.1259836 -0.32942155 -0.19770949
-0.43132386 0.2233577 0.5210053 -0.5205198 0.13025756 0.34185827 0.121873386 -0.23048836
0.30775204 0.30131593 0.21588698 -0.1014528 -0.15288308 0.04939864 -0.055355147 -0.13890061
0.36551338 0.5440654 -0.018314078 -0.12926692 0.008424862 -0.034472566 0.13000529 0.20806582
-0.53421056 -0.20825857 0.52011055 0.2652235 -0.028716 -0.3480878 -0.35322583 -0.5259282
-0.19890216 0.18446955 0.3673649 0.3065447 -0.48862746 -0.33293158 -0.040625162 0.58634925
0.08351804 -0.14951682 0.2388586 -0.2120273 -0.31466785 0.43578807 -0.2625222 -0.11573953
-0.5743505 0.37405166 0.48767945 0.22005008 -0.40257144 -0.56981003 -0.46891174 0.42624375
0.3279635 0.49133396 0.2879493 0.18630594 -0.0075751734 -0.43907836 -0.49465764 -0.54002374
0.24060707 -0.29514134 -0.10652375 -0.33226812 -0.10520682 -0.40635926 -0.37724972 0.19151333
-0.17158641 0.35642326 -0.18521902 -0.42352524 -0.12488631 -0.2541754 -0.19322115 -0.5492434

fc1.bias f4 [128]
00000000: 1f1d 01bc 9e92 083f 1be2 ecbe 3f40 6cbe
00000010: ece9 b33e caf1 0dbe 9880 ffbd f768 76be
00000020: 24c6 d03e 6eab 9c3e 2b2a 393e 4b1e a6be
00000030: bc9b f7be e8d4 be3d 69c1 453e fbcb 81be
00000040: 126b 25be caf9 c33e 5533 683d 1200 773d
00000050: 0c7f 11be 01d9 05bf bcf8 0abf 5575 51be
00000060: f242 96be 4c31 383e 8e05 2ebe 0975 07be
00000070: 2d61 063f 9aa7 443e 6902 e73e f81a 8fbe
00000080: e3d0 72be d94a 593e 02f4 c4be b23c c1be
00000090: d170 e4bc 17f0 2cbe f599 ddbe bbc7 ce3e
000000a0: 6fa0 e73e a6d0 bf3d b5df cdbd 6fa0 f6be
000000b0: f67e 29be 4183 163e 3777 903e 5f88 16bd
000000c0: feb1 4fbe 4b69 b13e 1d6b ebbe 0f32 c43e
000000d0: e091 6cbe 6ea9 88bc e4a9 e9bd 13f8 843d
000000e0: 66a9 32be 8772 d93e 46ea 75bc 9f3a 053f
000000f0: c452 183f c88a 8dbe 34a5 d7be 9a7a 013f
00000100: 09f9 fd3e 06b5 e1be 3d10 87bb 5346 09bf
00000110: 0afb f1be aedc ce3d 327f 433e 1fde 2e3e
00000120: d4e7 20be f56c 163f 1d0f a93d 3558 97be
00000130: c0e1 05bd 9450 3d3e f8c2 713e f503 d1be
00000140: 4ad4 533e b104 97be f5a0 f5be f375 a1be
00000150: f69a 133f f6ed 0d3f cac0 093f 1b6b af3e
00000160: c1c7 fc3e 0644 9ebd 32a6 a2be 1183 a93e
00000170: 502e 7fbe 1b7e c7be dbca 3cbe f023 f83d
00000180: a855 a13e 48a1 65be 6ffb adbe d67f 9f3d
00000190: 093d aebe b774 c0be b729 b03e 975a a1bd
000001a0: 12af 153f 75a8 173f 7677 513e 4ddc 7d3e
000001b0: 3125 083e 1e24 143c 6e99 433c 4fce 9e3d
000001c0: fe26 413e e010 073f 7237 19be 7ed3 71be
000001d0: 5e41 c5bd c37e a2be a206 d23d 7163 e73e
000001e0: 57ef f73e 1753 8a3e 378b d9be 8874 85be
000001f0: 15e5 01be 42ed eabd 4e54 c63c 7fad 07bf
-0.007880478 0.5334872 -0.46266255 -0.23071383 0.35139406 -0.13861766 -0.12475699 -0.24063478
0.4077617 0.3059954 0.18082492 -0.32444987 -0.48361003 0.093179524 0.19312061 -0.25350937
-0.16154125 0.3827651 0.05668958 0.0603028 -0.14208621 -0.52284247 -0.5428579 -0.20454915
-0.2934795 0.17987555 -0.16994306 -0.13228239 0.5249203 0.1920456 0.45119026 -0.27950263
-0.23712496 0.21219958 -0.38467413 -0.3774162 -0.027885826 -0.16888462 -0.43281522 0.40386757
0.4523959 0.093659684 -0.10052434 -0.48169276 -0.16552338 0.14698507 0.28215954 -0.036751147
-0.20282742 0.34650645 -0.45980158 0.38319442 -0.23102522 -0.016682353 -0.11409357 0.06492629
-0.17447433 0.4247019 -0.015009468 0.52042574 0.5950129 -0.27644944 -0.42118227 0.505777
0.4960406 -0.44083422 -0.004121809 -0.5362293 -0.4726184 0.10100685 0.1909149 0.1707692
-0.15713435 0.58760005 0.08254836 -0.29559484 -0.032685995 0.1848777 0.23609531 -0.4082333
0.2068645 -0.29495767 -0.47974363 -0.315353 0.57658327 0.55441225 0.538098 0.34261402
0.4937115 -0.07727818 -0.31767422 0.33107808 -0.2492001 -0.38963398 -0.18436758 0.121162295
0.31510663 -0.22424805 -0.3398089 0.07788055 -0.3403094 -0.37589046 0.34406826 -0.07878607
0.5847026 0.5924142 0.20455727 0.2479107 0.13295437 0.009041814 0.011938436 0.07754194
0.1886253 0.52760124 -0.14962557 -0.23615834 -0.096316084 -0.31737337 0.10255171 0.45193055
0.4842479 0.27016518 -0.42489025 -0.2606547 -0.12685044 -0.114710346 0.024210121 -0.5299911

fc2.weight f4 [128, 128]
00000000: 815d e13c 3818 8abd fa13 65bd 0e7f 96bd
00000010: c8b9 9d3d 176a abbd 128e 883d daba 42bb
00000020: 2c6b 28bc 8972 623d 77d9 05bc d50d 633d
00000030: 33e1 823d ae29 9dbd 834e 0b3d cbb0 883c
00000040: 63af 9b3c 0f6b 533c bd0e c63c 302a 2ebd
00000050: 4f47 39bc 76fd ab3d 493c 733d a59e 59bb
00000060: 1841 aabd a8e0 7d3b eb89 76bd 1134 933d
00000070: 03ca 5bbd 421e d1bb 22b4 a0bc 33da 803c
00000080: 1d58 aa3d 3f9a 093c 06ae 513d d982 8c3d
00000090: 9123 923d a80f fabc d9f1 a1bc e87a 2e3d
000000a0: ca93 c5bc 9887 293d 0130 9ebc b78d 75bd
000000b0: 8d5d 133d 3b07 5e3c 126a 213d 16d7 b33d
000000c0: fc2c 773d 589a ab3d c704 9b3b 11b7 9bbd
000000d0: e0fa 7dbd 90e3 60bd e385 9fbd 9278 35bd
000000e0: fca3 a6bd de02 a7bd 7e56 58bd 7a74 b2bd
000000f0: 4e39 5ebd 690c 0a3d ccfa 963d d762 d7bc
00000100: 659e d2bc ce4f 413d 8d9e 32bd 052f 2bbd
00000110: 0e10 5f3d f2b8 9dbd a012 313c c2e8 9f3d
00000120: c756 783c 89e8 c43c 1ed9 52bd 26d6 9fba
00000130: 8240 9f3b a1b6 b13c 2eab 0c3d f14a 9d3d
00000140: 062c 8abd ada2 2d3b 3de3 34bd a732 8fbd
00000150: fded e7bb 0357 9fbd a0aa 7c3d beb7 273c
00000160: a81f 43bd 9f31 3d3d 5f52 abbd 4909 0cbd
00000170: 5710 8dbc 3cd2 99bd 5737 66bd a55d 6cbc
00000180: df59 893d 56cd ae3d 025a 663d 962e 58bd
00000190: 76da 6cbd 6ef9 9d3d 340f 003d 84e5 193b
000001a0: 59fb 433c 127c 91bd 45c2 f1bc a340 ae3d
000001b0: af94 b2bc 6f4a 91bb 554e 96bd ea86 4abd
000001c0: de90 ecba 3ce2 60bd c995 33bc c055 133d
000001d0: aa11 b1bd 4a0f d73c 0762 6fbd 80b1 30bd
000001e0: 7bfd 0a3d a0ee 8f3d 87e5 c5bc 52a4 14bd
000001f0: 26af a3bd 22b0 3abd d981 9ebd 4fb8 a5bc
00000200: 6765 803c b387 aebd e90c 9e3d e18b 5a3d
00000210: 1415 b6bd 2153 36bd 471d f43c c5c4 94bc
00000220: bc2d 40bc e58d 2cbd f565 913d 0461 4abd
00000230: 24eb 9c3d 92dd 5d3b 56c6 7c3c c527 8a3d
00000240: 279b 6ebc d21f 4ebd 6317 88bc aa12 8e3d
00000250: 6650 86bd f559 a43c 7de7 b1bd 5ec9 343d
00000260: f9c2 053d ea8f 753b d9a5 113d 08f5 f0ba
00000270: 75a7 3e3d 724c 8fbd 563f 7cbc 0b9b 203d
00000280: 1943 b43d 5d6b 383d f4a1 83bd ae38 8b3d
00000290: ce77 a1bc d999 9abc bd87 a4bd 9a56 7bbc
000002a0: 0383 763d 0cf0 493c f0de 52bd 38e1 de3c
000002b0: ce10 f9bc 0345 a53d 57ec a1bd a4e8 f6bc
000002c0: 98c9 aebd 9641 18bd 8143 e43c e09b a93d
000002d0: af91 fa3b d7d8 ac3d d2aa 8d3c 2217 513d
000002e0: ca1d 913d 24a1 923d 42a4 4abd 89a7 a13d
000002f0: bdc4 513d 860f 2fbd 1dc4 2cbd 0aaa 9cbd
00000300: 0793 a23c 9fb9 92bd 05a4 0f3d 75a9 e43c
00000310: 1e45 9dbd cc4f c53c fd76 1cbc cd0b 2e3d
00000320: e9bb 4f3d 105d b8bd 3c03 a63d b585 923d
00000330: 9d0c 103d b161 aabd 3f33 0bbd 13d8 d1bc
00000340: 1d16 babc 7729 4c3d 69a0 033d 5566 8f3d
00000350: b82c 11bd 4827 e13c 4256 ee3c a667 9bbd
00000360: f45c b4bd a0db 3bbd 2dd5 773d 353d afbd
00000370: bb90 9dbd 74d0 4a3d 9254 433d 75de 943d
00000380: 669d 8dbd ee7c 84bd 94b8 393d 7d6b 9d3d
00000390: 2e9f 583d 41db 623c 0a07 dc3c 4f1b a73d
000003a0: 3de3 72bd 2df6 2dbd f1de 733d fd9f 80bd
000003b0: f7a1 47bd 7b24 843d 099d ce3c 938b d83c
000003c0: aecb 22bd 98a4 65bb c1ac a53d 9c5e 62bd
000003d0: d02b 363a 3341 223d 49b3 80bd d6e1 aa3d
000003e0: a6a3 3dbd 4ce8 c0bc efe9 c3bc 565e 75bd
000003f0: bca0 b1bd d622 4c3d 5d5e c03c f88a a9bd
0.027510406 -0.067429006 -0.055927254 -0.073484525 0.077014506 -0.083698444 0.06667723 -0.0029713423
-0.010279458 0.05528501 -0.008169523 0.055433113 0.063906096 -0.076739654 0.03401042 0.016685864
0.01900453 0.012903943 0.02417695 -0.042520702 -0.011308505 0.08397953 0.059383664 -0.0033206132
-0.08313197 0.0038738642 -0.060190123 0.07187665 -0.05365945 -0.006381781 -0.019617144 0.015729045
0.083175875 0.008398592 0.051191352 0.06860895 0.0713569 -0.030525044 -0.019768642 0.04259768
-0.024118323 0.041389078 -0.01931 -0.059949603 0.03597789 0.013551529 0.039407797 0.08781259
0.060345635 0.08379048 0.004730794 -0.076032765 -0.06200683 -0.05490452 -0.07789209 -0.044304438
-0.08136746 -0.08154844 -0.05281686 -0.087136224 -0.05425387 0.03370324 0.073720545 -0.026292248
-0.025710294 0.04719525 -0.043608237 -0.04179289 0.05445867 -0.07701291 0.010807663 0.07808067
0.015157408 0.024036663 -0.05147659 -0.0012194559 0.004859985 0.02169353 0.034342937 0.076803096
-0.06746678 0.0026494667 -0.044162024 -0.06992083 -0.007077931 -0.07780268 0.06168616 0.010236679
-0.04763761 0.0461899 -0.083653204 -0.034188543 -0.017219706 -0.07510802 -0.05620512 -0.0144266235
0.06706595 0.085352585 0.056238182 -0.052778803 -0.057825528 0.077135906 0.0312645 0.002348275
0.011961781 -0.07103743 -0.02951158 0.08508422 -0.021799413 -0.004433922 -0.073391594 -0.04944507
-0.0018048545 -0.054903254 -0.0109610045 0.03597045 -0.08645947 0.026252408 -0.058443096 -0.043138027
0.033933144 0.07027936 -0.024157299 -0.03628952 -0.07992391 -0.04557813 -0.0773961 -0.020229487
0.015673352 -0.08521976 0.07717306 0.053356055 -0.08890739 -0.04451287 0.029799117 -0.018160233
-0.011729654 -0.04212751 0.07099525 -0.049408928 0.07662037 0.003385399 0.015428146 0.06745867
-0.014563358 -0.050323315 -0.016612714 0.06937154 -0.065583035 0.020062426 -0.08686731 0.04413735
0.032656644 0.0037469813 0.035558555 -0.0018383572 0.04654642 -0.06997003 -0.01539596 0.03921036
0.0880186 0.045024265 -0.064273745 0.0679792 -0.019710448 -0.018872188 -0.080337025 -0.015340472
0.060183536 0.012325298 -0.05148214 0.027207002 -0.03040352 0.080698036 -0.079064064 -0.030140229
-0.08534545 -0.037171923 0.02786422 0.08281684 0.0076467614 0.084397964 0.017293368 0.05104745
0.0708576 0.071596414 -0.049473055 0.07893283 0.051213015 -0.042739414 -0.042179216 -0.0764962
0.019845499 -0.07164311 0.03506853 0.027912835 -0.07679199 0.024085902 -0.009549853 0.042491723
0.050716314 -0.09002125 0.08106086 0.07154409 0.03516828 -0.083194144 -0.03398442 -0.025615728
-0.022715623 0.04984423 0.0321354 0.0700194 -0.035443038 0.027484551 0.029093865 -0.07588129
-0.08806792 -0.045863748 0.060506035 -0.08556596 -0.07693621 0.049515203 0.047688074 0.07268993
-0.06914787 -0.06469141 0.045342043 0.076865174 0.05288618 0.0138462195 0.026858825 0.081595056
-0.059298743 -0.0424711 0.059538785 -0.06280515 -0.048738446 0.064522706 0.025221365 0.026433742
-0.039745025 -0.0035040732 0.08089591 -0.055266008 0.00069492776 0.03961296 -0.06284196 0.08343856
-0.046298645 -0.023548268 -0.02391526 -0.05990442 -0.08673236 0.04983791 0.023482496 -0.08278459

fc2.bias f4 [128]
00000000: 354a 9abd 793b 9b3d 8864 a0bd 5225 1abd
00000010: 6269 b9bc 3b5b 89bc d4ee 9dbc ed20 753d
00000020: f870 873d 41a8 b5bd 9ff2 a7bd 3a26 b1bd
00000030: 93ea e43d e7a3 2fbc 7b34 33bd 70d2 cebc
00000040: 6e45 3d3c 3f16 923c f661 2b3d 437b 833d
00000050: cc14 ef3d 3d5c 71bd 1116 99bb 0c19 87bd
00000060: f5a0 02bd 461f 59bc f903 4b3d 48ff 183c
00000070: 8a1c 4cbd 0f6e debc ec99 083d ef48 883d
00000080: 0eb4 de3d af82 b4bd d857 df3c 90a9 3c3d
00000090: b0c3 433d bc35 b0bd fa24 87bd cb83 e13c
000000a0: db16 20bc 2db6 0f3d 97a3 933d f069 3e3b
000000b0: e6c0 d4bc 5362 453d 6c9a 8dbd a385 d8ba
000000c0: 4061 5bbc 2f3d adbc 8cac 313d 5ef4 babc
000000d0: 3117 413b 74ac cd3c 8617 2cbc 64d1 e8bc
000000e0: eec2 ba3d 24c2 493d 5685 9abc 43e1 47bc
000000f0: 7b63 1ebd 1441 363d b081 313d 4937 19bd
00000100: 7748 913d 49a0 2abc e526 8e3c 8641 febb
00000110: 2217 2eba a151 97bc 3080 2f3c 7b2a acbd
00000120: 00d5 be3c e58b 8dbd 0733 a8bd fdaf c1bd
00000130: 0bf9 bcbc 89c7 c43c 463a 173c 7174 aa3c
00000140: 2d68 3fbd f1a1 98bc 8557 dbbc 3021 8fbd
00000150: 9289 9fbc b89a 3d3d 372b 393d eb6c a4bd
00000160: e11e 993d e36d 0d3e a140 24bd 6c2f 9abd
00000170: 9673 533c 1f5d a33c fd97 c1bc 5d51 26bd
00000180: 00fe 58bb 7138 79bd 1afc 74bd aea2 e73c
00000190: 36c3 233c a228 a53c f3c9 8c3d c18f 61ba
000001a0: c36f 3c3d 3808 973d dc3b 7bbd 26b1 503d
000001b0: 039e 453d 7a43 0abd da5f 073e 95fb 25bd
000001c0: 5235 69bd 87cf 6c3d 26f2 273d d79e 6c3d
000001d0: 0efe 8ebd 55b1 243d f4c7 b13c 0a21 58bd
000001e0: 38d2 42bc 269d a83d 7ddf 183d 0777 26bd
000001f0: 64f6 77ba 94ec ffbc 2df7 6e3d 1b72 523d
-0.07533685 0.07579703 -0.07831675 -0.037633248 -0.022633258 -0.016767135 -0.019278921 0.059845854
0.06613344 -0.088699825 -0.08200573 -0.08649869 0.11177554 -0.01072023 -0.04375122 -0.025246829
0.011552198 0.017832873 0.04184147 0.06419995 0.116738886 -0.058925856 -0.00467182 -0.06596574
-0.03189178 -0.013252085 0.049564335 0.009338208 -0.049831904 -0.02715209 0.033349916 0.06654536
0.108741865 -0.088139884 0.027263567 0.046060145 0.047794044 -0.08603999 -0.065988496 0.027528664
-0.009771074 0.035085846 0.07208937 0.0029054843 -0.025970887 0.048189472 -0.06914219 -0.0016519319
-0.013389885 -0.021147339 0.043377444 -0.022821601 0.0029463286 0.025106646 -0.010503655 -0.028420158
0.09119211 0.049257413 -0.018862408 -0.012199703 -0.03866909 0.044495657 0.04333657 -0.03740624
0.070939 -0.0104141915 0.01735253 -0.007759276 -0.00066410203 -0.01847154 0.010711715 -0.0840654
0.023294926 -0.069114484 -0.08212858 -0.09457395 -0.023067972 0.024020927 0.009230202 0.020807477
-0.04673021 -0.018631907 -0.026775131 -0.06988752 -0.019474778 0.04629013 0.04520723 -0.08028587
0.07476593 0.1381145 -0.040100697 -0.07528576 0.012905976 0.019941865 -0.023632044 -0.040604938
-0.003311038 -0.060844842 -0.059810735 0.028275814 0.009995272 0.020160977 0.06874456 -0.000860449
0.04600502 0.073746145 -0.061336383 0.050950192 0.048246395 -0.033755757 0.13220158 -0.04052313
-0.056935616 0.0578151 0.041002415 0.05776867 -0.06982051 0.04020818 0.02170179 -0.052765884
-0.01189094 0.08233099 0.03732251 -0.040640857 -0.00094590173 -0.031240739 0.058341194 0.05137835

fc3.weight f4 [13, 128]
00000000: 5771 56bc 93c0 a7bc 5060 8cbd ab3e a0bc
00000010: 8357 223d d250 aebd 9b1c 093d ad8f ac3d
00000020: c1d4 1b3d c9f0 3f3d daf8 c3bc 8445 f4bb
00000030: dafa e9bd 0b35 2fbd 62ee b53c 66ff cabc
00000040: 2e77 553d dbf2 2cbd a702 793c 3e80 3ebd
00000050: d43b 04be 9ed5 0abd db38 76bd b62e 8d3c
00000060: d70b 643c 7a5c 863d db0f 3d3d e016 6fbd
00000070: 03b2 0b3d 7be2 2c3d a95e c0bd 68d2 fbbd
00000080: 7c68 14be e3ae 33bd 66f7 9fbb 26ec b13d
00000090: f35c 983d b2bc b9bc 005f d73b 168e ad3c
000000a0: 8a95 0e3c 4b8f 75bd 978e 313c 61d7 7a3d
000000b0: dd16 6d3c a357 a53d 481f a83d 1e33 fdbd
000000c0: 6fb4 a03d cbe7 8ebd c273 28bd 635d 5f3d
000000d0: eac2 5c3b 9953 9c3d 9e30 3b3d 6140 9abc
000000e0: f454 3f3d 3fe9 81bd c451 153c 7891 cebc
000000f0: bfcf 873d bcaf c73d f933 0e3d ec67 4abd
00000100: 8bb8 a13c e03e 793d b417 73bd 094a 12ba
00000110: 686b 0e3d 96db fbbb e0db 023d a785 8139
00000120: 929d 8fbd b839 523c 5262 1aba 0216 83bd
00000130: 6a95 86bd 5654 2c3c f3fa 0cbd dcab 0d3b
00000140: e9c2 853d b76a b5bc 6aa9 453d cc6d 7c3d
00000150: 02d2 453d 6e13 cbbd 9518 073d 807a 85bd
00000160: 2534 65bd 1c17 acbd eb9f 9c3d 2aa9 4a3d
00000170: 20f1 ca3c fee5 513d b8e2 acbd 41a7 acbd
00000180: c55f 163d d363 acbc a0a1 ec3c 4279 80bd
00000190: 8e63 ab3d 2b36 95bd 01eb 1f3d b3bb 3e3d
000001a0: c1ee 04be e647 183d da0c 243d 939c 05bd
000001b0: ecf7 fbbc 4088 8a3d b04a aebd 1f6f be3b
000001c0: f8c8 283d f426 123d 1949 35bd f519 6d3c
000001d0: e895 db3c 0a9c 0c3d c139 28bd 2335 233d
000001e0: 54fe 9cbc d55e 883c 3ea3 393d 6af2 823d
000001f0: 6ea1 44bc d94c 6b3d 5042 8b3d ca2c d13b
00000200: 28af b6bb c0dc 8abd e7d4 72bd ea88 503d
00000210: 7586 65bd 112e 55bd 0885 6a3d 16e6 48bd
00000220: 8504 8cbd 4731 6a3c 8640 1c3d 1517 a4bd
00000230: f255 3cbc a198 8bbd febe 183d 8694 803c
00000240: 89a5 f33c c840 c03d 426a e0bc 9afa 17bd
00000250: e091 03bc e453 d93c 56ca 21bd 7036 79bd
00000260: ee74 dcbc 4b89 0e3d 53fc 183d dcce a0bd
00000270: ad1a 993d 57ea 75bd e4db ccbc 64d2 89bd
00000280: ac2e c7bd 2015 963d 7b26 7dbd a759 3e3d
00000290: 46c7 e33c f6e6 3abd f185 9b3d 761b d1bc
000002a0: 041b 02ba 2265 ab3d c277 aabd 4997 973d
000002b0: 34a9 32bd 12ec 92bd a51a 4b3d f2e0 8abd
000002c0: 31c8 95bd 5d57 42bd aa5b 713d a2bd a53d
000002d0: b1ec dabb 17ed 393d f2e8 133c 5689 87bd
000002e0: eb8f 113c a0e5 803d 0a26 80bc 2273 08bd
000002f0: 0897 943d 02b7 96bc 2690 973d 48b0 4f3d
00000300: 797e 093d 875c c03c 29bf 8ebc 3aa3 93bc
00000310: d284 4dbd 6f40 0fbd fa82 4abd b034 55bc
00000320: 80c0 8cbd c330 e9bc 6880 76bd 71fa adbd
00000330: 4a58 a53c 9309 383d 03d5 12bd 0f3f 6fbd
00000340: 5d0f 29bd 1a36 b1bd 190d c2bd ceda bb3d
00000350: 5702 443d ef9e 3e3d 8cab 89bd 9363 6fbd
00000360: 5a03 9c3d f828 9fbd c1be 5fbd 2ac9 96bd
00000370: df63 dc3c c242 41bc 7ce3 5cbd 3024 9a3d
00000380: 4938 55bd 10c3 1c3c b98a fb3c c93e 2d3d
00000390: da84 973d 5224 a8bc 9c06 223d 63d8 e5bb
000003a0: 02c4 bfbc df0b aebd 567a 473d d017 d43c
000003b0: 4c10 ca3c 7af3 ddbb 82e6 22bb 0fd8 aebd
000003c0: 6976 853d 48a0 823d 45f9 413d 69c1 ffbc
000003d0: 19e9 a8bd 2ea5 d0bc 006e 91bd e774 2dbd
000003e0: 4fed 7e3d c809 fabc c257 b43d 6180 36bd
000003f0: e39d 28bd ba14 91bd fce3 093d ebb4 513c
-0.013088546 -0.020477569 -0.06854308 -0.019561132 0.03963424 -0.08511509 0.033474546 0.084258415
0.038044695 0.04686049 -0.023922373 -0.007454576 -0.11424799 -0.042775195 0.022208396 -0.024779987
0.05211561 -0.042223793 0.015198386 -0.04650902 -0.12913448 -0.033895127 -0.060112815 0.017234188
0.013918838 0.06560607 0.0461577 -0.058371425 0.034105312 0.042208176 -0.09393055 -0.12295991
-0.14492983 -0.043867957 -0.004881787 0.0868762 0.07439604 -0.022672985 0.006572604 0.021185916
0.008702645 -0.059951108 0.010837219 0.061240558 0.014470783 0.08073356 0.082090914 -0.123632655
0.07846915 -0.06977805 -0.04112602 0.05453242 0.0033685514 0.076331325 0.04570066 -0.018829526
0.046711877 -0.06343316 0.009113733 -0.02521585 0.06631421 0.097503155 0.034717534 -0.049415514
0.019741317 0.060850978 -0.059348777 -0.000558049 0.0347704 -0.007686089 0.03194797 0.00024704376
-0.07012476 0.012831144 -0.00058892847 -0.06400682 -0.06571467 0.010518154 -0.03441901 0.0021617329
0.06531317 -0.022145612 0.04825727 0.061628148 0.048295982 -0.09915815 0.032982428 -0.06517506
-0.055957932 -0.08402845 0.076476894 0.049477734 0.02477318 0.05124473 -0.08441681 -0.08430339
0.036712427 -0.021043694 0.028885663 -0.06273128 0.08368598 -0.07285722 0.039042477 0.046565723
-0.12981702 0.037177943 0.04005132 -0.032620024 -0.030757867 0.06764269 -0.08510339 0.0058115865
0.041207284 0.03568168 -0.044259164 0.014471521 0.02680488 0.034328498 -0.041070703 0.039845597
-0.019164242 0.016646782 0.045321696 0.06393893 -0.012001378 0.057446335 0.067997575 0.006383513
-0.0055750795 -0.06780386 -0.05928507 0.05091182 -0.05603643 -0.052045885 0.057255775 -0.049047552
-0.068367995 0.014293975 0.03814747 -0.08012215 -0.0114951 -0.06816221 0.03729152 0.015695821
0.02974202 0.09387356 -0.027394418 -0.037104227 -0.008030385 0.02652926 -0.039499603 -0.06084293
-0.026911225 0.0347989 0.03735001 -0.07851955 0.07475791 -0.060037937 -0.025007196 -0.06729582
-0.09725699 0.07328248 -0.061804276 0.046472218 0.027804982 -0.045630418 0.07593907 -0.02552579
-0.0004963132 0.08368899 -0.08323623 0.07401902 -0.043618396 -0.07173933 0.049585957 -0.06781186
-0.07313574 -0.047446597 0.05892531 0.0809281 -0.006681048 0.045392122 0.009027706 -0.066179916
0.00888441 0.062937975 -0.015643138 -0.033312924 0.072553694 -0.018397812 0.07400541 0.050705224
0.03356788 0.02348162 -0.017425137 -0.018022168 -0.050175495 -0.034973558 -0.049441315 -0.01301305
-0.06872654 -0.028465634 -0.06018105 -0.084950335 0.020183701 0.044931006 -0.035847675 -0.058409747
-0.041274417 -0.08652897 -0.094751544 0.09172593 0.047853794 0.04653829 -0.06722173 -0.05844457
0.07617827 -0.07771486 -0.054625276 -0.07362588 0.026903091 -0.011795701 -0.053927884 0.075264335
-0.05205563 0.009567991 0.030705797 0.042296205 0.07398386 -0.020525131 0.039557084 -0.0070143207
-0.023408893 -0.08498358 0.048700653 0.025890261 0.024665974 -0.0067734094 -0.0024856632 -0.08537304
0.065167256 0.063782275 0.047356863 -0.031220155 -0.08247585 -0.025469389 -0.07101059 -0.042347815
0.062238034 -0.030522242 0.08805801 -0.044556025 -0.041166198 -0.070840314 0.03366469 0.012799482

fc3.bias f4 [13]
00000000: b88e 4a3d 3aba 61bd 481b 18bc 7c44 2b3d
00000010: e61f 193d f956 a0bd 3d42 9ebd ec5c cabd
00000020: 914d d53c 56bf ffbc 0d6e c23b d737 aabc
00000030: 0e98 873c
0.049452513 -0.05510924 -0.009283848 0.04181336 0.037383936 -0.07829089 -0.07727478 -0.09881005
0.026037963 -0.031219166 0.005933529 -0.02077858 0.016551998
