models/model_episode_800.pth (torch, 77420 bytes, 6 tensors)

fc1.weight f4 [128, 3]
000000 a2 ea d2 3e e0 d7 f2 3e be e8 28 be 3b 5f fd 3e
       0.41194636 0.47430325 -0.16495034 0.49486718
000010 63 02 ce bd ea f1 ed 3d b0 c6 7d be 12 de bc 3e
       -0.10059049 0.11618407 -0.24782825 0.36888176
000020 75 cc 08 3f 7a 63 e6 be e4 2c 03 3f 0c 8b 98 3d
       0.53436977 -0.4499777 0.5124037 0.07448396
000030 28 a6 c3 3e e7 d2 e0 3d 2f 99 93 3e b2 99 00 be
       0.38212705 0.109777264 0.28827807 -0.1255863
000040 cd 79 e8 3e 13 b6 2a 3d 19 c7 8d be 25 fa 0f 3e
       0.45405427 0.041677546 -0.27690962 0.14060266
000050 fe 31 88 be 3c aa 8a bd 9e 1f 70 be 3c 18 c4 3e
       -0.2660064 -0.06770751 -0.23449561 0.3829974
000060 e1 10 ce be ab 6b 69 be ed de 2a be a7 e8 c4 be
       -0.40247253 -0.22794978 -0.16686602 -0.3845875
000070 38 f4 da 3d 5e a2 0b bf d0 c8 0b 3f 62 69 f5 be
       0.10691112 -0.5454463 0.5460329 -0.47931963
000080 d4 5e dd 3e b6 c6 c4 3d ad f7 3f be 07 ab b6 3e
       0.4323641 0.096082136 -0.18746825 0.35677359
000090 05 9a 89 3d 30 6a e9 3e 55 0c 77 3d 06 18 42 be
       0.0671883 0.45588827 0.060314495 -0.18954477
0000a0 f5 5b 55 3e 4d 6e 00 be 85 f6 69 3e d8 91 0e 3f
       0.2083586 -0.12542076 0.22847946 0.5569129
0000b0 b9 c6 a8 3e ff 3b 8e be 5a 4e b7 3e c6 fd fa 3d
       0.32964113 -0.27780148 0.35801965 0.12255435
0000c0 23 1e 96 3e f6 2b b4 be 64 4f 12 bf bb 39 74 be
       0.29319867 -0.3518979 -0.5715239 -0.23850147
0000d0 98 90 e4 be dd 56 f8 3e 3a b0 15 3e 50 f6 87 3e
       -0.44641566 0.4850377 0.14618006 0.2655511
0000e0 fc 9c 2f 3e 64 cd a0 bc 98 e8 00 3f 54 16 db be
       0.17149729 -0.019629188 0.5035491 -0.42790473
0000f0 f7 e5 14 3d db c2 c9 be bd 4c 36 3e e2 99 4b be
       0.036352124 -0.39406475 0.17802711 -0.1988292
000100 c5 27 35 3e 83 58 f6 bd c6 2b f5 3e 65 34 af be
       0.17690952 -0.12028601 0.4788496 -0.3421966
000110 18 4c b0 be ca 19 a7 be cb ad 1d 3f 37 29 62 3e
       -0.34433055 -0.32636863 0.6159331 0.22086035
000120 e6 38 0e 3f 54 f4 f3 be d7 99 12 bf f3 44 e7 be
       0.5555557 -0.47647345 -0.5726599 -0.45169792
000130 61 d9 c6 be 62 76 6f 3e 0e f3 3b 3e 1e 7d fd 3e
       -0.38837722 0.23385003 0.18354437 0.4950952
000140 74 be a1 be 5f 25 96 be 7b 20 d6 3e e9 a4 4f be
       -0.31590617 -0.29325387 0.41821656 -0.20277752
000150 98 15 98 3e 12 0f 16 be dc c7 9a 3e ed 4f ea be
       0.29703975 -0.14654186 0.30230606 -0.45764104
000160 b0 c2 99 be 0a f8 2a 3e 4e 1f e6 3d 0e 11 b8 bd
       -0.30031347 0.16696182 0.1123644 -0.08987628
000170 ce d7 b2 3e 31 f4 c8 3e 19 5d d6 be 2f d0 9d be
       0.3493027 0.39248803 -0.41867903 -0.30822894
000180 11 c3 05 3f 13 0a 4f be 25 f6 54 be 19 03 0f bf
       0.5225077 -0.20218687 -0.20797022 -0.558641
000190 81 48 a9 be 83 af 13 3e 0c 12 9c bd 06 93 d6 be
       -0.3306313 0.14422421 -0.0762063 -0.41909045
0001a0 51 e2 5d 3c d2 eb c9 be f4 c9 fa be 18 c7 a2 be
       0.013542728 -0.3943773 -0.48982203 -0.3179252
0001b0 99 5b 01 bf ce 38 bc be 6d be 13 3f 02 f2 cb 3d
       -0.5053039 -0.3676209 0.5771244 0.09958269
0001c0 08 6d 77 3e 30 da 09 bf 00 25 c2 be 5d c9 44 be
       0.24162686 -0.5384855 -0.37918854 -0.19217439
0001d0 32 e5 b8 3d 69 cc c9 be 19 ac 0f be 86 ca a8 be
       0.090280905 -0.39413765 -0.14030494 -0.32967013
0001e0 61 34 bf bc 22 fd 55 be 26 6d 6a bd 42 4f c8 be
       -0.023340406 -0.20897344 -0.057233 -0.3912297
0001f0 94 e6 ca be 9d 74 ac be 58 5e 4a be 66 50 e9 be
       -0.39629042 -0.3368272 -0.19762552 -0.45569152
000200 c0 da f7 3e 9e 8c de bd 75 42 0f 3f b0 9f 64 3e
       0.4840908 -0.10866664 0.5596078 0.22326541
000210 ea 99 d2 be ce b0 ef 3e 9b dd 1c be fb 9f 62 be
       -0.41133052 0.4681458 -0.15318911 -0.2213134
000220 21 5f f5 be 48 f0 12 bf 52 77 01 3e d5 40 ca bd
       -0.4792414 -0.5739789 0.12643173 -0.09875647
000230 02 72 6a 3e 22 49 d8 be 68 37 fa 3e 9a 25 d8 be
       0.22895053 -0.42243296 0.48870397 -0.42216188
000240 e8 93 d5 bd 2c c9 14 3e 9b 8f ab 3e 25 67 e2 3e
       -0.104286015 0.14529866 0.33508 0.44219318
000250 78 32 11 3f 63 eb e6 be 91 c9 14 3e 18 4b 7e be
       0.56717634 -0.4510146 0.14530016 -0.24833333
000260 15 93 81 bd d5 e2 e5 be 14 f7 10 3f 9f 4d dd be
       -0.06326882 -0.44899622 0.5662701 -0.43223283
000270 a6 90 88 3e 87 b3 52 3e b1 cf 3f 3e cd ca b7 be
       0.26672858 0.20576297 0.18731572 -0.35896912
000280 86 e9 04 3f c9 fd e2 3d 10 1b 98 3d 3d 40 02 bf
       0.5191883 0.11083562 0.07427037 -0.5087927
000290 87 2e 78 3e d3 52 b2 bd 38 8d 8b be 22 c4 00 3f
       0.24236499 -0.08707204 -0.2725618 0.50299275
0002a0 0e cf 03 3e e4 8c a3 be c9 9d 95 be 37 c4 b2 bd
       0.12871954 -0.3194343 -0.29221943 -0.08728831
0002b0 b5 18 b3 3e 40 3b 00 be f1 a9 a8 be 5b 74 4a be
       0.34979787 -0.12522602 -0.32942155 -0.19770949
0002c0 7b d6 dc be 83 9e 65 3e 90 37 09 3f f7 66 05 bf
       -0.43132386 0.22423749 0.53600407 -0.52110237
0002d0 d7 51 02 3e a7 8c b4 3e 74 ab f0 3d be 5e 6b be
       0.12726532 0.3526356 0.11751452 -0.2298536
0002e0 24 94 a3 3e 49 67 99 3e 7a 11 5d 3e 7c c6 cf bd
       0.3194896 0.29961613 0.21588698 -0.1014528
0002f0 62 8d 1c be e2 02 49 3d 24 7f 24 bd 16 1d 0f be
       -0.15288308 0.049075015 -0.040160313 -0.13975939
000300 9f 84 ba 3e 86 d0 0e 3f e2 99 9f bc 8c 5e 04 be
       0.36429307 0.5578693 -0.019482557 -0.12926692
000310 6f 08 0a 3c 1b 33 0d bd 72 2e 03 3e 15 1d 6b 3e
       0.008424862 -0.034472566 0.12810686 0.22960313
000320 22 07 06 bf 9e f4 56 be b1 a6 06 3f f8 45 88 3e
       -0.52354634 -0.20991752 0.525981 0.26615882
000330 d1 3d eb bc 90 38 b2 be 04 da b4 be 3b a3 06 bf
       -0.028716 -0.3480878 -0.35322583 -0.5259282
000340 02 ad 4b be 96 e5 3c 3e 00 2d bd 3e 73 4a a5 3e
       -0.19890216 0.18446955 0.36948395 0.32283363
000350 2b ad fa be 58 f7 a7 be b0 48 dd bc bb 6f 15 3f
       -0.48960242 -0.32805896 -0.0270122 0.5837361
000360 82 0b ab 3d f0 1a 19 be 59 97 74 3e 2a 19 57 be
       0.08351804 -0.14951682 0.2388586 -0.21005693
000370 bf c8 98 be 32 f9 df 3e 4f 69 86 be d9 08 ed bd
       -0.29840657 0.43744808 -0.2625222 -0.11573953
000380 a2 08 13 bf dc de c0 3e 20 6d 00 3f 63 c2 60 3e
       -0.5743505 0.37670028 0.5016651 0.21949153
000390 d8 1d ce be 12 df 11 bf 33 15 f0 be a2 43 d9 3e
       -0.40257144 -0.56981003 -0.46891174 0.42434412
0003a0 de 23 ad 3e 78 75 f9 3e d8 6c 93 3e 77 c0 4c 3e
       0.33816427 0.48722434 0.2879398 0.19995295
0003b0 72 fc 17 bc e1 ce e0 be c4 43 fd be ff 3e 0a bf
       -0.009276496 -0.43907836 -0.49465764 -0.54002374
0003c0 f2 f8 6e 3e 91 ab 9b be 09 64 eb bd 0c 1f aa be
       0.23337153 -0.30404332 -0.114936896 -0.33226812
0003d0 ac 76 d7 bd 52 0e d0 be e0 26 c1 be 12 1c 44 3e
       -0.10520682 -0.40635926 -0.37724972 0.19151333
0003e0 59 b4 2f be 1c 7d b6 3e 0e aa 3d be 4d d8 d8 be
       -0.17158641 0.35642326 -0.18521902 -0.42352524
0003f0 1b 3d 00 be a2 8f 75 be c5 d9 49 be d0 c6 0c bf
       -0.1252331 -0.23980573 -0.19711979 -0.54990864

fc1.bias f4 [128]
000000 7a 03 aa ba e2 86 0b 3f d2 17 ec be ba b8 59 be
       -0.0012971007 0.5450269 -0.46111923 -0.21261874
000010 56 9a b8 3e dc ed fe bd 98 80 ff bd f7 68 76 be
       0.3605525 -0.12447712 -0.12475699 -0.24063478
000020 01 67 df 3e 86 18 a8 3e 7d a3 4c 3e 4b 1e a6 be
       0.43633273 0.3283121 0.19984241 -0.32444987
000030 ed 6d f6 be db bd e2 3d f0 0b 54 3e 85 78 7a be
       -0.48130742 0.11071368 0.20707679 -0.24460037
000040 12 6b 25 be 32 15 c4 3e 76 94 87 3d 86 94 92 3d
       -0.16154125 0.3829742 0.066201136 0.07157235
000050 0c 7f 11 be 01 d9 05 bf bc f8 0a bf 43 01 3d be
       -0.14208621 -0.52284247 -0.5428579 -0.18457513
000060 f2 42 96 be 4c 31 38 3e 9e 2c 22 be 49 a1 eb bd
       -0.2934795 0.17987555 -0.15837333 -0.11505372
000070 28 55 09 3f 9a a7 44 3e 5f 77 ed 3e f8 1a 8f be
       0.53645563 0.1920456 0.46380135 -0.27950263
000080 8e 09 79 be d9 4a 59 3e 02 f4 c4 be b2 3c c1 be
       -0.24320051 0.21219958 -0.38467413 -0.3774162
000090 d1 70 e4 bc eb 1f 1d be f5 99 dd be 16 08 e7 3e
       -0.027885826 -0.15344207 -0.43281522 0.45123357
0000a0 ea 3f ee 3e a6 d0 bf 3d b5 df cd bd 67 75 f3 be
       0.46533138 0.093659684 -0.10052434 -0.47550508
0000b0 70 bf 10 be 41 83 16 3e 37 86 96 3e f3 37 48 bc
       -0.14135528 0.14698507 0.29399273 -0.012220371
0000c0 3e 52 55 be b2 7b b6 3e 1d 6b eb be be 1a cc 3e
       -0.20832154 0.35641247 -0.45980158 0.39864153
0000d0 c9 a7 67 be 74 6a e3 ba e4 a9 e9 bd 47 a2 79 3d
       -0.22622599 -0.0017350451 -0.11409357 0.060945775
0000e0 66 a9 32 be 3d 93 e0 3e 46 ea 75 bc 66 bc 08 3f
       -0.17447433 0.43862334 -0.015009468 0.53412473
0000f0 1a a1 1a 3f 35 1d 88 be 34 a5 d7 be 3c f8 04 3f
       0.6040207 -0.26584783 -0.42118227 0.51941276
000100 e5 27 02 3f 06 b5 e1 be c1 da 7a 3c f4 f7 07 bf
       0.50842124 -0.44083422 0.015310944 -0.5311272
000110 0a fb f1 be ae dc ce 3d 0e fd 52 3e 4a d8 3b 3e
       -0.4726184 0.10100685 0.20604345 0.18344226
000120 d4 e7 20 be 0e 4b 1a 3f 1d 0f a9 3d 5c a6 90 be
       -0.15713435 0.60270774 0.08254836 -0.28251922
000130 c0 e1 05 bd b5 34 46 3e f0 6c 7e 3e f5 03 d1 be
       -0.032685995 0.19356044 0.24846244 -0.4082333
000140 3c 77 4a 3e b1 04 97 be f5 a0 f5 be f3 75 a1 be
       0.19772047 -0.29495767 -0.47974363 -0.315353
000150 84 d7 16 3f 30 95 11 3f cb ac 0b 3f 9b d8 b7 3e
       0.589226 0.5686827 0.54560536 0.35907444
000160 07 70 01 3f 06 44 9e bd 32 a6 a2 be ae 01 af 3e
       0.50561565 -0.07727818 -0.31767422 0.3418097
000170 d0 e9 75 be 1b 7e c7 be db ca 3c be f0 23 f8 3d
       -0.24014974 -0.38963398 -0.18436758 0.121162295
000180 3c b9 a6 3e 48 a1 65 be 6f fb ad be d6 7f 9f 3d
       0.32563198 -0.22424805 -0.3398089 0.07788055
000190 09 3d ae be b7 74 c0 be 31 74 b7 3e ae cb 82 bd
       -0.3403094 -0.37589046 0.35830835 -0.06386505
0001a0 3d 05 19 3f 6b 55 1a 3f 10 48 5d 3e 05 4e 85 3e
       0.5977362 0.6028659 0.21609521 0.26036087
0001b0 31 25 08 3e 1e 24 14 3c fa ee f2 3c 49 b8 cd 3d
       0.13295437 0.009041814 0.029654969 0.10044915
0001c0 f5 c9 4f 3e eb 72 09 3f 72 37 19 be 23 00 5e be
       0.20291884 0.53690976 -0.14962557 -0.2167974
0001d0 e2 5d a6 bd bf 4c 9c be d1 8f e7 3d 14 83 ea 3e
       -0.081233755 -0.30527303 0.11306728 0.4580313
0001e0 a5 2c 01 3f 39 b0 90 3e 37 8b d9 be 71 3f 7f be
       0.5045875 0.28259447 -0.42489025 -0.24926545
0001f0 15 e5 01 be ef ad ea bd 74 61 b4 3c 7f ad 07 bf
       -0.12685044 -0.114589565 0.022019126 -0.5299911

fc2.weight f4 [128, 128]
000000 81 5d e1 3c 38 18 8a bd fa 13 65 bd 0e 7f 96 bd
       0.027510406 -0.067429006 -0.055927254 -0.073484525
000010 c8 b9 9d 3d 17 6a ab bd 12 8e 88 3d da ba 42 bb
       0.077014506 -0.083698444 0.06667723 -0.0029713423
000020 2c 6b 28 bc 89 72 62 3d 77 d9 05 bc d5 0d 63 3d
       -0.010279458 0.05528501 -0.008169523 0.055433113
000030 33 e1 82 3d ae 29 9d bd 83 4e 0b 3d cb b0 88 3c
       0.063906096 -0.076739654 0.03401042 0.016685864
000040 63 af 9b 3c 0f 6b 53 3c bd 0e c6 3c 30 2a 2e bd
       0.01900453 0.012903943 0.02417695 -0.042520702
000050 4f 47 39 bc 76 fd ab 3d 49 3c 73 3d a5 9e 59 bb
       -0.011308505 0.08397953 0.059383664 -0.0033206132
000060 18 41 aa bd a8 e0 7d 3b eb 89 76 bd 11 34 93 3d
       -0.08313197 0.0038738642 -0.060190123 0.07187665
000070 03 ca 5b bd 42 1e d1 bb 22 b4 a0 bc 33 da 80 3c
       -0.05365945 -0.006381781 -0.019617144 0.015729045
000080 1d 58 aa 3d 3f 9a 09 3c 06 ae 51 3d d9 82 8c 3d
       0.083175875 0.008398592 0.051191352 0.06860895
000090 91 23 92 3d a8 0f fa bc d9 f1 a1 bc e8 7a 2e 3d
       0.0713569 -0.030525044 -0.019768642 0.04259768
0000a0 ca 93 c5 bc 98 87 29 3d 01 30 9e bc b7 8d 75 bd
       -0.024118323 0.041389078 -0.01931 -0.059949603
0000b0 8d 5d 13 3d 3b 07 5e 3c 12 6a 21 3d 16 d7 b3 3d
       0.03597789 0.013551529 0.039407797 0.08781259
0000c0 fc 2c 77 3d 58 9a ab 3d c7 04 9b 3b 11 b7 9b bd
       0.060345635 0.08379048 0.004730794 -0.076032765
0000d0 e0 fa 7d bd 90 e3 60 bd e3 85 9f bd 92 78 35 bd
       -0.06200683 -0.05490452 -0.07789209 -0.044304438
0000e0 fc a3 a6 bd de 02 a7 bd 7e 56 58 bd 7a 74 b2 bd
       -0.08136746 -0.08154844 -0.05281686 -0.087136224
0000f0 4e 39 5e bd 69 0c 0a 3d cc fa 96 3d d7 62 d7 bc
       -0.05425387 0.03370324 0.073720545 -0.026292248
000100 65 9e d2 bc ce 4f 41 3d 8d 9e 32 bd 05 2f 2b bd
       -0.025710294 0.04719525 -0.043608237 -0.04179289
000110 0e 10 5f 3d f2 b8 9d bd a0 12 31 3c c2 e8 9f 3d
       0.05445867 -0.07701291 0.010807663 0.07808067
000120 c7 56 78 3c 89 e8 c4 3c 1e d9 52 bd 26 d6 9f ba
       0.015157408 0.024036663 -0.05147659 -0.0012194559
000130 82 40 9f 3b a1 b6 b1 3c 2e ab 0c 3d f1 4a 9d 3d
       0.004859985 0.02169353 0.034342937 0.076803096
000140 06 2c 8a bd ad a2 2d 3b 3d e3 34 bd a7 32 8f bd
       -0.06746678 0.0026494667 -0.044162024 -0.06992083
000150 fd ed e7 bb 03 57 9f bd a0 aa 7c 3d be b7 27 3c
       -0.007077931 -0.07780268 0.06168616 0.010236679
000160 a8 1f 43 bd 9f 31 3d 3d 5f 52 ab bd 49 09 0c bd
       -0.04763761 0.0461899 -0.083653204 -0.034188543
000170 57 10 8d bc 3c d2 99 bd 57 37 66 bd a5 5d 6c bc
       -0.017219706 -0.07510802 -0.05620512 -0.0144266235
000180 df 59 89 3d 56 cd ae 3d 02 5a 66 3d 96 2e 58 bd
       0.06706595 0.085352585 0.056238182 -0.052778803
000190 76 da 6c bd 6e f9 9d 3d 34 0f 00 3d 84 e5 19 3b
       -0.057825528 0.077135906 0.0312645 0.002348275
0001a0 59 fb 43 3c 12 7c 91 bd 45 c2 f1 bc a3 40 ae 3d
       0.011961781 -0.07103743 -0.02951158 0.08508422
0001b0 af 94 b2 bc 6f 4a 91 bb 55 4e 96 bd ea 86 4a bd
       -0.021799413 -0.004433922 -0.073391594 -0.04944507
0001c0 de 90 ec ba 3c e2 60 bd c9 95 33 bc c0 55 13 3d
       -0.0018048545 -0.054903254 -0.0109610045 0.03597045
0001d0 aa 11 b1 bd 4a 0f d7 3c 07 62 6f bd 80 b1 30 bd
       -0.08645947 0.026252408 -0.058443096 -0.043138027
0001e0 7b fd 0a 3d a0 ee 8f 3d 87 e5 c5 bc 52 a4 14 bd
       0.033933144 0.07027936 -0.024157299 -0.03628952
0001f0 26 af a3 bd 22 b0 3a bd d9 81 9e bd 4f b8 a5 bc
       -0.07992391 -0.04557813 -0.0773961 -0.020229487
000200 67 65 80 3c b3 87 ae bd e9 0c 9e 3d e1 8b 5a 3d
       0.015673352 -0.08521976 0.07717306 0.053356055
000210 14 15 b6 bd 21 53 36 bd 47 1d f4 3c c5 c4 94 bc
       -0.08890739 -0.04451287 0.029799117 -0.018160233
000220 bc 2d 40 bc e5 8d 2c bd f5 65 91 3d 04 61 4a bd
       -0.011729654 -0.04212751 0.07099525 -0.049408928
000230 24 eb 9c 3d 92 dd 5d 3b 56 c6 7c 3c c5 27 8a 3d
       0.07662037 0.003385399 0.015428146 0.06745867
000240 27 9b 6e bc d2 1f 4e bd 63 17 88 bc aa 12 8e 3d
       -0.014563358 -0.050323315 -0.016612714 0.06937154
000250 66 50 86 bd f5 59 a4 3c 7d e7 b1 bd 5e c9 34 3d
       -0.065583035 0.020062426 -0.08686731 0.04413735
000260 f9 c2 05 3d ea 8f 75 3b d9 a5 11 3d 08 f5 f0 ba
       0.032656644 0.0037469813 0.035558555 -0.0018383572
000270 75 a7 3e 3d 72 4c 8f bd 56 3f 7c bc 0b 9b 20 3d
       0.04654642 -0.06997003 -0.01539596 0.03921036
000280 19 43 b4 3d 5d 6b 38 3d f4 a1 83 bd ae 38 8b 3d
       0.0880186 0.045024265 -0.064273745 0.0679792
000290 ce 77 a1 bc d9 99 9a bc bd 87 a4 bd 9a 56 7b bc
       -0.019710448 -0.018872188 -0.080337025 -0.015340472
0002a0 03 83 76 3d 0c f0 49 3c f0 de 52 bd 38 e1 de 3c
       0.060183536 0.012325298 -0.05148214 0.027207002
0002b0 ce 10 f9 bc 03 45 a5 3d 57 ec a1 bd a4 e8 f6 bc
       -0.03040352 0.080698036 -0.079064064 -0.030140229
0002c0 98 c9 ae bd 96 41 18 bd 81 43 e4 3c e0 9b a9 3d
       -0.08534545 -0.037171923 0.02786422 0.08281684
0002d0 af 91 fa 3b d7 d8 ac 3d d2 aa 8d 3c 22 17 51 3d
       0.0076467614 0.084397964 0.017293368 0.05104745
0002e0 ca 1d 91 3d 24 a1 92 3d 42 a4 4a bd 89 a7 a1 3d
       0.0708576 0.071596414 -0.049473055 0.07893283
0002f0 bd c4 51 3d 86 0f 2f bd 1d c4 2c bd 0a aa 9c bd
       0.051213015 -0.042739414 -0.042179216 -0.0764962
000300 07 93 a2 3c 9f b9 92 bd 05 a4 0f 3d 75 a9 e4 3c
       0.019845499 -0.07164311 0.03506853 0.027912835
000310 1e 45 9d bd cc 4f c5 3c fd 76 1c bc cd 0b 2e 3d
       -0.07679199 0.024085902 -0.009549853 0.042491723
000320 e9 bb 4f 3d 10 5d b8 bd 3c 03 a6 3d b5 85 92 3d
       0.050716314 -0.09002125 0.08106086 0.07154409
000330 9d 0c 10 3d b1 61 aa bd 3f 33 0b bd 13 d8 d1 bc
       0.03516828 -0.083194144 -0.03398442 -0.025615728
000340 1d 16 ba bc 77 29 4c 3d 69 a0 03 3d 55 66 8f 3d
       -0.022715623 0.04984423 0.0321354 0.0700194
000350 b8 2c 11 bd 48 27 e1 3c 42 56 ee 3c a6 67 9b bd
       -0.035443038 0.027484551 0.029093865 -0.07588129
000360 f4 5c b4 bd a0 db 3b bd 2d d5 77 3d 35 3d af bd
       -0.08806792 -0.045863748 0.060506035 -0.08556596
000370 bb 90 9d bd 74 d0 4a 3d 92 54 43 3d 75 de 94 3d
       -0.07693621 0.049515203 0.047688074 0.07268993
000380 66 9d 8d bd ee 7c 84 bd 94 b8 39 3d 7d 6b 9d 3d
       -0.06914787 -0.06469141 0.045342043 0.076865174
000390 2e 9f 58 3d 41 db 62 3c 0a 07 dc 3c 4f 1b a7 3d
       0.05288618 0.0138462195 0.026858825 0.081595056
0003a0 3d e3 72 bd 2d f6 2d bd f1 de 73 3d fd 9f 80 bd
       -0.059298743 -0.0424711 0.059538785 -0.06280515
0003b0 f7 a1 47 bd 7b 24 84 3d 09 9d ce 3c 93 8b d8 3c
       -0.048738446 0.064522706 0.025221365 0.026433742
0003c0 ae cb 22 bd 98 a4 65 bb c1 ac a5 3d 9c 5e 62 bd
       -0.039745025 -0.0035040732 0.08089591 -0.055266008
0003d0 d0 2b 36 3a 33 41 22 3d 49 b3 80 bd d6 e1 aa 3d
       0.00069492776 0.03961296 -0.06284196 0.08343856
0003e0 a6 a3 3d bd 4c e8 c0 bc ef e9 c3 bc 56 5e 75 bd
       -0.046298645 -0.023548268 -0.02391526 -0.05990442
0003f0 bc a0 b1 bd d6 22 4c 3d 5d 5e c0 3c f8 8a a9 bd
       -0.08673236 0.04983791 0.023482496 -0.08278459

fc2.bias f4 [128]
000000 35 4a 9a bd 79 3b 9b 3d 88 64 a0 bd 52 25 1a bd
       -0.07533685 0.07579703 -0.07831675 -0.037633248
000010 62 69 b9 bc 3b 5b 89 bc d4 ee 9d bc ed 20 75 3d
       -0.022633258 -0.016767135 -0.019278921 0.059845854
000020 f8 70 87 3d 41 a8 b5 bd 9f f2 a7 bd 3a 26 b1 bd
       0.06613344 -0.088699825 -0.08200573 -0.08649869
000030 e3 be fb 3d e7 a3 2f bc 7b 34 33 bd 03 b7 7a bc
       0.12292268 -0.01072023 -0.04375122 -0.015302422
000040 6e 45 3d 3c 3f 16 92 3c 22 fc 7f 3d 43 7b 83 3d
       0.011552198 0.017832873 0.062496312 0.06419995
000050 62 fa ef 3d 3d 5c 71 bd 11 16 99 bb 0c 19 87 bd
       0.117176786 -0.058925856 -0.00467182 -0.06596574
000060 f5 a0 02 bd 23 ca 59 bc f9 03 4b 3d 71 db ec 3c
       -0.03189178 -0.013292822 0.049564335 0.028913232
000070 8a 1c 4c bd 0f 6e de bc ec 99 08 3d 31 58 a1 3d
       -0.049831904 -0.02715209 0.033349916 0.07878149
000080 8b d8 00 3e af 82 b4 bd cb 85 cd 3c 90 a9 3c 3d
       0.12582605 -0.088139884 0.025088212 0.046060145
000090 64 6b 43 3d bc 35 b0 bd fa 24 87 bd 23 b3 09 3d
       0.047709838 -0.08603999 -0.065988496 0.033618104
0000a0 db 16 20 bc 2d b6 0f 3d 97 a3 93 3d 00 d5 32 bc
       -0.009771074 0.035085846 0.07208937 -0.010915041
0000b0 e6 c0 d4 bc 53 62 45 3d 6c 9a 8d bd 6f b5 63 3b
       -0.025970887 0.048189472 -0.06914219 0.0034745594
0000c0 40 61 5b bc 2f 3d ad bc 58 79 24 3d 5e f4 ba bc
       -0.013389885 -0.021147339 0.040154785 -0.022821601
0000d0 31 17 41 3b 74 ac cd 3c 1b 85 37 bc 64 d1 e8 bc
       0.0029463286 0.025106646 -0.011201168 -0.028420158
0000e0 74 60 c4 3d 24 c2 49 3d 56 85 9a bc b1 c3 f4 ba
       0.095887095 0.049257413 -0.018862408 -0.0018674043
0000f0 7b 63 1e bd a4 82 35 3d b0 81 31 3d 49 37 19 bd
       -0.03866909 0.04431404 0.04333657 -0.03740624
000100 1e 5e 95 3d 49 a0 2a bc 2c 57 06 3d 90 ff b0 bb
       0.07293342 -0.0104141915 0.032797977 -0.005401559
000110 22 17 2e ba a1 51 97 bc b5 cc 1c 3c 7b 2a ac bd
       -0.00066410203 -0.01847154 0.00957029 -0.0840654
000120 90 c5 19 3d e5 8b 8d bd 07 33 a8 bd fd af c1 bd
       0.037541926 -0.069114484 -0.08212858 -0.09457395
000130 0b f9 bc bc d4 7f a7 3c 46 3a 17 3c 71 74 aa 3c
       -0.023067972 0.020446695 0.009230202 0.020807477
000140 2d 68 3f bd d1 39 26 bc 85 57 db bc 30 21 8f bd
       -0.04673021 -0.01014562 -0.026775131 -0.06988752
000150 92 89 9f bc 06 09 30 3d 48 11 58 3d eb 6c a4 bd
       -0.019474778 0.042977355 0.052750856 -0.08028587
000160 e1 1e 99 3d e0 65 1b 3e a1 40 24 bd 6c 2f 9a bd
       0.07476593 0.15175581 -0.040100697 -0.07528576
000170 96 73 53 3c 1f 5d a3 3c fd 97 c1 bc 5d 51 26 bd
       0.012905976 0.019941865 -0.023632044 -0.040604938
000180 00 fe 58 bb 71 38 79 bd 1a fc 74 bd ae a2 e7 3c
       -0.003311038 -0.060844842 -0.059810735 0.028275814
000190 36 c3 23 3c a2 28 a5 3c f3 c9 8c 3d c1 8f 61 ba
       0.009995272 0.020160977 0.06874456 -0.000860449
0001a0 83 66 75 3d 92 f5 9b 3d dc 3b 7b bd 26 b1 50 3d
       0.059912216 0.07615198 -0.061336383 0.050950192
0001b0 03 9e 45 3d 7a 43 0a bd a0 8c 0b 3e 95 fb 25 bd
       0.048246395 -0.033755757 0.13627863 -0.04052313
0001c0 52 35 69 bd 87 cf 6c 3d 26 f2 27 3d c8 ce 8d 3d
       -0.056935616 0.0578151 0.041002415 0.06924206
0001d0 0e fe 8e bd 55 b1 24 3d f4 c7 b1 3c 0a 21 58 bd
       -0.06982051 0.04020818 0.02170179 -0.052765884
0001e0 38 d2 42 bc de d6 b4 3d 7d df 18 3d 07 77 26 bd
       -0.01189094 0.08830045 0.03732251 -0.040640857
0001f0 64 f6 77 ba 94 ec ff bc 2d f7 6e 3d 19 18 87 3d
       -0.00094590173 -0.031240739 0.058341194 0.06596393

fc3.weight f4 [13, 128]
000000 57 71 56 bc 93 c0 a7 bc 50 60 8c bd ab 3e a0 bc
       -0.013088546 -0.020477569 -0.06854308 -0.019561132
000010 83 57 22 3d d2 50 ae bd 9b 1c 09 3d ad 8f ac 3d
       0.03963424 -0.08511509 0.033474546 0.084258415
000020 c1 d4 1b 3d c9 f0 3f 3d da f8 c3 bc 84 45 f4 bb
       0.038044695 0.04686049 -0.023922373 -0.007454576
000030 af 3a 05 be 0b 35 2f bd 62 ee b5 3c 96 6f 39 bd
       -0.13010667 -0.042775195 0.022208396 -0.045272432
000040 2e 77 55 3d db f2 2c bd 7d f1 0c 3c 3e 80 3e bd
       0.05211561 -0.042223793 0.008602497 -0.04650902
000050 08 9d 16 be 9e d5 0a bd db 38 76 bd b6 2e 8d 3c
       -0.1470834 -0.033895127 -0.060112815 0.017234188
000060 d7 0b 64 3c 7a 5c 86 3d db 0f 3d 3d c9 e3 a3 bd
       0.013918838 0.06560607 0.0461577 -0.08002431
000070 03 b2 0b 3d 7b e2 2c 3d a9 5e c0 bd 75 32 13 be
       0.034105312 0.042208176 -0.09393055 -0.14374717
000080 de ee 29 be e3 ae 33 bd fc ef 09 bc 26 ec b1 3d
       -0.16595027 -0.043867957 -0.008419033 0.0868762
000090 07 56 98 3d b2 bc b9 bc 00 5f d7 3b fa 91 de 3b
       0.074382834 -0.022672985 0.006572604 0.006792304
0000a0 8a 95 0e 3c 4b 8f 75 bd 97 8e 31 3c 00 01 7f 3d
       0.008702645 -0.059951108 0.010837219 0.062256813
0000b0 dd 16 6d 3c a3 57 a5 3d 48 1f a8 3d ee e7 0f be
       0.014470783 0.08073356 0.082090914 -0.14053318
0000c0 6f b4 a0 3d cb e7 8e bd 72 7c 2b bd 63 5d 5f 3d
       0.07846915 -0.06977805 -0.041866727 0.05453242
0000d0 ea c2 5c 3b 99 53 9c 3d 0c d9 2c 3d 61 40 9a bc
       0.0033685514 0.076331325 0.04219918 -0.018829526
0000e0 c7 8e 0b 3d 3f e9 81 bd c4 51 15 3c 24 18 31 bd
       0.03407171 -0.06343316 0.009113733 -0.043235913
0000f0 bf cf 87 3d ce af c7 3d f9 33 0e 3d ec 67 4a bd
       0.06631421 0.09750329 0.034717534 -0.049415514
000100 c5 8c 06 3c e0 3e 79 3d 40 19 9d bd dc 81 6f bc
       0.008212273 0.060850978 -0.07670832 -0.014618363
000110 68 6b 0e 3d 96 db fb bb cb d7 02 3d a7 85 81 39
       0.0347704 -0.007686089 0.031944077 0.00024704376
000120 28 8f b2 bd b8 39 52 3c 52 62 1a ba 02 16 83 bd
       -0.08718711 0.012831144 -0.00058892847 -0.06400682
000130 6a 95 86 bd 45 37 09 3c f3 fa 0c bd dc ab 0d 3b
       -0.06571467 0.008374994 -0.03441901 0.0021617329
000140 e9 c2 85 3d 4f 5b 2f bd 6a a9 45 3d cc 6d 7c 3d
       0.06531317 -0.042811688 0.04825727 0.061628148
000150 02 d2 45 3d 36 ca e9 bd 2e 49 84 3c 80 7a 85 bd
       0.048295982 -0.11415522 0.016148176 -0.06517506
000160 25 34 65 bd 0c 5e d3 bd eb 9f 9c 3d 2a a9 4a 3d
       -0.055957932 -0.103206724 0.076476894 0.049477734
000170 20 f1 ca 3c fe e5 51 3d b8 e2 ac bd 41 a7 ac bd
       0.02477318 0.05124473 -0.08441681 -0.08430339
000180 c5 5f 16 3d d3 63 ac bc a0 a1 ec 3c 42 79 80 bd
       0.036712427 -0.021043694 0.028885663 -0.06273128
000190 8e 63 ab 3d 2b 36 95 bd 01 eb 1f 3d b3 bb 3e 3d
       0.08368598 -0.07285722 0.039042477 0.046565723
0001a0 f8 cb 20 be fc 11 cb 3c da 0c 24 3d 93 9c 05 bd
       -0.15702808 0.024788849 0.04005132 -0.032620024
0001b0 ec f7 fb bc 40 88 8a 3d 37 e1 ce bd 1f 6f be 3b
       -0.030757867 0.06764269 -0.1010155 0.0058115865
0001c0 f8 c8 28 3d f4 26 12 3d 19 49 35 bd 48 b7 a7 ba
       0.041207284 0.03568168 -0.044259164 -0.0012795711
0001d0 e8 95 db 3c 0a 9c 0c 3d c1 39 28 bd 23 35 23 3d
       0.02680488 0.034328498 -0.041070703 0.039845597
0001e0 54 fe 9c bc 00 ac 97 3b 3e a3 39 3d 6a f2 82 3d
       -0.019164242 0.0046286583 0.045321696 0.06393893
0001f0 6e a1 44 bc d9 4c 6b 3d 50 42 8b 3d 2d 47 b7 bb
       -0.012001378 0.057446335 0.067997575 -0.0055932016
000200 28 af b6 bb c0 dc 8a bd e7 d4 72 bd ea 88 50 3d
       -0.0055750795 -0.06780386 -0.05928507 0.05091182
000210 75 86 65 bd 11 2e 55 bd 08 85 6a 3d 16 e6 48 bd
       -0.05603643 -0.052045885 0.057255775 -0.049047552
000220 85 04 8c bd 47 31 6a 3c 86 40 1c 3d 15 17 a4 bd
       -0.068367995 0.014293975 0.03814747 -0.08012215
000230 8e ba ee bc a1 98 8b bd fe be 18 3d ec ad 9a bb
       -0.02914169 -0.06816221 0.03729152 -0.00472044
000240 89 a5 f3 3c c8 40 c0 3d 42 d9 20 bd 9a fa 17 bd
       0.02974202 0.09387356 -0.039269693 -0.037104227
000250 ea 59 cd bc e4 53 d9 3c 56 ca 21 bd 70 36 79 bd
       -0.025067288 0.02652926 -0.039499603 -0.06084293
000260 ee 74 dc bc 4b 89 0e 3d 53 fc 18 3d c5 8f ca bd
       -0.026911225 0.0347989 0.03735001 -0.09890703
000270 ad 1a 99 3d 57 ea 75 bd e4 db cc bc 1f 8c b2 bd
       0.07475791 -0.060037937 -0.025007196 -0.08718132
000280 73 b1 ee bd 20 15 96 3d 11 0b 89 bd a7 59 3e 3d
       -0.116549395 0.07328248 -0.06691564 0.046472218
000290 b4 8e e3 3c f6 e6 3a bd f1 85 9b 3d ff e7 28 bd
       0.027778007 -0.045630418 0.07593907 -0.041236874
0002a0 04 1b 02 ba 22 65 ab 3d c2 77 aa bd 58 7e 95 3d
       -0.0004963132 0.08368899 -0.08323623 0.07299489
0002b0 34 a9 32 bd 12 ec 92 bd a5 1a 4b 3d 1f 35 ac bd
       -0.043618396 -0.07173933 0.049585957 -0.084085695
0002c0 31 c8 95 bd 5d 57 42 bd 04 0c 72 3d a2 bd a5 3d
       -0.07313574 -0.047446597 0.05909349 0.0809281
0002d0 b1 ec da bb 17 ed 39 3d 26 18 64 3b 56 89 87 bd
       -0.006681048 0.045392122 0.0034804433 -0.066179916
0002e0 68 ab b7 bb a0 e5 80 3d 0a 26 80 bc 9d 0c 53 bd
       -0.00560515 0.062937975 -0.015643138 -0.0515257
0002f0 08 97 94 3d 6a b6 96 bc 26 90 97 3d 48 b0 4f 3d
       0.072553694 -0.018397529 0.07400541 0.050705224
000300 a0 11 a3 3c 87 5c c0 3c 20 b0 11 bd a8 70 0a bd
       0.019905865 0.02348162 -0.035568357 -0.033798844
000310 d2 84 4d bd 6f 40 0f bd d6 8a 4a bd b0 34 55 bc
       -0.050175495 -0.034973558 -0.04944881 -0.01301305
000320 bf 59 b3 bd c3 30 e9 bc 68 80 76 bd 71 fa ad bd
       -0.08757352 -0.028465634 -0.06018105 -0.084950335
000330 4a 58 a5 3c 8f c8 29 3d 03 d5 12 bd 0f 3f 6f bd
       0.020183701 0.041451033 -0.035847675 -0.058409747
000340 5d 0f 29 bd ad 80 d8 bd 19 0d c2 bd ce da bb 3d
       -0.041274417 -0.10571418 -0.094751544 0.09172593
000350 57 02 44 3d 75 49 fd 3c af 1e b0 bd 93 63 6f bd
       0.047853794 0.030918816 -0.085996024 -0.05844457
000360 5a 03 9c 3d af 4c c5 bd c1 be 5f bd 2a c9 96 bd
       0.07617827 -0.09633767 -0.054625276 -0.07362588
000370 df 63 dc 3c c2 42 41 bc 7c e3 5c bd 30 24 9a 3d
       0.026903091 -0.011795701 -0.053927884 0.075264335
000380 49 38 55 bd 10 c3 1c 3c b9 8a fb 3c c9 3e 2d 3d
       -0.05205563 0.009567991 0.030705797 0.042296205
000390 da 84 97 3d 52 24 a8 bc 9c 06 22 3d 63 d8 e5 bb
       0.07398386 -0.020525131 0.039557084 -0.0070143207
0003a0 2d 69 3a bd e7 49 cd bd 56 7a 47 3d d0 17 d4 3c
       -0.04551046 -0.100238614 0.048700653 0.025890261
0003b0 4c 10 ca 3c 7a f3 dd bb 91 19 99 bc 0f d8 ae bd
       0.024665974 -0.0067734094 -0.018688949 -0.08537304
0003c0 69 76 85 3d 48 a0 82 3d 45 f9 41 3d be ca 44 bd
       0.065167256 0.063782275 0.047356863 -0.048044913
0003d0 19 e9 a8 bd 2e a5 d0 bc 00 6e 91 bd e7 74 2d bd
       -0.08247585 -0.025469389 -0.07101059 -0.042347815
0003e0 4f ed 7e 3d 31 17 37 bd c2 57 b4 3d 61 80 36 bd
       0.062238034 -0.04469985 0.08805801 -0.044556025
0003f0 e3 9d 28 bd ba 14 91 bd fc e3 09 3d de 9f c9 bb
       -0.041166198 -0.070840314 0.03366469 -0.006153091

fc3.bias f4 [13]
000000 aa 89 2e 3d 08 bc 85 bd a1 76 d6 3a 18 4d 0b 3d
       0.042611755 -0.06530005 0.0016362258 0.03400907
000010 2d 17 04 3d 0a 78 9e bd 8c 65 96 bd e4 c4 d1 bd
       0.032248665 -0.077377394 -0.07343587 -0.10242632
000020 f6 00 d2 3c 4c 33 58 bd 1f 8e 40 3c 30 1f 0b bc
       0.025635224 -0.052783296 0.011752634 -0.008491322
000030 5f da b5 3c
       0.022198854
