models/model_episode_2600.pth (torch, 77430 bytes, 6 tensors)

fc1.weight f4 [128, 3]
00000000: 7a6b dc3e d77a 083f 657e 0fbe 2dbc 013f
00000010: 2b9d f3bc 7a45 2f3e 0674 81be 90b4 d43e
00000020: 9049 123f 1d01 f2be af6a 103f a73e cf3d
00000030: ae08 cc3e e9d1 133e 0b47 983e 56d8 d2bd
00000040: b226 033f 5f99 803d 19c7 8dbe 25fa 0f3e
00000050: fe31 88be 3caa 8abd 9e1f 70be 3c18 c43e
00000060: be10 e4be aa88 63be 2442 35be 1ee3 b1be
00000070: 9212 143e ed95 09bf 118b 063f 0fb9 e8be
00000080: c477 f03e b6c6 c43d adf7 3fbe 07ab b63e
00000090: 6f41 bb3d 35df 083f 2ece df3d bfa9 29be
000000a0: 3e0c 8e3e c259 c0bd 264b 7c3e 57f8 1c3f
000000b0: 27d7 b73e ff24 99be 194a c93e 30a7 0e3e
000000c0: 231e 963e f62b b4be 644f 12bf 9658 80be
000000d0: 0c4c d8be bcfb 003f 8c91 283e 4594 a63e
000000e0: 507f 4d3e b61c 233b f888 0b3f aa56 d7be
000000f0: f7e5 143d dbc2 c9be bd4c 363e e299 4bbe
00000100: c527 353e 8358 f6bd c62b f53e 6534 afbe
00000110: 184c b0be adbf 9cbe a31c 293f 9cb6 6f3e
00000120: e638 0e3f 54f4 f3be d799 12bf f344 e7be
00000130: 61d9 c6be 6276 6f3e f5d5 543e 9330 0e3f
00000140: 3beb 94be 0b21 98be b5bc e23e e3dc 47be
00000150: fe9b 9f3e 78d2 9ebd b8ad b33e ed4f eabe
00000160: b0c2 99be 0af8 2a3e 04f8 033e a21f c0bc
00000170: 88eb c73e 31f4 c83e 195d d6be 2fd0 9dbe
00000180: d106 043f 7898 56be 3300 54be 1903 0fbf
00000190: 8148 a9be 83af 133e 0c12 9cbd 0693 d6be
000001a0: 51e2 5d3c d2eb c9be f4c9 fabe 18c7 a2be
000001b0: 995b 01bf ce38 bcbe 6dbe 133f 4826 0b3e
000001c0: f4c4 8c3e 30da 09bf 0025 c2be 5dc9 44be
000001d0: 32e5 b83d edb4 b3be 7a21 b3bd ce4a a0be
000001e0: 427b 32bb f850 24be e705 1cbd 424f c8be
000001f0: 94e6 cabe 9d74 acbe 585e 4abe 6650 e9be
00000200: c0da f73e d17f e8bd 3c5f 193f 966b 7e3e
00000210: 4c66 d7be e084 013f bb85 06be fb9f 62be
00000220: 215f f5be 48f0 12bf 2541 113e 35fa 0dbd
00000230: b9ef 8a3e 2551 c2be 2730 0c3f b306 cabe
00000240: 5c24 e8bd c14d 2a3e fe12 b23e 5c6c ec3e
00000250: 0fa4 1d3f dab1 ddbe 91c9 143e 184b 7ebe
00000260: 1593 81bd c64d dabe 8991 203f 192e d0be
00000270: e428 883e ecde 853e 7a61 823e 44c4 abbe
00000280: 11fb 133f 29c9 063e 101b 983d 3d40 02bf
00000290: 872e 783e 03e5 d0bd a599 87be 985a 023f
000002a0: 0ecf 033e e48c a3be c99d 95be c982 8cbd
000002b0: b715 c93e ba5f e6bd f1a9 a8be 5b74 4abe
000002c0: 7bd6 dcbe 7aed 783e c737 173f 2212 febe
000002d0: c360 153e 0725 c73e 93d1 003e 5a70 77be
000002e0: 1640 c73e d853 b53e 7a11 5d3e 7cc6 cfbd
000002f0: 628d 1cbe d409 8b3d 946f 393c ee84 efbd
00000300: 0f5a c33e f144 1d3f 419e 113c 8c5e 04be
00000310: 6f08 0a3c 1b33 0dbd 26fa 243e 1854 863e
00000320: 9db9 02bf 6f69 23be c54c 133f 45f9 993e
00000330: d13d ebbc 9038 b2be 04da b4be 3ba3 06bf
00000340: 02ad 4bbe 96e5 3c3e b3c9 c73e e15b c63e
00000350: 79bf e8be e87a acbe 9ba4 f23a 037f 183f
00000360: 820b ab3d f01a 19be 5997 743e f256 46be
00000370: 24ac 72be 2f0c f13e 4f69 86be d908 edbd
00000380: a208 13bf b5b6 c83e 0a29 0f3f af3b 803e
00000390: d81d cebe 12df 11bf 3315 f0be b406 e23e
000003a0: 2269 c23e 4c25 003f 3c65 9c3e 1084 873e
000003b0: fc2e e53c e1ce e0be c443 fdbe ff3e 0abf
000003c0: d155 5b3e e57e a5be f16b f0bd 0c1f aabe
000003d0: ac76 d7bd 520e d0be e026 c1be 121c 443e
000003e0: 59b4 2fbe 1c7d b63e 0eaa 3dbe 4dd8 d8be
000003f0: 5262 d4bd 6106 2fbe 5d80 27be fb16 07bf
0.43050748 0.5331244 -0.1401306 0.5067776 -0.02973803 0.17116347 -0.2528383 0.41544008
0.571435 -0.47266474 0.56412786 0.10119372 0.39850372 0.14435543 0.297417 -0.10295169
0.5123092 0.06279253 -0.27690962 0.14060266 -0.2660064 -0.06770751 -0.23449561 0.3829974
-0.44544023 -0.22220102 -0.17701012 -0.3474359 0.14460209 -0.53744394 0.5255595 -0.45453689
0.46966374 0.096082136 -0.18746825 0.35677359 0.0914334 0.53465587 0.109279975 -0.16568659
0.27743715 -0.0939212 0.24638042 0.61316437 0.35906336 -0.29911038 0.39314345 0.13930964
0.29319867 -0.3518979 -0.5715239 -0.25067586 -0.4224552 0.50384116 0.16461772 0.32534996
0.20068097 0.002488894 0.5450587 -0.42058307 0.036352124 -0.39406475 0.17802711 -0.1988292
0.17690952 -0.12028601 0.4788496 -0.3421966 -0.34433055 -0.30614987 0.6605932 0.23409504
0.5555557 -0.47647345 -0.5726599 -0.45169792 -0.38837722 0.23385003 0.20784743 0.5554287
-0.29085717 -0.2971271 0.44284597 -0.19517855 0.311737 -0.077549875 0.35093474 -0.45764104
-0.30031347 0.16696182 0.12887579 -0.023452584 0.39046884 0.39248803 -0.41867903 -0.30822894
0.515729 -0.209566 -0.20703201 -0.558641 -0.3306313 0.14422421 -0.0762063 -0.41909045
0.013542728 -0.3943773 -0.48982203 -0.3179252 -0.5053039 -0.3676209 0.5771244 0.13588822
0.27494013 -0.5384855 -0.37918854 -0.19217439 0.090280905 -0.35098973 -0.087466195 -0.3130707
-0.0027234112 -0.16046512 -0.038091566 -0.3912297 -0.39629042 -0.3368272 -0.19762552 -0.45569152
0.4840908 -0.11352504 0.5991094 0.24845728 -0.42070234 0.50593376 -0.13136952 -0.2213134
-0.4792414 -0.5739789 0.14185007 -0.034662444 0.2713602 -0.37952533 0.54760975 -0.39458236
-0.1133506 0.16631223 0.34780115 0.46176422 0.6157846 -0.43299752 0.14530016 -0.24833333
-0.06326882 -0.4263746 0.6272207 -0.4066017 0.26593697 0.26146638 0.25464994 -0.33548176
0.5780497 0.13162674 0.07427037 -0.5087927 0.24236499 -0.101999305 -0.2648441 0.50919485
0.12871954 -0.3194343 -0.29221943 -0.06860883 0.3927438 -0.11248727 -0.32942155 -0.19770949
-0.43132386 0.2430934 0.59069484 -0.4962321 0.14587693 0.38895437 0.12579946 -0.24163952
0.3891608 0.3541553 0.21588698 -0.1014528 -0.15288308 0.06788984 0.011318106 -0.11695276
0.38154647 0.6143332 0.008887828 -0.12926692 0.008424862 -0.034472566 0.16111049 0.26236033
-0.51064473 -0.15958188 0.57539016 0.3007299 -0.028716 -0.3480878 -0.35322583 -0.5259282
-0.19890216 0.18446955 0.39021072 0.38741973 -0.45458582 -0.3368752 0.0018512191 0.59568805
0.08351804 -0.14951682 0.2388586 -0.19369105 -0.23698479 0.47079608 -0.2625222 -0.11573953
-0.5743505 0.39201894 0.55921996 0.25045535 -0.40257144 -0.56981003 -0.46891174 0.4414574
0.37970835 0.5005691 0.30545986 0.26467943 0.027976505 -0.43907836 -0.49465764 -0.54002374
0.21419455 -0.32323375 -0.11739338 -0.33226812 -0.10520682 -0.40635926 -0.37724972 0.19151333
-0.17158641 0.35642326 -0.18521902 -0.42352524 -0.103703156 -0.17092277 -0.1635756 -0.5276944

fc1.bias f4 [128]
00000000: 15db 573d 4e5b 1c3f a538 d5be e889 29be
00000010: 9131 c93e 97f4 8fbd 9880 ffbd f768 76be
00000020: e52d e03e 3b4a bb3e 768d 623e 4b1e a6be
00000030: f567 cdbe 07fe 323e a2ce 843e 27bf 59be
00000040: 126b 25be 46ca ce3e f501 f93d 0630 e23d
00000050: 0c7f 11be 01d9 05bf bcf8 0abf 4237 12be
00000060: f242 96be 4c31 383e 5a7e d2bd 18cf bebd
00000070: 3ac4 193f 9aa7 443e e18a 063f f81a 8fbe
00000080: 1c49 80be d94a 593e 02f4 c4be b23c c1be
00000090: d170 e4bc 6429 f3bd f599 ddbe a16b 003f
000000a0: cbcc 023f a6d0 bf3d b5df cdbd c166 e1be
000000b0: 0ea9 d9bd 4183 163e 870f b53e 5870 3a3d
000000c0: 5153 42be 279c cd3e 1d6b ebbe 1608 e93e
000000d0: 95d3 30be 093d 593d e4a9 e9bd 3a61 883d
000000e0: 66a9 32be fc11 f53e 46ea 75bc 12bd 153f
000000f0: d45c 233f 886a 4dbe 34a5 d7be bd3a 113f
00000100: 1092 0f3f 06b5 e1be 3ca3 423d 5d16 f6be
00000110: 0afb f1be aedc ce3d 7420 883e 6ea4 553e
00000120: d4e7 20be 10e8 283f 1d0f a93d fb9a 6abe
00000130: c0e1 05bd ad05 6e3e 9cd1 9d3e f503 d1be
00000140: d6a1 363e b104 97be f5a0 f5be f375 a1be
00000150: ec16 273f eab2 1e3f 7f3e 183f e48e d33e
00000160: 1fd8 0c3f 0644 9ebd 32a6 a2be 9db7 c23e
00000170: fb89 2fbe 1b7e c7be dbca 3cbe f023 f83d
00000180: f1bb c63e 48a1 65be 6ffb adbe d67f 9f3d
00000190: 093d aebe b774 c0be 5969 d63e 9376 e9ba
000001a0: 3a53 243f c298 233f 2487 813e c1c2 953e
000001b0: 3125 083e 1e24 143c 04dc 7a3d 4959 183e
000001c0: 2954 7f3e ea03 143f 7237 19be c6f6 46be
000001d0: 26cb b9bc 29e2 73be be1a 403e f6ed 023f
000001e0: b803 0d3f 1610 9e3e 378b d9be de8e 5abe
000001f0: 15e5 01be 3dc8 a2bc c601 893c 7fad 07bf
0.052699167 0.6107682 -0.4164478 -0.16556513 0.3929563 -0.07029074 -0.12475699 -0.24063478
0.43785015 0.3658007 0.22124276 -0.32444987 -0.40118375 0.17479716 0.25938898 -0.21264325
-0.16154125 0.40388697 0.121585764 0.11044316 -0.14208621 -0.52284247 -0.5428579 -0.14278892
-0.2934795 0.17987555 -0.10278006 -0.09316844 0.6006504 0.1920456 0.5255566 -0.27950263
-0.25055778 0.21219958 -0.38467413 -0.3774162 -0.027885826 -0.11873129 -0.43281522 0.5016423
0.5109374 0.093659684 -0.10052434 -0.44023708 -0.10627948 0.14698507 0.3536341 0.045517296
-0.18977095 0.40158197 -0.45980158 0.45513982 -0.17268212 0.053036723 -0.11409357 0.066591695
-0.17447433 0.47865283 -0.015009468 0.58491623 0.6381352 -0.2006017 -0.42118227 0.5673025
0.5608225 -0.44083422 0.047518954 -0.48063937 -0.4726184 0.10100685 0.2658726 0.20863506
-0.15713435 0.659791 0.08254836 -0.22910683 -0.032685995 0.23244353 0.30823982 -0.4082333
0.17835173 -0.29495767 -0.47974363 -0.315353 0.6526935 0.6199175 0.5947036 0.41319954
0.55017275 -0.07727818 -0.31767422 0.3803071 -0.17142479 -0.38963398 -0.18436758 0.121162295
0.38815263 -0.22424805 -0.3398089 0.07788055 -0.3403094 -0.37589046 0.4187725 -0.0017811827
0.64189494 0.63904965 0.25298417 0.29250148 0.13295437 0.009041814 0.06124498 0.1487781
0.24934448 0.5781847 -0.14962557 -0.19430074 -0.022679877 -0.23816742 0.18760201 0.5114435
0.550838 0.30871648 -0.42489025 -0.21343562 -0.12685044 -0.019870872 0.016724478 -0.5299911

fc2.weight f4 [128, 128]
00000000: 815d e13c 3818 8abd fa13 65bd 0e7f 96bd
00000010: c8b9 9d3d 176a abbd 128e 883d daba 42bb
00000020: 2c6b 28bc 8972 623d 77d9 05bc d50d 633d
00000030: 33e1 823d ae29 9dbd 834e 0b3d cbb0 883c
00000040: 63af 9b3c 0f6b 533c bd0e c63c 302a 2ebd
00000050: 4f47 39bc 76fd ab3d 493c 733d a59e 59bb
00000060: 1841 aabd a8e0 7d3b eb89 76bd 1134 933d
00000070: 03ca 5bbd 421e d1bb 22b4 a0bc 33da 803c
00000080: 1d58 aa3d 3f9a 093c 06ae 513d d982 8c3d
00000090: 9123 923d a80f fabc d9f1 a1bc e87a 2e3d
000000a0: ca93 c5bc 9887 293d 0130 9ebc b78d 75bd
000000b0: 8d5d 133d 3b07 5e3c 126a 213d 16d7 b33d
000000c0: fc2c 773d 589a ab3d c704 9b3b 11b7 9bbd
000000d0: e0fa 7dbd 90e3 60bd e385 9fbd 9278 35bd
000000e0: fca3 a6bd de02 a7bd 7e56 58bd 7a74 b2bd
000000f0: 4e39 5ebd 690c 0a3d ccfa 963d d762 d7bc
00000100: 659e d2bc ce4f 413d 8d9e 32bd 052f 2bbd
00000110: 0e10 5f3d f2b8 9dbd a012 313c c2e8 9f3d
00000120: c756 783c 89e8 c43c 1ed9 52bd 26d6 9fba
00000130: 8240 9f3b a1b6 b13c 2eab 0c3d f14a 9d3d
00000140: 062c 8abd ada2 2d3b 3de3 34bd a732 8fbd
00000150: fded e7bb 0357 9fbd a0aa 7c3d beb7 273c
00000160: a81f 43bd 9f31 3d3d 5f52 abbd 4909 0cbd
00000170: 5710 8dbc 3cd2 99bd 5737 66bd a55d 6cbc
00000180: df59 893d 56cd ae3d 025a 663d 962e 58bd
00000190: 76da 6cbd 6ef9 9d3d 340f 003d 84e5 193b
000001a0: 59fb 433c 127c 91bd 45c2 f1bc a340 ae3d
000001b0: af94 b2bc 6f4a 91bb 554e 96bd ea86 4abd
000001c0: de90 ecba 3ce2 60bd c995 33bc c055 133d
000001d0: aa11 b1bd 4a0f d73c 0762 6fbd 80b1 30bd
000001e0: 7bfd 0a3d a0ee 8f3d 87e5 c5bc 52a4 14bd
000001f0: 26af a3bd 22b0 3abd d981 9ebd 4fb8 a5bc
00000200: 6765 803c b387 aebd e90c 9e3d e18b 5a3d
00000210: 1415 b6bd 2153 36bd 471d f43c c5c4 94bc
00000220: bc2d 40bc e58d 2cbd f565 913d 0461 4abd
00000230: 24eb 9c3d 92dd 5d3b 56c6 7c3c c527 8a3d
00000240: 279b 6ebc d21f 4ebd 6317 88bc aa12 8e3d
00000250: 6650 86bd f559 a43c 7de7 b1bd 5ec9 343d
00000260: f9c2 053d ea8f 753b d9a5 113d 08f5 f0ba
00000270: 75a7 3e3d 724c 8fbd 563f 7cbc 0b9b 203d
00000280: 1943 b43d 5d6b 383d f4a1 83bd ae38 8b3d
00000290: ce77 a1bc d999 9abc bd87 a4bd 9a56 7bbc
000002a0: 0383 763d 0cf0 493c f0de 52bd 38e1 de3c
000002b0: ce10 f9bc 0345 a53d 57ec a1bd a4e8 f6bc
000002c0: 98c9 aebd 9641 18bd 8143 e43c e09b a93d
000002d0: af91 fa3b d7d8 ac3d d2aa 8d3c 2217 513d
000002e0: ca1d 913d 24a1 923d 42a4 4abd 89a7 a13d
000002f0: bdc4 513d 860f 2fbd 1dc4 2cbd 0aaa 9cbd
00000300: 0793 a23c 9fb9 92bd 05a4 0f3d 75a9 e43c
00000310: 1e45 9dbd cc4f c53c fd76 1cbc cd0b 2e3d
00000320: e9bb 4f3d 105d b8bd 3c03 a63d b585 923d
00000330: 9d0c 103d b161 aabd 3f33 0bbd 13d8 d1bc
00000340: 1d16 babc 7729 4c3d 69a0 033d 5566 8f3d
00000350: b82c 11bd 4827 e13c 4256 ee3c a667 9bbd
00000360: f45c b4bd a0db 3bbd 2dd5 773d 353d afbd
00000370: bb90 9dbd 74d0 4a3d 9254 433d 75de 943d
00000380: 669d 8dbd ee7c 84bd 94b8 393d 7d6b 9d3d
00000390: 2e9f 583d 41db 623c 0a07 dc3c 4f1b a73d
000003a0: 3de3 72bd 2df6 2dbd f1de 733d fd9f 80bd
000003b0: f7a1 47bd 7b24 843d 099d ce3c 938b d83c
000003c0: aecb 22bd 98a4 65bb c1ac a53d 9c5e 62bd
000003d0: d02b 363a 3341 223d 49b3 80bd d6e1 aa3d
000003e0: a6a3 3dbd 4ce8 c0bc efe9 c3bc 565e 75bd
000003f0: bca0 b1bd d622 4c3d 5d5e c03c f88a a9bd
0.027510406 -0.067429006 -0.055927254 -0.073484525 0.077014506 -0.083698444 0.06667723 -0.0029713423
-0.010279458 0.05528501 -0.008169523 0.055433113 0.063906096 -0.076739654 0.03401042 0.016685864
0.01900453 0.012903943 0.02417695 -0.042520702 -0.011308505 0.08397953 0.059383664 -0.0033206132
-0.08313197 0.0038738642 -0.060190123 0.07187665 -0.05365945 -0.006381781 -0.019617144 0.015729045
0.083175875 0.008398592 0.051191352 0.06860895 0.0713569 -0.030525044 -0.019768642 0.04259768
-0.024118323 0.041389078 -0.01931 -0.059949603 0.03597789 0.013551529 0.039407797 0.08781259
0.060345635 0.08379048 0.004730794 -0.076032765 -0.06200683 -0.05490452 -0.07789209 -0.044304438
-0.08136746 -0.08154844 -0.05281686 -0.087136224 -0.05425387 0.03370324 0.073720545 -0.026292248
-0.025710294 0.04719525 -0.043608237 -0.04179289 0.05445867 -0.07701291 0.010807663 0.07808067
0.015157408 0.024036663 -0.05147659 -0.0012194559 0.004859985 0.02169353 0.034342937 0.076803096
-0.06746678 0.0026494667 -0.044162024 -0.06992083 -0.007077931 -0.07780268 0.06168616 0.010236679
-0.04763761 0.0461899 -0.083653204 -0.034188543 -0.017219706 -0.07510802 -0.05620512 -0.0144266235
0.06706595 0.085352585 0.056238182 -0.052778803 -0.057825528 0.077135906 0.0312645 0.002348275
0.011961781 -0.07103743 -0.02951158 0.08508422 -0.021799413 -0.004433922 -0.073391594 -0.04944507
-0.0018048545 -0.054903254 -0.0109610045 0.03597045 -0.08645947 0.026252408 -0.058443096 -0.043138027
0.033933144 0.07027936 -0.024157299 -0.03628952 -0.07992391 -0.04557813 -0.0773961 -0.020229487
0.015673352 -0.08521976 0.07717306 0.053356055 -0.08890739 -0.04451287 0.029799117 -0.018160233
-0.011729654 -0.04212751 0.07099525 -0.049408928 0.07662037 0.003385399 0.015428146 0.06745867
-0.014563358 -0.050323315 -0.016612714 0.06937154 -0.065583035 0.020062426 -0.08686731 0.04413735
0.032656644 0.0037469813 0.035558555 -0.0018383572 0.04654642 -0.06997003 -0.01539596 0.03921036
0.0880186 0.045024265 -0.064273745 0.0679792 -0.019710448 -0.018872188 -0.080337025 -0.015340472
0.060183536 0.012325298 -0.05148214 0.027207002 -0.03040352 0.080698036 -0.079064064 -0.030140229
-0.08534545 -0.037171923 0.02786422 0.08281684 0.0076467614 0.084397964 0.017293368 0.05104745
0.0708576 0.071596414 -0.049473055 0.07893283 0.051213015 -0.042739414 -0.042179216 -0.0764962
0.019845499 -0.07164311 0.03506853 0.027912835 -0.07679199 0.024085902 -0.009549853 0.042491723
0.050716314 -0.09002125 0.08106086 0.07154409 0.03516828 -0.083194144 -0.03398442 -0.025615728
-0.022715623 0.04984423 0.0321354 0.0700194 -0.035443038 0.027484551 0.029093865 -0.07588129
-0.08806792 -0.045863748 0.060506035 -0.08556596 -0.07693621 0.049515203 0.047688074 0.07268993
-0.06914787 -0.06469141 0.045342043 0.076865174 0.05288618 0.0138462195 0.026858825 0.081595056
-0.059298743 -0.0424711 0.059538785 -0.06280515 -0.048738446 0.064522706 0.025221365 0.026433742
-0.039745025 -0.0035040732 0.08089591 -0.055266008 0.00069492776 0.03961296 -0.06284196 0.08343856
-0.046298645 -0.023548268 -0.02391526 -0.05990442 -0.08673236 0.04983791 0.023482496 -0.08278459

fc2.bias f4 [128]
00000000: 354a 9abd 793b 9b3d 8864 a0bd 5225 1abd
00000010: 6269 b9bc 3b5b 89bc d4ee 9dbc ed20 753d
00000020: f870 873d 41a8 b5bd 9ff2 a7bd 3a26 b1bd
00000030: f3ef e93d e7a3 2fbc 7b34 33bd 4e7e 1f3d
00000040: 6e45 3d3c 3f16 923c ba14 f33d 437b 833d
00000050: 05ed c23d 3d5c 71bd 1116 99bb 0c19 87bd
00000060: f5a0 02bd 23ca 59bc f903 4b3d 50dd 893d
00000070: 8a1c 4cbd 0f6e debc ec99 083d 28f3 0c3e
00000080: 708f 413e af82 b4bd 3d76 a93c 90a9 3c3d
00000090: 646b 433d bc35 b0bd fa24 87bd 0a18 643d
000000a0: db16 20bc 2db6 0f3d 97a3 933d 00d5 32bc
000000b0: e6c0 d4bc 5362 453d 6c9a 8dbd 1a69 2bbc
000000c0: 4061 5bbc 2f3d adbc 4c70 243d 5ef4 babc
000000d0: 3117 413b 74ac cd3c f9a3 4c3a 64d1 e8bc
000000e0: f30b ab3d 24c2 493d 5685 9abc 810f 133d
000000f0: 7b63 1ebd a482 353d b081 313d 4937 19bd
00000100: e859 743d 49a0 2abc 820e b83d 4c1f f5bc
00000110: 2217 2eba a151 97bc b5cc 1c3c 7b2a acbd
00000120: ee76 bc3d e58b 8dbd 0733 a8bd fdaf c1bd
00000130: 0bf9 bcbc bca6 8b3d 463a 173c 23e7 c3bb
00000140: 2d68 3fbd 4bed 3cbc 8557 dbbc 3021 8fbd
00000150: 9289 9fbc ff26 dc3c 833c 3a3d eb6c a4bd
00000160: e11e 993d 066d 4b3e a140 24bd 6c2f 9abd
00000170: 9673 533c 1f5d a33c fd97 c1bc 5d51 26bd
00000180: 00fe 58bb 7138 79bd 1afc 74bd aea2 e73c
00000190: 36c3 233c a228 a53c f3c9 8c3d c18f 61ba
000001a0: a644 a83d cc79 f43d dc3b 7bbd 26b1 503d
000001b0: 039e 453d 7a43 0abd 6f44 1e3e 95fb 25bd
000001c0: 5235 69bd 87cf 6c3d 26f2 273d 8646 b23d
000001d0: 0efe 8ebd 55b1 243d f4c7 b13c 0a21 58bd
000001e0: 38d2 42bc 565a 8d3d 7ddf 183d 0777 26bd
000001f0: 64f6 77ba 94ec ffbc 2df7 6e3d 5293 f03d
-0.07533685 0.07579703 -0.07831675 -0.037633248 -0.022633258 -0.016767135 -0.019278921 0.059845854
0.06613344 -0.088699825 -0.08200573 -0.08649869 0.1142272 -0.01072023 -0.04375122 0.038938813
0.011552198 0.017832873 0.11869188 0.06419995 0.09517864 -0.058925856 -0.00467182 -0.06596574
-0.03189178 -0.013292822 0.049564335 0.06731665 -0.049831904 -0.02715209 0.033349916 0.13764632
0.18902373 -0.088139884 0.020686263 0.046060145 0.047709838 -0.08603999 -0.065988496 0.055686988
-0.009771074 0.035085846 0.07208937 -0.010915041 -0.025970887 0.048189472 -0.06914219 -0.01046207
-0.013389885 -0.021147339 0.040146157 -0.022821601 0.0029463286 0.025106646 0.0007806416 -0.028420158
0.083518885 0.049257413 -0.018862408 0.035903458 -0.03866909 0.04431404 0.04333657 -0.03740624
0.059656054 -0.0104141915 0.08987142 -0.02992215 -0.00066410203 -0.01847154 0.00957029 -0.0840654
0.092023715 -0.069114484 -0.08212858 -0.09457395 -0.023067972 0.068189114 0.009230202 -0.0059784814
-0.04673021 -0.011531184 -0.026775131 -0.06988752 -0.019474778 0.026874064 0.045467865 -0.08028587
0.07476593 0.19865808 -0.040100697 -0.07528576 0.012905976 0.019941865 -0.023632044 -0.040604938
-0.003311038 -0.060844842 -0.059810735 0.028275814 0.009995272 0.020160977 0.06874456 -0.000860449
0.08216219 0.119372934 -0.061336383 0.050950192 0.048246395 -0.033755757 0.15455793 -0.04052313
-0.056935616 0.0578151 0.041002415 0.087048575 -0.06982051 0.04020818 0.02170179 -0.052765884
-0.01189094 0.06901996 0.03732251 -0.040640857 -0.00094590173 -0.031240739 0.058341194 0.11746849

fc3.weight f4 [13, 128]
00000000: 5771 56bc 93c0 a7bc 5060 8cbd ab3e a0bc
00000010: 8357 223d d250 aebd 9b1c 093d ad8f ac3d
00000020: c1d4 1b3d c9f0 3f3d daf8 c3bc 8445 f4bb
00000030: 6124 08be 0b35 2fbd 62ee b53c 4974 49bd
00000040: 2e77 553d dbf2 2cbd c545 b73b 3e80 3ebd
00000050: 906d 19be 9ed5 0abd db38 76bd b62e 8d3c
00000060: d70b 643c 7a5c 863d db0f 3d3d b8ec adbd
00000070: 03b2 0b3d 7be2 2c3d a95e c0bd d8cb 17be
00000080: 05a3 2fbe e3ae 33bd 6db8 e9bb 26ec b13d
00000090: 0756 983d b2bc b9bc 005f d73b eb4d 803b
000000a0: 8a95 0e3c 4b8f 75bd 978e 313c 0001 7f3d
000000b0: dd16 6d3c a357 a53d 481f a83d 2349 13be
000000c0: 6fb4 a03d cbe7 8ebd 727c 2bbd 635d 5f3d
000000d0: eac2 5c3b 9953 9c3d 7469 283d 6140 9abc
000000e0: 8e5b 043d 3fe9 81bd c451 153c b8c8 3fbd
000000f0: bfcf 873d ceaf c73d f933 0e3d ec67 4abd
00000100: 5247 d33b e03e 793d 8e07 abbd 886b 8fbc
00000110: 686b 0e3d 96db fbbb cbd7 023d a785 8139
00000120: bc46 babd b839 523c 5262 1aba 0216 83bd
00000130: 6a95 86bd 2dcd cb3b f3fa 0cbd a09f 2fbb
00000140: e9c2 853d 1fe8 3ebd 6aa9 453d cc6d 7c3d
00000150: 02d2 453d 1020 ecbd 0739 593c 807a 85bd
00000160: 2534 65bd 1143 dcbd eb9f 9c3d 2aa9 4a3d
00000170: 20f1 ca3c fee5 513d b8e2 acbd 41a7 acbd
00000180: c55f 163d d363 acbc a0a1 ec3c 4279 80bd
00000190: 8e63 ab3d 2b36 95bd 01eb 1f3d b3bb 3e3d
000001a0: c475 28be 47b5 a43c da0c 243d 939c 05bd
000001b0: ecf7 fbbc 4088 8a3d 43f2 d5bd 1f6f be3b
000001c0: f8c8 283d f426 123d 1949 35bd cd55 80bb
000001d0: e895 db3c 0a9c 0c3d c139 28bd 2335 233d
000001e0: 54fe 9cbc cd09 303b 3ea3 393d 6af2 823d
000001f0: 6ea1 44bc d94c 6b3d 5042 8b3d ad45 20bc
00000200: 28af b6bb c0dc 8abd e7d4 72bd ea88 503d
00000210: 7586 65bd 112e 55bd 0885 6a3d 16e6 48bd
00000220: 8504 8cbd 4731 6a3c 8640 1c3d 1517 a4bd
00000230: 2f97 11bd a198 8bbd febe 183d 057c 5abc
00000240: 89a5 f33c c840 c03d 603a 43bd 9afa 17bd
00000250: f160 f8bc e453 d93c 56ca 21bd 7036 79bd
00000260: ee74 dcbc 4b89 0e3d 53fc 183d 8c4a dcbd
00000270: ad1a 993d 57ea 75bd e4db ccbc 17a9 c4bd
00000280: 4b4c 01be 2015 963d b5d7 8abd a759 3e3d
00000290: b48e e33c f6e6 3abd f185 9b3d 1cdc 44bd
000002a0: 041b 02ba 2265 ab3d c277 aabd 587e 953d
000002b0: 34a9 32bd 12ec 92bd a51a 4b3d ed73 b8bd
000002c0: 31c8 95bd 5d57 42bd 1c0c 723d a2bd a53d
000002d0: b1ec dabb 17ed 393d af79 d53a 5689 87bd
000002e0: 7cd3 37bc a0e5 803d 0a26 80bc dea4 71bd
000002f0: 0897 943d 6ab6 96bc 2690 973d 48b0 4f3d
00000300: 9576 7d3c 875c c03c c293 3fbd f0f0 1dbd
00000310: d284 4dbd 6f40 0fbd d68a 4abd b034 55bc
00000320: fc10 c3bd c330 e9bc 6880 76bd 71fa adbd
00000330: 4a58 a53c f6d5 0e3d 03d5 12bd 2227 86bd
00000340: 5d0f 29bd 79f9 e6bd 190d c2bd ceda bb3d
00000350: 5702 443d 4598 db3c a5d4 bdbd 9363 6fbd
00000360: 5a03 9c3d 999e d6bd c1be 5fbd 2ac9 96bd
00000370: df63 dc3c c242 41bc 7ce3 5cbd 3024 9a3d
00000380: 4938 55bd 10c3 1c3c b98a fb3c c93e 2d3d
00000390: da84 973d 5224 a8bc 9c06 223d 63d8 e5bb
000003a0: d174 60bd 15d1 dcbd 567a 473d d017 d43c
000003b0: 4c10 ca3c 7af3 ddbb bfd5 cebc 0fd8 aebd
000003c0: 6976 853d 48a0 823d 45f9 413d 5393 5fbd
000003d0: 19e9 a8bd 2ea5 d0bc 006e 91bd e774 2dbd
000003e0: 4fed 7e3d c1dd 49bd c257 b43d 6180 36bd
000003f0: e39d 28bd ba14 91bd fce3 093d 66a9 74bc
-0.013088546 -0.020477569 -0.06854308 -0.019561132 0.03963424 -0.08511509 0.033474546 0.084258415
0.038044695 0.04686049 -0.023922373 -0.007454576 -0.13295127 -0.042775195 0.022208396 -0.049183164
0.05211561 -0.042223793 0.005593034 -0.04650902 -0.14983201 -0.033895127 -0.060112815 0.017234188
0.013918838 0.06560607 0.0461577 -0.08492416 0.034105312 0.042208176 -0.09393055 -0.14823854
-0.17152031 -0.043867957 -0.007132581 0.0868762 0.074382834 -0.022672985 0.006572604 0.0039155385
0.008702645 -0.059951108 0.010837219 0.062256813 0.014470783 0.08073356 0.082090914 -0.14383368
0.07846915 -0.06977805 -0.041866727 0.05453242 0.0033685514 0.076331325 0.041116193 -0.018829526
0.032313876 -0.06343316 0.009113733 -0.04682228 0.06631421 0.09750329 0.034717534 -0.049415514
0.006447711 0.060850978 -0.0835105 -0.01750733 0.0347704 -0.007686089 0.031944077 0.00024704376
-0.09095523 0.012831144 -0.00058892847 -0.06400682 -0.06571467 0.006219527 -0.03441901 -0.0026798025
0.06531317 -0.046608087 0.04825727 0.061628148 0.048295982 -0.11529553 0.013258225 -0.06517506
-0.055957932 -0.107549794 0.076476894 0.049477734 0.02477318 0.05124473 -0.08441681 -0.08430339
0.036712427 -0.021043694 0.028885663 -0.06273128 0.08368598 -0.07285722 0.039042477 0.046565723
-0.16451174 0.020105971 0.04005132 -0.032620024 -0.030757867 0.06764269 -0.104465984 0.0058115865
0.041207284 0.03568168 -0.044259164 -0.0039164783 0.02680488 0.034328498 -0.041070703 0.039845597
-0.019164242 0.002686131 0.045321696 0.06393893 -0.012001378 0.057446335 0.067997575 -0.009782237
-0.0055750795 -0.06780386 -0.05928507 0.05091182 -0.05603643 -0.052045885 0.057255775 -0.049047552
-0.068367995 0.014293975 0.03814747 -0.08012215 -0.03554457 -0.06816221 0.03729152 -0.013335233
0.02974202 0.09387356 -0.047663093 -0.037104227 -0.030319663 0.02652926 -0.039499603 -0.06084293
-0.026911225 0.0347989 0.03735001 -0.10756406 0.07475791 -0.060037937 -0.025007196 -0.09602564
-0.1262676 0.07328248 -0.06779424 0.046472218 0.027778007 -0.045630418 0.07593907 -0.048061475
-0.0004963132 0.08368899 -0.08323623 0.07299489 -0.043618396 -0.07173933 0.049585957 -0.09006486
-0.07313574 -0.047446597 0.05909358 0.0809281 -0.006681048 0.045392122 0.0016286875 -0.066179916
-0.011219855 0.062937975 -0.015643138 -0.05899512 0.072553694 -0.018397529 0.07400541 0.050705224
0.015470167 0.02348162 -0.046771772 -0.038559854 -0.050175495 -0.034973558 -0.04944881 -0.01301305
-0.09524724 -0.028465634 -0.06018105 -0.084950335 0.020183701 0.034872018 -0.035847675 -0.06550433
-0.041274417 -0.11278052 -0.094751544 0.09172593 0.047853794 0.026806006 -0.09269074 -0.05844457
0.07617827 -0.10479469 -0.054625276 -0.07362588 0.026903091 -0.011795701 -0.053927884 0.075264335
-0.05205563 0.009567991 0.030705797 0.042296205 0.07398386 -0.020525131 0.039557084 -0.0070143207
-0.054798905 -0.10782067 0.048700653 0.025890261 0.024665974 -0.0067734094 -0.025248406 -0.08537304
0.065167256 0.063782275 0.047356863 -0.05458386 -0.08247585 -0.025469389 -0.07101059 -0.042347815
0.062238034 -0.049283747 0.08805801 -0.044556025 -0.041166198 -0.070840314 0.03366469 -0.014932966

fc3.bias f4 [13]
00000000: d5c5 2a3d 67c5 8cbd a2e8 33bc 63c0 ef3c
00000010: 178f 923c a989 a1bd a8cc 99bd a601 d9bd
00000020: 9f5c b83c 930e 7bbd e029 a4bc ac5f 403d
00000030: ea4b df3c
0.041692574 -0.06873589 -0.010980757 0.029266542 0.017890496 -0.07887585 -0.07509738 -0.105960175
0.022505103 -0.061293196 -0.020039499 0.04696624 0.027257878
