models/model_episode_3800.pth (torch, 77430 bytes, 6 tensors)

fc1.weight f4 [128, 3]
0	0x3eda6d36	0.42661446
1	0x3f08815a	0.53322375
2	0xbe12aab9	-0.14322938
3	0x3f011a6a	0.5043093
4	0xbceaf4e5	-0.028681228
5	0x3e2cda15	0.16880067
6	0xbe818149	-0.2529395
7	0x3ed476a9	0.4149678
8	0x3f11def1	0.56980807
9	0xbefc7ffe	-0.493164
10	0x3f100d05	0.56269866
11	0x3dba93d9	0.09110231
12	0x3eca57d2	0.39520127
13	0x3e12e5da	0.14345494
14	0x3e9719ce	0.29511875
15	0xbdd9950c	-0.106241316
16	0x3f031a43	0.5121195
17	0x3d75bb4e	0.05999308
18	0xbe8dc719	-0.27690962
19	0x3e0ffa25	0.14060266
20	0xbe8831fe	-0.2660064
21	0xbd8aaa3c	-0.06770751
22	0xbe701f9e	-0.23449561
23	0x3ec4183c	0.3829974
24	0xbee55589	-0.4479182
25	0xbe631b2c	-0.22178334
26	0xbe365475	-0.17805655
27	0xbeb4b643	-0.35295305
28	0x3e131aa7	0.14365636
29	0xbf09e507	-0.53865093
30	0x3f067872	0.52527535
31	0xbee8e0e1	-0.4548407
32	0x3ef093bf	0.4698772
33	0x3dc4c6b6	0.096082136
34	0xbe3ff7ad	-0.18746825
35	0x3eb6ab07	0.35677359
36	0x3dab0ccd	0.08352051
37	0x3f0942f5	0.53617793
38	0x3dd8d7f7	0.10588067
39	0xbe2d5634	-0.16927415
40	0x3e8de8af	0.27716586
41	0xbdc69a0f	-0.09697353
42	0x3e79cb72	0.24394014
43	0x3f1cf732	0.6131469
44	0x3eb6b077	0.35681507
45	0xbea5eeee	-0.3240885
46	0x3ec8b2fe	0.3919906
47	0x3e096b86	0.13419923
48	0x3e961e23	0.29319867
49	0xbeb42bf6	-0.3518979
50	0xbf124f64	-0.5715239
51	0xbe801686	-0.25017184
52	0xbed8c855	-0.4234034
53	0x3f008f73	0.50218886
54	0x3e256834	0.16153032
55	0x3ea6a454	0.32547247
56	0x3e4ac4ac	0.19801587
57	0xba55287a	-0.00081313367
58	0x3f0b3b20	0.5438709
59	0xbed89698	-0.42302394
60	0x3d14e5f7	0.036352124
61	0xbec9c2db	-0.39406475
62	0x3e364cbd	0.17802711
63	0xbe4b99e2	-0.1988292
64	0x3e3527c5	0.17690952
65	0xbdf65883	-0.12028601
66	0x3ef52bc6	0.4788496
67	0xbeaf3465	-0.3421966
68	0xbeb04c18	-0.34433055
69	0xbe9e4da5	-0.30918613
70	0x3f28f57d	0.65999585
71	0x3e6d5468	0.2317673
72	0x3f0e38e6	0.5555557
73	0xbef3f454	-0.47647345
74	0xbf1299d7	-0.5726599
75	0xbee744f3	-0.45169792
76	0xbec6d961	-0.38837722
77	0x3e6f7662	0.23385003
78	0x3e50a735	0.20376284
79	0x3f0dfc6f	0.5546331
80	0xbe968719	-0.29399946
81	0xbe9a55fd	-0.3014373
82	0x3ee32eb1	0.4437156
83	0xbe486656	-0.19570288
84	0x3e9e2b37	0.30892345
85	0xbd9caa96	-0.07649724
86	0x3eb25fe8	0.34838796
87	0xbeea4fed	-0.45764104
88	0xbe99c2b0	-0.30031347
89	0x3e2af80a	0.16696182
90	0x3e017d30	0.12645411
91	0xbcb8c11a	-0.022553016
92	0x3ec6b2ad	0.38808194
93	0x3ec8f431	0.39248803
94	0xbed65d19	-0.41867903
95	0xbe9dd02f	-0.30822894
96	0x3f03835d	0.5137232
97	0xbe5852e6	-0.21125373
98	0xbe540033	-0.20703201
99	0xbf0f0319	-0.558641
100	0xbea94881	-0.3306313
101	0x3e13af83	0.14422421
102	0xbd9c120c	-0.0762063
103	0xbed69306	-0.41909045
104	0x3c5de251	0.013542728
105	0xbec9ebd2	-0.3943773
106	0xbefac9f4	-0.48982203
107	0xbea2c718	-0.3179252
108	0xbf015b99	-0.5053039
109	0xbebc38ce	-0.3676209
110	0x3f13be6d	0.5771244
111	0x3e05e41b	0.13075297
112	0x3e8be0c0	0.27319908
113	0xbf09da30	-0.5384855
114	0xbec22500	-0.37918854
115	0xbe44c95d	-0.19217439
116	0x3db8e532	0.090280905
117	0xbeb917b3	-0.36150894
118	0xbdb8efa2	-0.09030081
119	0xbea3b214	-0.319718
120	0xbbe4146f	-0.0069604437
121	0xbe25900e	-0.16168234
122	0xbd27e53a	-0.04099009
123	0xbec84f42	-0.3912297
124	0xbecae694	-0.39629042
125	0xbeac749d	-0.3368272
126	0xbe4a5e58	-0.19762552
127	0xbee95066	-0.45569152
128	0x3ef7dac0	0.4840908
129	0xbded2660	-0.11579585
130	0x3f1957d9	0.5989967
131	0x3e7bec7e	0.24601933
132	0xbedf57fa	-0.43621808
133	0x3f01588d	0.5052574
134	0xbe084acd	-0.13309784
135	0xbe629ffb	-0.2213134
136	0xbef55f21	-0.4792414
137	0xbf12f048	-0.5739789
138	0x3e0e9c21	0.13926746
139	0xbd0ae3da	-0.033908702
140	0x3e89b180	0.26893234
141	0xbec68557	-0.38773605
142	0x3f0be0de	0.54639995
143	0xbecbc89a	-0.39801484
144	0xbde9060e	-0.11378108
145	0x3e2934bb	0.16524021
146	0x3eb12bbc	0.3460368
147	0x3eeab7ea	0.4584344
148	0x3f1d79d6	0.6151403
149	0xbedf02c9	-0.43556812
150	0x3e14c991	0.14530016
151	0xbe7e4b18	-0.24833333
152	0xbd819315	-0.06326882
153	0xbedbd384	-0.4293481
154	0x3f207a5b	0.626867
155	0xbed1872d	-0.40923443
156	0x3e87f849	0.26556614
157	0x3e872faa	0.26403552
158	0x3e81b326	0.25331992
159	0xbead4964	-0.33845055
160	0x3f1405eb	0.5782153
161	0x3e03f0c5	0.12884815
162	0x3d981b10	0.07427037
163	0xbf02403d	-0.5087927
164	0x3e782e87	0.24236499
165	0xbdd0ca5a	-0.101948455
166	0xbe88826e	-0.2666201
167	0x3f01e00f	0.5073251
168	0x3e03cf0e	0.12871954
169	0xbea38ce4	-0.3194343
170	0xbe959dc9	-0.29221943
171	0xbd936818	-0.07197589
172	0x3ec8a6e2	0.3918982
173	0xbdebaeba	-0.11507936
174	0xbea8a9f1	-0.32942155
175	0xbe4a745b	-0.19770949
176	0xbedcd67b	-0.43132386
177	0x3e75dd38	0.2401017
178	0x3f170e63	0.5900633
179	0xbeff4fc1	-0.49865535
180	0x3e12547b	0.14290039
181	0x3ec6acd8	0.38803744
182	0x3dfd2acc	0.123616785
183	0xbe79d895	-0.24399026
184	0x3ec751c0	0.38929558
185	0x3eb42c47	0.3519003
186	0x3e5d117a	0.21588698
187	0xbdcfc67c	-0.1014528
188	0xbe1c8d62	-0.15288308
189	0x3d84b0c6	0.06479029
190	0x3c304644	0.01075894
191	0xbdf4a1f7	-0.11944955
192	0x3ec1fc65	0.37887874
193	0x3f1d4047	0.61426204
194	0x3bd55072	0.006509834
195	0xbe045e8c	-0.12926692
196	0x3c0a086f	0.008424862
197	0xbd0d331b	-0.034472566
198	0x3e20a4aa	0.15687814
199	0x3e84dd0b	0.25949892
200	0xbf03553c	-0.5130193
201	0xbe1cb6d2	-0.15304115
202	0x3f14ad1e	0.58076656
203	0x3e99e78b	0.30059466
204	0xbceb3dd1	-0.028716
205	0xbeb23890	-0.3480878
206	0xbeb4da04	-0.35322583
207	0xbf06a33b	-0.5259282
208	0xbe4bad02	-0.19890216
209	0x3e3ce596	0.18446955
210	0x3ec5ebe1	0.38656524
211	0x3ec5f296	0.3866164
212	0xbeea2db4	-0.45737994
213	0xbeac20ba	-0.33618718
214	0x3b492ba8	0.0030696187
215	0x3f17f9ff	0.5936584
216	0x3dab0b82	0.08351804
217	0xbe191af0	-0.14951682
218	0x3e749759	0.2388586
219	0xbe492ae8	-0.19645274
220	0xbe726849	-0.23672594
221	0x3eefc316	0.46828526
222	0xbe86694f	-0.2625222
223	0xbded08d9	-0.11573953
224	0xbf1308a2	-0.5743505
225	0x3ec73ebf	0.3891506
226	0x3f0f242c	0.5591457
227	0x3e7df90b	0.24802034
228	0xbece1dd8	-0.40257144
229	0xbf11df12	-0.56981003
230	0xbef01533	-0.46891174
231	0x3ee07bdf	0.43844506
232	0x3ec232bc	0.37929332
233	0x3eff1670	0.49821806
234	0x3e9afe21	0.3027201
235	0x3e87a6a0	0.26494312
236	0x3cd0c416	0.025484126
237	0xbee0cee1	-0.43907836
238	0xbefd43c4	-0.49465764
239	0xbf0a3eff	-0.54002374
240	0x3e59b0ad	0.21258803
241	0xbea658b8	-0.32489562
242	0xbdf0de28	-0.11761123
243	0xbeaa1f0c	-0.33226812
244	0xbdd776ac	-0.10520682
245	0xbed00e52	-0.40635926
246	0xbec126e0	-0.37724972
247	0x3e441c12	0.19151333
248	0xbe2fb459	-0.17158641
249	0x3eb67d1c	0.35642326
250	0xbe3daa0e	-0.18521902
251	0xbed8d84d	-0.42352524
252	0xbddb87f2	-0.10719289
253	0xbe2f154f	-0.17097972
254	0xbe2a87cf	-0.1665337
255	0xbf07c405	-0.5303348

fc1.bias f4 [128]
0	0x3d4ffc48	0.050777704
1	0x3f1c386f	0.6102361
2	0xbed62fa6	-0.41833228
3	0xbe2d9bea	-0.16954008
4	0x3ec80abc	0.3907069
5	0xbd94175d	-0.07231019
6	0xbdff8098	-0.12475699
7	0xbe7668f7	-0.24063478
8	0x3edfcfd6	0.43713254
9	0x3eba0a6f	0.36336085
10	0x3e623f1e	0.2209439
11	0xbea61e4b	-0.32444987
12	0xbecdeac9	-0.4021819
13	0x3e30c329	0.17261948
14	0x3e841113	0.25794277
15	0xbe5d2118	-0.21594656
16	0xbe256b12	-0.16154125
17	0x3ecdbaa7	0.40181467
18	0x3df5c677	0.12000745
19	0x3ddc81af	0.10766923
20	0xbe117f0c	-0.14208621
21	0xbf05d901	-0.52284247
22	0xbf0af8bc	-0.5428579
23	0xbe144ef2	-0.1448324
24	0xbe9642f2	-0.2934795
25	0x3e38314c	0.17987555
26	0xbdd837d0	-0.105575204
27	0xbdbf6c9c	-0.093468875
28	0x3f1999b8	0.6000018
29	0x3e44a79a	0.1920456
30	0x3f065a07	0.5248112
31	0xbe8f1af8	-0.27950263
32	0xbe812aaf	-0.25227877
33	0x3e594ad9	0.21219958
34	0xbec4f402	-0.38467413
35	0xbec13cb2	-0.3774162
36	0xbce470d1	-0.027885826
37	0xbdf87e15	-0.12133423
38	0xbedd99f5	-0.43281522
39	0x3efe3ead	0.49657193
40	0x3f020967	0.50795597
41	0x3dbfd0a6	0.093659684
42	0xbdcddfb5	-0.10052434
43	0xbee25727	-0.44207117
44	0xbddef185	-0.1088591
45	0x3e168341	0.14698507
46	0x3eb4a374	0.35280955
47	0x3d2d4321	0.042300347
48	0xbe448ec4	-0.19195086
49	0x3ecc757a	0.39933378
50	0xbeeb6b1d	-0.45980158
51	0x3ee7fa72	0.45308262
52	0xbe2f3515	-0.17110093
53	0x3d5275c9	0.05138186
54	0xbde9a9e4	-0.11409357
55	0x3d8324f9	0.06403536
56	0xbe32a966	-0.17447433
57	0x3ef3d80e	0.47625774
58	0xbc75ea46	-0.015009468
59	0x3f152eac	0.5827434
60	0x3f22cb48	0.6359143
61	0xbe4f2f9e	-0.20233008
62	0xbed7a534	-0.42118227
63	0x3f10b1a3	0.5652105
64	0x3f0f2b4b	0.55925435
65	0xbee1b506	-0.44083422
66	0x3d330e40	0.04371476
67	0xbef3db40	-0.47628212
68	0xbef1fb0a	-0.4726184
69	0x3dcedcae	0.10100685
70	0x3e86ce56	0.26329297
71	0x3e55c4b6	0.2087582
72	0xbe20e7d4	-0.15713435
73	0x3f2893cb	0.65850514
74	0x3da90f1d	0.08254836
75	0xbe6c434a	-0.23072544
76	0xbd05e1c0	-0.032685995
77	0x3e6c1563	0.23055033
78	0x3e9d1bdd	0.3068532
79	0xbed103f5	-0.4082333
80	0x3e34eaeb	0.17667739
81	0xbe9704b1	-0.29495767
82	0xbef5a0f5	-0.47974363
83	0xbea175f3	-0.315353
84	0x3f269543	0.65071505
85	0x3f1e3a69	0.61807877
86	0x3f17d2b8	0.59305906
87	0x3ed2717e	0.41102213
88	0x3f0c500c	0.5480964
89	0xbd9e4406	-0.07727818
90	0xbea2a632	-0.31767422
91	0x3ec1987e	0.37811655
92	0xbe35df51	-0.1776097
93	0xbec77e1b	-0.38963398
94	0xbe3ccadb	-0.18436758
95	0x3df823f0	0.121162295
96	0x3ec649de	0.3872823
97	0xbe65a148	-0.22424805
98	0xbeadfb6f	-0.3398089
99	0x3d9f7fd6	0.07788055
100	0xbeae3d09	-0.3403094
101	0xbec074b7	-0.37589046
102	0x3ed5bba4	0.4174472
103	0xbb40602b	-0.0029354196
104	0x3f23ccce	0.6398438
105	0x3f23139b	0.6370179
106	0x3e7fda23	0.24985556
107	0x3e948276	0.29005784
108	0x3e082531	0.13295437
109	0x3c14241e	0.009041814
110	0x3d6b290d	0.057412196
111	0x3e14b552	0.14522293
112	0x3e7c6753	0.2464879
113	0x3f136b94	0.57586026
114	0xbe193772	-0.14962557
115	0xbe491063	-0.19635157
116	0xbcdea76c	-0.027179442
117	0xbe72fe88	-0.23729908
118	0x3e3fbd9b	0.18724672
119	0x3f02dcf2	0.51118386
120	0x3f0c3ab6	0.54777086
121	0x3e9c86d5	0.3057162
122	0xbed98b37	-0.42489025
123	0xbe5c7636	-0.21529469
124	0xbe01e515	-0.12685044
125	0xbca674dc	-0.020319395
126	0x3c7e8c56	0.015536388
127	0xbf07ad7f	-0.5299911

fc2.weight f4 [128, 128]
0	0x3ce15d81	0.027510406
1	0xbd8a1838	-0.067429006
2	0xbd6513fa	-0.055927254
3	0xbd967f0e	-0.073484525
4	0x3d9db9c8	0.077014506
5	0xbdab6a17	-0.083698444
6	0x3d888e12	0.06667723
7	0xbb42bada	-0.0029713423
8	0xbc286b2c	-0.010279458
9	0x3d627289	0.05528501
10	0xbc05d977	-0.008169523
11	0x3d630dd5	0.055433113
12	0x3d82e133	0.063906096
13	0xbd9d29ae	-0.076739654
14	0x3d0b4e83	0.03401042
15	0x3c88b0cb	0.016685864
16	0x3c9baf63	0.01900453
17	0x3c536b0f	0.012903943
18	0x3cc60ebd	0.02417695
19	0xbd2e2a30	-0.042520702
20	0xbc39474f	-0.011308505
21	0x3dabfd76	0.08397953
22	0x3d733c49	0.059383664
23	0xbb599ea5	-0.0033206132
24	0xbdaa4118	-0.08313197
25	0x3b7de0a8	0.0038738642
26	0xbd7689eb	-0.060190123
27	0x3d933411	0.07187665
28	0xbd5bca03	-0.05365945
29	0xbbd11e42	-0.006381781
30	0xbca0b422	-0.019617144
31	0x3c80da33	0.015729045
32	0x3daa581d	0.083175875
33	0x3c099a3f	0.008398592
34	0x3d51ae06	0.051191352
35	0x3d8c82d9	0.06860895
36	0x3d922391	0.0713569
37	0xbcfa0fa8	-0.030525044
38	0xbca1f1d9	-0.019768642
39	0x3d2e7ae8	0.04259768
40	0xbcc593ca	-0.024118323
41	0x3d298798	0.041389078
42	0xbc9e3001	-0.01931
43	0xbd758db7	-0.059949603
44	0x3d135d8d	0.03597789
45	0x3c5e073b	0.013551529
46	0x3d216a12	0.039407797
47	0x3db3d716	0.08781259
48	0x3d772cfc	0.060345635
49	0x3dab9a58	0.08379048
50	0x3b9b04c7	0.004730794
51	0xbd9bb711	-0.076032765
52	0xbd7dfae0	-0.06200683
53	0xbd60e390	-0.05490452
54	0xbd9f85e3	-0.07789209
55	0xbd357892	-0.044304438
56	0xbda6a3fc	-0.08136746
57	0xbda702de	-0.08154844
58	0xbd58567e	-0.05281686
59	0xbdb2747a	-0.087136224
60	0xbd5e394e	-0.05425387
61	0x3d0a0c69	0.03370324
62	0x3d96facc	0.073720545
63	0xbcd762d7	-0.026292248
64	0xbcd29e65	-0.025710294
65	0x3d414fce	0.04719525
66	0xbd329e8d	-0.043608237
67	0xbd2b2f05	-0.04179289
68	0x3d5f100e	0.05445867
69	0xbd9db8f2	-0.07701291
70	0x3c3112a0	0.010807663
71	0x3d9fe8c2	0.07808067
72	0x3c7856c7	0.015157408
73	0x3cc4e889	0.024036663
74	0xbd52d91e	-0.05147659
75	0xba9fd626	-0.0012194559
76	0x3b9f4082	0.004859985
77	0x3cb1b6a1	0.02169353
78	0x3d0cab2e	0.034342937
79	0x3d9d4af1	0.076803096
80	0xbd8a2c06	-0.06746678
81	0x3b2da2ad	0.0026494667
82	0xbd34e33d	-0.044162024
83	0xbd8f32a7	-0.06992083
84	0xbbe7edfd	-0.007077931
85	0xbd9f5703	-0.07780268
86	0x3d7caaa0	0.06168616
87	0x3c27b7be	0.010236679
88	0xbd431fa8	-0.04763761
89	0x3d3d319f	0.0461899
90	0xbdab525f	-0.083653204
91	0xbd0c0949	-0.034188543
92	0xbc8d1057	-0.017219706
93	0xbd99d23c	-0.07510802
94	0xbd663757	-0.05620512
95	0xbc6c5da5	-0.0144266235
96	0x3d8959df	0.06706595
97	0x3daecd56	0.085352585
98	0x3d665a02	0.056238182
99	0xbd582e96	-0.052778803
100	0xbd6cda76	-0.057825528
101	0x3d9df96e	0.077135906
102	0x3d000f34	0.0312645
103	0x3b19e584	0.002348275
104	0x3c43fb59	0.011961781
105	0xbd917c12	-0.07103743
106	0xbcf1c245	-0.02951158
107	0x3dae40a3	0.08508422
108	0xbcb294af	-0.021799413
109	0xbb914a6f	-0.004433922
110	0xbd964e55	-0.073391594
111	0xbd4a86ea	-0.04944507
112	0xbaec90de	-0.0018048545
113	0xbd60e23c	-0.054903254
114	0xbc3395c9	-0.0109610045
115	0x3d1355c0	0.03597045
116	0xbdb111aa	-0.08645947
117	0x3cd70f4a	0.026252408
118	0xbd6f6207	-0.058443096
119	0xbd30b180	-0.043138027
120	0x3d0afd7b	0.033933144
121	0x3d8feea0	0.07027936
122	0xbcc5e587	-0.024157299
123	0xbd14a452	-0.03628952
124	0xbda3af26	-0.07992391
125	0xbd3ab022	-0.04557813
126	0xbd9e81d9	-0.0773961
127	0xbca5b84f	-0.020229487
128	0x3c806567	0.015673352
129	0xbdae87b3	-0.08521976
130	0x3d9e0ce9	0.07717306
131	0x3d5a8be1	0.053356055
132	0xbdb61514	-0.08890739
133	0xbd365321	-0.04451287
134	0x3cf41d47	0.029799117
135	0xbc94c4c5	-0.018160233
136	0xbc402dbc	-0.011729654
137	0xbd2c8de5	-0.04212751
138	0x3d9165f5	0.07099525
139	0xbd4a6104	-0.049408928
140	0x3d9ceb24	0.07662037
141	0x3b5ddd92	0.003385399
142	0x3c7cc656	0.015428146
143	0x3d8a27c5	0.06745867
144	0xbc6e9b27	-0.014563358
145	0xbd4e1fd2	-0.050323315
146	0xbc881763	-0.016612714
147	0x3d8e12aa	0.06937154
148	0xbd865066	-0.065583035
149	0x3ca459f5	0.020062426
150	0xbdb1e77d	-0.08686731
151	0x3d34c95e	0.04413735
152	0x3d05c2f9	0.032656644
153	0x3b758fea	0.0037469813
154	0x3d11a5d9	0.035558555
155	0xbaf0f508	-0.0018383572
156	0x3d3ea775	0.04654642
157	0xbd8f4c72	-0.06997003
158	0xbc7c3f56	-0.01539596
159	0x3d209b0b	0.03921036
160	0x3db44319	0.0880186
161	0x3d386b5d	0.045024265
162	0xbd83a1f4	-0.064273745
163	0x3d8b38ae	0.0679792
164	0xbca177ce	-0.019710448
165	0xbc9a99d9	-0.018872188
166	0xbda487bd	-0.080337025
167	0xbc7b569a	-0.015340472
168	0x3d768303	0.060183536
169	0x3c49f00c	0.012325298
170	0xbd52def0	-0.05148214
171	0x3cdee138	0.027207002
172	0xbcf910ce	-0.03040352
173	0x3da54503	0.080698036
174	0xbda1ec57	-0.079064064
175	0xbcf6e8a4	-0.030140229
176	0xbdaec998	-0.08534545
177	0xbd184196	-0.037171923
178	0x3ce44381	0.02786422
179	0x3da99be0	0.08281684
180	0x3bfa91af	0.0076467614
181	0x3dacd8d7	0.084397964
182	0x3c8daad2	0.017293368
183	0x3d511722	0.05104745
184	0x3d911dca	0.0708576
185	0x3d92a124	0.071596414
186	0xbd4aa442	-0.049473055
187	0x3da1a789	0.07893283
188	0x3d51c4bd	0.051213015
189	0xbd2f0f86	-0.042739414
190	0xbd2cc41d	-0.042179216
191	0xbd9caa0a	-0.0764962
192	0x3ca29307	0.019845499
193	0xbd92b99f	-0.07164311
194	0x3d0fa405	0.03506853
195	0x3ce4a975	0.027912835
196	0xbd9d451e	-0.07679199
197	0x3cc54fcc	0.024085902
198	0xbc1c76fd	-0.009549853
199	0x3d2e0bcd	0.042491723
200	0x3d4fbbe9	0.050716314
201	0xbdb85d10	-0.09002125
202	0x3da6033c	0.08106086
203	0x3d9285b5	0.07154409
204	0x3d100c9d	0.03516828
205	0xbdaa61b1	-0.083194144
206	0xbd0b333f	-0.03398442
207	0xbcd1d813	-0.025615728
208	0xbcba161d	-0.022715623
209	0x3d4c2977	0.04984423
210	0x3d03a069	0.0321354
211	0x3d8f6655	0.0700194
212	0xbd112cb8	-0.035443038
213	0x3ce12748	0.027484551
214	0x3cee5642	0.029093865
215	0xbd9b67a6	-0.07588129
216	0xbdb45cf4	-0.08806792
217	0xbd3bdba0	-0.045863748
218	0x3d77d52d	0.060506035
219	0xbdaf3d35	-0.08556596
220	0xbd9d90bb	-0.07693621
221	0x3d4ad074	0.049515203
222	0x3d435492	0.047688074
223	0x3d94de75	0.07268993
224	0xbd8d9d66	-0.06914787
225	0xbd847cee	-0.06469141
226	0x3d39b894	0.045342043
227	0x3d9d6b7d	0.076865174
228	0x3d589f2e	0.05288618
229	0x3c62db41	0.0138462195
230	0x3cdc070a	0.026858825
231	0x3da71b4f	0.081595056
232	0xbd72e33d	-0.059298743
233	0xbd2df62d	-0.0424711
234	0x3d73def1	0.059538785
235	0xbd809ffd	-0.06280515
236	0xbd47a1f7	-0.048738446
237	0x3d84247b	0.064522706
238	0x3cce9d09	0.025221365
239	0x3cd88b93	0.026433742
240	0xbd22cbae	-0.039745025
241	0xbb65a498	-0.0035040732
242	0x3da5acc1	0.08089591
243	0xbd625e9c	-0.055266008
244	0x3a362bd0	0.00069492776
245	0x3d224133	0.03961296
246	0xbd80b349	-0.06284196
247	0x3daae1d6	0.08343856
248	0xbd3da3a6	-0.046298645
249	0xbcc0e84c	-0.023548268
250	0xbcc3e9ef	-0.02391526
251	0xbd755e56	-0.05990442
252	0xbdb1a0bc	-0.08673236
253	0x3d4c22d6	0.04983791
254	0x3cc05e5d	0.023482496
255	0xbda98af8	-0.08278459

fc2.bias f4 [128]
0	0xbd9a4a35	-0.07533685
1	0x3d9b3b79	0.07579703
2	0xbda06488	-0.07831675
3	0xbd1a2552	-0.037633248
4	0xbcb96962	-0.022633258
5	0xbc895b3b	-0.016767135
6	0xbc9deed4	-0.019278921
7	0x3d7520ed	0.059845854
8	0x3d8770f8	0.06613344
9	0xbdb5a841	-0.088699825
10	0xbda7f29f	-0.08200573
11	0xbdb1263a	-0.08649869
12	0x3de415b0	0.11136949
13	0xbc2fa3e7	-0.01072023
14	0xbd33347b	-0.04375122
15	0x3d1e409e	0.038635843
16	0x3c3d456e	0.011552198
17	0x3c92163f	0.017832873
18	0x3df368d0	0.11885226
19	0x3d837b43	0.06419995
20	0x3dbe419a	0.09289856
21	0xbd715c3d	-0.058925856
22	0xbb991611	-0.00467182
23	0xbd87190c	-0.06596574
24	0xbd02a0f5	-0.03189178
25	0xbc59ca23	-0.013292822
26	0x3d4b03f9	0.049564335
27	0x3d850b56	0.06496303
28	0xbd4c1c8a	-0.049831904
29	0xbcde6e0f	-0.02715209
30	0x3d0899ec	0.033349916
31	0x3e0dcbc5	0.13847263
32	0x3e422507	0.18959437
33	0xbdb482af	-0.088139884
34	0x3ca9763d	0.020686263
35	0x3d3ca990	0.046060145
36	0x3d436b64	0.047709838
37	0xbdb035bc	-0.08603999
38	0xbd8724fa	-0.065988496
39	0x3d5fdb2b	0.054652374
40	0xbc2016db	-0.009771074
41	0x3d0fb62d	0.035085846
42	0x3d93a397	0.07208937
43	0xbc32d500	-0.010915041
44	0xbcd4c0e6	-0.025970887
45	0x3d456253	0.048189472
46	0xbd8d9a6c	-0.06914219
47	0xbc53486c	-0.012895685
48	0xbc5b6140	-0.013389885
49	0xbcad3d2f	-0.021147339
50	0x3d24704c	0.040146157
51	0xbcbaf45e	-0.022821601
52	0x3b411731	0.0029463286
53	0x3ccdac74	0.025106646
54	0x3ad4476a	0.00161956
55	0xbce8d164	-0.028420158
56	0x3da5643f	0.08075761
57	0x3d49c224	0.049257413
58	0xbc9a8556	-0.018862408
59	0x3d0df68f	0.034658965
60	0xbd1e637b	-0.03866909
61	0x3d3582a4	0.04431404
62	0x3d3181b0	0.04333657
63	0xbd193749	-0.03740624
64	0x3d6acaf2	0.05732245
65	0xbc2aa049	-0.0104141915
66	0x3db8949c	0.0901272
67	0xbd04b7e7	-0.032401945
68	0xba2e1722	-0.00066410203
69	0xbc9751a1	-0.01847154
70	0x3c1cccb5	0.00957029
71	0xbdac2a7b	-0.0840654
72	0x3dbf9f5f	0.093565695
73	0xbd8d8be5	-0.069114484
74	0xbda83307	-0.08212858
75	0xbdc1affd	-0.09457395
76	0xbcbcf90b	-0.023067972
77	0x3d8f5ab2	0.06999721
78	0x3c173a46	0.009230202
79	0xbbc3e723	-0.0059784814
80	0xbd3f682d	-0.04673021
81	0xbc69d94d	-0.014273
82	0xbcdb5785	-0.026775131
83	0xbd8f2130	-0.06988752
84	0xbc9f8992	-0.019474778
85	0x3cd33192	0.025780473
86	0x3d2c7a14	0.04210861
87	0xbda46ceb	-0.08028587
88	0x3d991ee1	0.07476593
89	0x3e4b17d9	0.19833316
90	0xbd2440a1	-0.040100697
91	0xbd9a2f6c	-0.07528576
92	0x3c537396	0.012905976
93	0x3ca35d1f	0.019941865
94	0xbcc197fd	-0.023632044
95	0xbd26515d	-0.040604938
96	0xbb58fe00	-0.003311038
97	0xbd793871	-0.060844842
98	0xbd74fc1a	-0.059810735
99	0x3ce7a2ae	0.028275814
100	0x3c23c336	0.009995272
101	0x3ca528a2	0.020160977
102	0x3d8cc9f3	0.06874456
103	0xba618fc1	-0.000860449
104	0x3da56bbe	0.08077191
105	0x3df545c5	0.11976198
106	0xbd7b3bdc	-0.061336383
107	0x3d50b126	0.050950192
108	0x3d459e03	0.048246395
109	0xbd0a437a	-0.033755757
110	0x3e1ccb41	0.1531191
111	0xbd25fb95	-0.04052313
112	0xbd693552	-0.056935616
113	0x3d6ccf87	0.0578151
114	0x3d27f226	0.041002415
115	0x3daca1a0	0.08429265
116	0xbd8efe0e	-0.06982051
117	0x3d24b155	0.04020818
118	0x3cb1c7f4	0.02170179
119	0xbd58210a	-0.052765884
120	0xbc42d238	-0.01189094
121	0x3d88482b	0.0665439
122	0x3d18df7d	0.03732251
123	0xbd267707	-0.040640857
124	0xba77f664	-0.00094590173
125	0xbcffec94	-0.031240739
126	0x3d6ef72d	0.058341194
127	0x3df11026	0.11770658

fc3.weight f4 [13, 128]
0	0xbc567157	-0.013088546
1	0xbca7c093	-0.020477569
2	0xbd8c6050	-0.06854308
3	0xbca03eab	-0.019561132
4	0x3d225783	0.03963424
5	0xbdae50d2	-0.08511509
6	0x3d091c9b	0.033474546
7	0x3dac8fad	0.084258415
8	0x3d1bd4c1	0.038044695
9	0x3d3ff0c9	0.04686049
10	0xbcc3f8da	-0.023922373
11	0xbbf44584	-0.007454576
12	0xbe080f6b	-0.13287131
13	0xbd2f350b	-0.042775195
14	0x3cb5ee62	0.022208396
15	0xbd4857cc	-0.048911855
16	0x3d55772e	0.05211561
17	0xbd2cf2db	-0.042223793
18	0x3bbed863	0.005824135
19	0xbd3e803e	-0.04650902
20	0xbe196303	-0.14979176
21	0xbd0ad59e	-0.033895127
22	0xbd7638db	-0.060112815
23	0x3c8d2eb6	0.017234188
24	0x3c640bd7	0.013918838
25	0x3d865c7a	0.06560607
26	0x3d3d0fdb	0.0461577
27	0xbdad7a0b	-0.084705435
28	0x3d0bb203	0.034105312
29	0x3d2ce27b	0.042208176
30	0xbdc05ea9	-0.09393055
31	0xbe178a74	-0.1479891
32	0xbe2f5737	-0.17123114
33	0xbd33aee3	-0.043867957
34	0xbbe9b86d	-0.007132581
35	0x3db1ec26	0.0868762
36	0x3d985607	0.074382834
37	0xbcb9bcb2	-0.022672985
38	0x3bd75f00	0.006572604
39	0x3b851e83	0.004062475
40	0x3c0e958a	0.008702645
41	0xbd758f4b	-0.059951108
42	0x3c318e97	0.010837219
43	0x3d7f0100	0.062256813
44	0x3c6d16dd	0.014470783
45	0x3da557a3	0.08073356
46	0x3da81f48	0.082090914
47	0xbe13364c	-0.14376181
48	0x3da0b46f	0.07846915
49	0xbd8ee7cb	-0.06977805
50	0xbd2b7c72	-0.041866727
51	0x3d5f5d63	0.05453242
52	0x3b5cc2ea	0.0033685514
53	0x3d9c5399	0.076331325
54	0x3d289bf1	0.041164342
55	0xbc9a4061	-0.018829526
56	0x3d048dc8	0.032361776
57	0xbd81e93f	-0.06343316
58	0x3c1551c4	0.009113733
59	0xbd3f0cce	-0.04664307
60	0x3d87cfbf	0.06631421
61	0x3dc7afce	0.09750329
62	0x3d0e33f9	0.034717534
63	0xbd4a67ec	-0.049415514
64	0x3bd4208f	0.006473608
65	0x3d793ee0	0.060850978
66	0xbdaa5226	-0.0831645
67	0xbc8f457e	-0.017489191
68	0x3d0e6b68	0.0347704
69	0xbbfbdb96	-0.007686089
70	0x3d02d7cb	0.031944077
71	0x398185a7	0.00024704376
72	0xbdb9d371	-0.090735324
73	0x3c5239b8	0.012831144
74	0xba1a6252	-0.00058892847
75	0xbd831602	-0.06400682
76	0xbd86956a	-0.06571467
77	0x3bd42075	0.0064735957
78	0xbd0cfaf3	-0.03441901
79	0xbb2f9fa0	-0.0026798025
80	0x3d85c2e9	0.06531317
81	0xbd3e69ab	-0.04648749
82	0x3d45a96a	0.04825727
83	0x3d7c6dcc	0.061628148
84	0x3d45d202	0.048295982
85	0xbdec07df	-0.11524939
86	0x3c5a779d	0.013334182
87	0xbd857a80	-0.06517506
88	0xbd653425	-0.055957932
89	0xbddbd24a	-0.10733469
90	0x3d9c9feb	0.076476894
91	0x3d4aa92a	0.049477734
92	0x3ccaf120	0.02477318
93	0x3d51e5fe	0.05124473
94	0xbdace2b8	-0.08441681
95	0xbdaca741	-0.08430339
96	0x3d165fc5	0.036712427
97	0xbcac63d3	-0.021043694
98	0x3ceca1a0	0.028885663
99	0xbd807942	-0.06273128
100	0x3dab638e	0.08368598
101	0xbd95362b	-0.07285722
102	0x3d1feb01	0.039042477
103	0x3d3ebbb3	0.046565723
104	0xbe282f92	-0.16424397
105	0x3ca6f90b	0.020382425
106	0x3d240cda	0.04005132
107	0xbd059c93	-0.032620024
108	0xbcfbf7ec	-0.030757867
109	0x3d8a8840	0.06764269
110	0xbdd5b07b	-0.104340516
111	0x3bbe6f1f	0.0058115865
112	0x3d28c8f8	0.041207284
113	0x3d1226f4	0.03568168
114	0xbd354919	-0.044259164
115	0xbb78c592	-0.0037959558
116	0x3cdb95e8	0.02680488
117	0x3d0c9c0a	0.034328498
118	0xbd2839c1	-0.041070703
119	0x3d233523	0.039845597
120	0xbc9cfe54	-0.019164242
121	0x3b318568	0.0027087573
122	0x3d39a33e	0.045321696
123	0x3d82f26a	0.06393893
124	0xbc44a16e	-0.012001378
125	0x3d6b4cd9	0.057446335
126	0x3d8b4250	0.067997575
127	0xbc1b9e3e	-0.009498177
128	0xbbb6af28	-0.0055750795
129	0xbd8adcc0	-0.06780386
130	0xbd72d4e7	-0.05928507
131	0x3d5088ea	0.05091182
132	0xbd658675	-0.05603643
133	0xbd552e11	-0.052045885
134	0x3d6a8508	0.057255775
135	0xbd48e616	-0.049047552
136	0xbd8c0485	-0.068367995
137	0x3c6a3147	0.014293975
138	0x3d1c4086	0.03814747
139	0xbda41715	-0.08012215
140	0xbd113b57	-0.03545698
141	0xbd8b98a1	-0.06816221
142	0x3d18befe	0.03729152
143	0xbc5627f9	-0.013071054
144	0x3cf3a589	0.02974202
145	0x3dc040c8	0.09387356
146	0xbd41b41d	-0.04729091
147	0xbd17fa9a	-0.037104227
148	0xbcf81029	-0.030281143
149	0x3cd953e4	0.02652926
150	0xbd21ca56	-0.039499603
151	0xbd793670	-0.06084293
152	0xbcdc74ee	-0.026911225
153	0x3d0e894b	0.0347989
154	0x3d18fc53	0.03735001
155	0xbddbdd3c	-0.107355565
156	0x3d991aad	0.07475791
157	0xbd75ea57	-0.060037937
158	0xbcccdbe4	-0.025007196
159	0xbdc430a2	-0.095795885
160	0xbe010687	-0.12600146
161	0x3d961520	0.07328248
162	0xbd8ad7b5	-0.06779424
163	0x3d3e59a7	0.046472218
164	0x3ce38eb4	0.027778007
165	0xbd3ae6f6	-0.045630418
166	0x3d9b85f1	0.07593907
167	0xbd442b34	-0.047892764
168	0xba021b04	-0.0004963132
169	0x3dab6522	0.08368899
170	0xbdaa77c2	-0.08323623
171	0x3d957e58	0.07299489
172	0xbd32a934	-0.043618396
173	0xbd92ec12	-0.07173933
174	0x3d4b1aa5	0.049585957
175	0xbdb84f17	-0.0899946
176	0xbd95c831	-0.07313574
177	0xbd42575d	-0.047446597
178	0x3d720c1c	0.05909358
179	0x3da5bda2	0.0809281
180	0xbbdaecb1	-0.006681048
181	0x3d39ed17	0.045392122
182	0x3ae00497	0.0017091212
183	0xbd878956	-0.066179916
184	0xbc36e5fd	-0.011163232
185	0x3d80e5a0	0.062937975
186	0xbc80260a	-0.015643138
187	0xbd70e62b	-0.058813255
188	0x3d949708	0.072553694
189	0xbc96b66a	-0.018397529
190	0x3d979026	0.07400541
191	0x3d4fb048	0.050705224
192	0x3c7df8e4	0.015501235
193	0x3cc05c87	0.02348162
194	0xbd3e26a6	-0.046423577
195	0xbd1ddc1f	-0.038540002
196	0xbd4d84d2	-0.050175495
197	0xbd0f406f	-0.034973558
198	0xbd4a8ad6	-0.04944881
199	0xbc5534b0	-0.01301305
200	0xbdc29384	-0.095007926
201	0xbce930c3	-0.028465634
202	0xbd768068	-0.06018105
203	0xbdadfa71	-0.084950335
204	0x3ca5584a	0.020183701
205	0x3d1044e6	0.035221957
206	0xbd12d503	-0.035847675
207	0xbd862722	-0.06550433
208	0xbd290f5d	-0.041274417
209	0xbde6bf58	-0.11266965
210	0xbdc20d19	-0.094751544
211	0x3dbbdace	0.09172593
212	0x3d440257	0.047853794
213	0x3cdc0165	0.026856134
214	0xbdbda988	-0.09260851
215	0xbd6f6393	-0.05844457
216	0x3d9c035a	0.07617827
217	0xbdd63271	-0.1045884
218	0xbd5fbec1	-0.054625276
219	0xbd96c92a	-0.07362588
220	0x3cdc63df	0.026903091
221	0xbc4142c2	-0.011795701
222	0xbd5ce37c	-0.053927884
223	0x3d9a2430	0.075264335
224	0xbd553849	-0.05205563
225	0x3c1cc310	0.009567991
226	0x3cfb8ab9	0.030705797
227	0x3d2d3ec9	0.042296205
228	0x3d9784da	0.07398386
229	0xbca82452	-0.020525131
230	0x3d22069c	0.039557084
231	0xbbe5d863	-0.0070143207
232	0xbd5f7ed3	-0.05456431
233	0xbddc2753	-0.10749688
234	0x3d477a56	0.048700653
235	0x3cd417d0	0.025890261
236	0x3cca104c	0.024665974
237	0xbbddf37a	-0.0067734094
238	0xbccdcb26	-0.025121283
239	0xbdaed80f	-0.08537304
240	0x3d857669	0.065167256
241	0x3d82a048	0.063782275
242	0x3d41f945	0.047356863
243	0xbd5f0bb2	-0.054454513
244	0xbda8e919	-0.08247585
245	0xbcd0a52e	-0.025469389
246	0xbd916e00	-0.07101059
247	0xbd2d74e7	-0.042347815
248	0x3d7eed4f	0.062238034
249	0xbd49c0a7	-0.049255993
250	0x3db457c2	0.08805801
251	0xbd368061	-0.044556025
252	0xbd289de3	-0.041166198
253	0xbd9114ba	-0.070840314
254	0x3d09e3fc	0.03366469
255	0xbc6e7097	-0.014553211

fc3.bias f4 [13]
0	0x3d2aed49	0.0417302
1	0xbd8ca835	-0.068680204
2	0xbc2eaabc	-0.010660823
3	0x3cf8c17c	0.030365698
4	0x3c9766f7	0.018481715
5	0xbda179b2	-0.0788454
6	0xbd989de5	-0.07451991
7	0xbdd8f037	-0.10592692
8	0x3cba4882	0.022739653
9	0xbd6727b0	-0.056434333
10	0xbcbbb7ca	-0.022914786
11	0x3d4516b1	0.048117343
12	0x3ce241b4	0.02761922
