models/model_episode_400.pth (torch, 77420 bytes, 6 tensors)

fc1.weight f4 [128, 3]
0.41561222 0.467818 -0.15196618 0.4974231 -0.1126286 0.11728279 -0.24758974 0.37109965
0.54029375 -0.44521058 0.4887195 0.0915487 0.40367362 0.101038866 0.30148566 -0.12195978
0.43781963 0.053452607 -0.27690962 0.14060266 -0.2660064 -0.06770751 -0.23449561 0.3829974
-0.46358174 -0.28225476 -0.18050586 -0.35851583 0.08892016 -0.5253537 0.51901895 -0.50211245
0.4277779 0.096082136 -0.18746825 0.35677359 0.06944984 0.4731787 0.067477286 -0.1841822
0.18435673 -0.11797959 0.23678824 0.5393299 0.33447006 -0.267523 0.33748415 0.13794534
0.29319867 -0.3518979 -0.5715239 -0.22454883 -0.42677528 0.50353795 0.15552759 0.25442144
0.18368311 -0.018942278 0.48707056 -0.41726092 0.036352124 -0.39406475 0.17802711 -0.1988292
0.17690952 -0.12028601 0.4788496 -0.3421966 -0.34433055 -0.3393227 0.58682406 0.23005237
0.5555557 -0.47647345 -0.5726599 -0.45169792 -0.38837722 0.23385003 0.19198076 0.48047745
-0.3073271 -0.31497598 0.38630256 -0.18755887 0.31136262 -0.15437846 0.3148056 -0.45764104
-0.30031347 0.16696182 0.11718146 -0.10102572 0.36109182 0.39248803 -0.41867903 -0.30822894
0.53498226 -0.18975036 -0.21255004 -0.558641 -0.3306313 0.14422421 -0.0762063 -0.41909045
0.013542728 -0.3943773 -0.48982203 -0.3179252 -0.5053039 -0.3676209 0.5771244 0.120033875
0.21396783 -0.5384855 -0.37918854 -0.19217439 0.090280905 -0.4791242 -0.22368667 -0.35832864
-0.014738463 -0.22201458 -0.047413003 -0.3912297 -0.39629042 -0.3368272 -0.19762552 -0.45569152
0.4840908 -0.0919542 0.5498435 0.23894313 -0.45509633 0.43392155 -0.14366339 -0.2213134
-0.4792414 -0.5739789 0.13540092 -0.11058567 0.2363053 -0.45266688 0.44960162 -0.41119018
-0.087235086 0.16423054 0.35213426 0.45284903 0.5545824 -0.44161686 0.14530016 -0.24833333
-0.06326882 -0.443848 0.54429835 -0.42654273 0.27339575 0.20568693 0.18730837 -0.34625557
0.5015334 0.12207183 0.07427037 -0.5087927 0.24236499 -0.07171477 -0.25360516 0.5184473
0.12871954 -0.3194343 -0.29221943 -0.06770696 0.33501095 -0.11527196 -0.32942155 -0.19770949
-0.43132386 0.22505377 0.5166631 -0.5182941 0.13796131 0.33966202 0.1284985 -0.20895953
0.3134957 0.31356484 0.21588698 -0.1014528 -0.15288308 0.057871073 -0.057357986 -0.13310122
0.37032667 0.54036313 -0.014927859 -0.12926692 0.008424862 -0.034472566 0.144339 0.20413488
-0.51249313 -0.19595325 0.5273712 0.26926824 -0.028716 -0.3480878 -0.35322583 -0.5259282
-0.19890216 0.18446955 0.36680752 0.30124187 -0.4904976 -0.3286825 -0.044336863 0.5973739
0.08351804 -0.14951682 0.2388586 -0.20022006 -0.31491855 0.44479352 -0.2625222 -0.11573953
-0.5743505 0.38225916 0.48603612 0.22548388 -0.40257144 -0.56981003 -0.46891174 0.43645033
0.32960114 0.5024746 0.2892129 0.18448338 -0.004850408 -0.43907836 -0.49465764 -0.54002374
0.2300924 -0.3008402 -0.1250274 -0.33226812 -0.10520682 -0.40635926 -0.37724972 0.19151333
-0.17158641 0.35642326 -0.18521902 -0.42352524 -0.12458406 -0.25798142 -0.18814504 -0.5466968
00000000: 20cb d43e d785 ef3e 069d 1bbe 3eae fe3e
00000010: d3a9 e6bd f631 f03d 2a88 7dbe c600 be3e
00000020: b150 0a3f a4f2 e3be 7139 fa3e e37d bb3d
00000030: 4fae ce3e 77ed ce3d 545c 9a3e 0dc6 f9bd
00000040: e529 e03e 1ff1 5a3d 19c7 8dbe 25fa 0f3e
00000050: fe31 88be 3caa 8abd 9e1f 70be 3c18 c43e
00000060: 965a edbe b283 90be 87d6 38be 638f b7be
00000070: c61b b63d 957d 06bf 6dde 043f 718a 00bf
00000080: b405 db3e b6c6 c43d adf7 3fbe 07ab b63e
00000090: b83b 8e3d 7b44 f23e 8831 8a3d 429a 3cbe
000000a0: 03c8 3c3e 499f f1bd 9e78 723e 8611 0a3f
000000b0: a93f ab3e c6f8 88be b9ca ac3e 8b41 0d3e
000000c0: 231e 963e f62b b4be 644f 12bf 21f0 65be
000000d0: 4a82 dabe dde7 003f a042 1f3e 8743 823e
000000e0: 6d17 3c3e d62c 9bbc 5061 f93e 39a3 d5be
000000f0: f7e5 143d dbc2 c9be bd4c 363e e299 4bbe
00000100: c527 353e 8358 f6bd c62b f53e 6534 afbe
00000110: 184c b0be b4bb adbe 1a3a 163f d992 6b3e
00000120: e638 0e3f 54f4 f3be d799 12bf f344 e7be
00000130: 61d9 c6be 6276 6f3e 9b96 443e 2401 f63e
00000140: fa59 9dbe 8844 a1be 73c9 c53e 6f0f 40be
00000150: ec6a 9f3e 6315 1ebe 332e a13e ed4f eabe
00000160: b0c2 99be 0af8 2a3e d5fc ef3d 93e6 cebd
00000170: 07e1 b83e 31f4 c83e 195d d6be 2fd0 9dbe
00000180: 99f4 083f eb4d 42be b8a6 59be 1903 0fbf
00000190: 8148 a9be 83af 133e 0c12 9cbd 0693 d6be
000001a0: 51e2 5d3c d2eb c9be f4c9 fabe 18c7 a2be
000001b0: 995b 01bf ce38 bcbe 6dbe 133f 52d4 f53d
000001c0: 621a 5b3e 30da 09bf 0025 c2be 5dc9 44be
000001d0: 32e5 b83d c44f f5be 1e0e 65be da76 b7be
000001e0: 9879 71bc ca57 63be 2334 42bd 424f c8be
000001f0: 94e6 cabe 9d74 acbe 585e 4abe 6650 e9be
00000200: c0da f73e 7c52 bcbd 8bc2 0c3f 82ad 743e
00000210: 6302 e9be f72a de3e 7f1c 13be fb9f 62be
00000220: 215f f5be 48f0 12bf 8aa6 0a3e bd7a e2bd
00000230: 04fa 713e f4c3 e7be 2f32 e63e 8587 d2be
00000240: 4fa8 b2bd 0d2c 283e f14a b43e d4db e73e
00000250: 1df9 0d3f 9b1b e2be 91c9 143e 184b 7ebe
00000260: 1593 81bd 0c40 e3be 2357 0b3f cf63 dabe
00000270: 87fa 8b3e 989f 523e c4cd 3f3e 6948 b1be
00000280: 7e64 003f cc00 fa3d 101b 983d 3d40 02bf
00000290: 872e 783e 31df 92bd 89d8 81be f6b8 043f
000002a0: 0ecf 033e e48c a3be c99d 95be f2a9 8abd
000002b0: 8e86 ab3e b513 ecbd f1a9 a8be 5b74 4abe
000002c0: 7bd6 dcbe 7f74 663e 0844 043f ecae 04bf
000002d0: bb45 0d3e 2ee8 ad3e 1c95 033e 7df9 55be
000002e0: 8282 a03e 928b a03e 7a11 5d3e 7cc6 cfbd
000002f0: 628d 1cbe 380a 6d3d 35f0 6abd b04b 08be
00000300: 759b bd3e 3d55 0a3f fb93 74bc 8c5e 04be
00000310: 6f08 0a3c 1b33 0dbd 9acd 133e bc08 513e
00000320: c032 03bf f8a7 48be cd01 073f 87dd 893e
00000330: d13d ebbc 9038 b2be 04da b4be 3ba3 06bf
00000340: 02ad 4bbe 96e5 3c3e 32ce bb3e 603c 9a3e
00000350: 8022 fbbe 1349 a8be 929a 35bd 7fed 183f
00000360: 820b ab3d f01a 19be 5997 743e 7d06 4dbe
00000370: 013d a1be fabb e33e 4f69 86be d908 edbd
00000380: a208 13bf 79b7 c33e bad9 f83e 3fe5 663e
00000390: d81d cebe 12df 11bf 3315 f0be 6b76 df3e
000003a0: 7bc1 a83e 2da2 003f b713 943e 36e9 3c3e
000003b0: 2cf0 9ebb e1ce e0be c443 fdbe ff3e 0abf
000003c0: 589d 6b3e ba07 9abe 2f07 00be 0c1f aabe
000003d0: ac76 d7bd 520e d0be e026 c1be 121c 443e
000003e0: 59b4 2fbe 1c7d b63e 0eaa 3dbe 4dd8 d8be
000003f0: ed25 ffbd 2416 84be 18a9 40be 52f4 0bbf

fc1.bias f4 [128]
-0.0065648966 0.53364074 -0.45905098 -0.2348351 0.35470295 -0.1393713 -0.12475699 -0.24063478
0.38127923 0.31366694 0.17480187 -0.32444987 -0.46444902 0.088369265 0.19141155 -0.26333657
-0.16154125 0.4039613 0.056949742 0.056367036 -0.14208621 -0.52284247 -0.5428579 -0.21297733
-0.2934795 0.17987555 -0.17069803 -0.14648157 0.53050697 0.1920456 0.45375732 -0.27950263
-0.23084672 0.21219958 -0.38467413 -0.3774162 -0.027885826 -0.1777876 -0.43281522 0.36743385
0.45381984 0.093659684 -0.10052434 -0.48240808 -0.17631568 0.14698507 0.28400868 -0.05142674
-0.18720523 0.34601942 -0.45980158 0.37862343 -0.22629958 -0.016632784 -0.11409357 0.08119814
-0.17447433 0.4268571 -0.015009468 0.5159513 0.5932466 -0.26958874 -0.42118227 0.50425446
0.49259523 -0.44083422 -0.0062837736 -0.52939844 -0.4726184 0.10100685 0.18543462 0.16763733
-0.15713435 0.58805597 0.08254836 -0.29677242 -0.032685995 0.18686517 0.23404887 -0.4082333
0.20035 -0.29495767 -0.47974363 -0.315353 0.57238716 0.54872674 0.5373859 0.34043592
0.48943388 -0.07727818 -0.31767422 0.33065468 -0.25036177 -0.38963398 -0.18436758 0.121162295
0.31512645 -0.22424805 -0.3398089 0.07788055 -0.3403094 -0.37589046 0.33969215 -0.082573466
0.5823762 0.5925488 0.20489907 0.24792175 0.13295437 0.009041814 0.0035367943 0.06614464
0.18686385 0.5272381 -0.14962557 -0.24615502 -0.104969844 -0.3098351 0.098644614 0.4530661
0.48029634 0.2738168 -0.42489025 -0.2622082 -0.12685044 -0.1072912 0.041193616 -0.5299911
00000000: 581e d7bb ae9c 083f bb08 ebbe 9d78 70be
00000010: a09b b53e 5ab7 0ebe 9880 ffbd f768 76be
00000020: 0837 c33e f498 a03e 43ff 323e 4b1e a6be
00000030: 43cc edbe f2fa b43d 6401 443e 0dd4 86be
00000040: 126b 25be 04d4 ce3e 2244 693d 1fe1 663d
00000050: 0c7f 11be 01d9 05bf bcf8 0abf bb16 5abe
00000060: f242 96be 4c31 383e 77cb 2ebe 44ff 15be
00000070: 4ecf 073f 9aa7 443e e152 e83e f81a 8fbe
00000080: 1563 6cbe d94a 593e 02f4 c4be b23c c1be
00000090: d170 e4bc f40d 36be f599 ddbe 4a20 bc3e
000000a0: 135b e83e a6d0 bf3d b5df cdbd 31fe f6be
000000b0: 198c 34be 4183 163e 9669 913e d8a4 52bd
000000c0: bab2 3fbe 7529 b13e 1d6b ebbe eeda c13e
000000d0: 14bb 67be 7a41 88bc e4a9 e9bd 364b a63d
000000e0: 66a9 32be 048d da3e 46ea 75bc 6215 043f
000000f0: 02df 173f 8907 8abe 34a5 d7be d216 013f
00000100: 7135 fc3e 06b5 e1be 1de8 cdbb a886 07bf
00000110: 0afb f1be aedc ce3d 93e2 3d3e 1fa9 2b3e
00000120: d4e7 20be d68a 163f 1d0f a93d 8ef2 97be
00000130: c0e1 05bd 9559 3f3e 82aa 6f3e f503 d1be
00000140: 8d28 4d3e b104 97be f5a0 f5be f375 a1be
00000150: f787 123f 5b79 0c3f 1f92 093f 9e4d ae3e
00000160: 1497 fa3e 0644 9ebd 32a6 a2be 924b a93e
00000170: 6b2f 80be 1b7e c7be dbca 3cbe f023 f83d
00000180: 4158 a13e 48a1 65be 6ffb adbe d67f 9f3d
00000190: 093d aebe b774 c0be 21ec ad3e 471c a9bd
000001a0: 9b16 153f 47b1 173f 10d1 513e 33df 7d3e
000001b0: 3125 083e 1e24 143c 90c9 673b d776 873d
000001c0: 3d59 3f3e 13f9 063f 7237 19be 1010 7cbe
000001d0: 6efa d6bd b5a2 9ebe 3006 ca3d 48f8 e73e
000001e0: 67e9 f53e b731 8c3e 378b d9be 2740 86be
000001f0: 15e5 01be 7dbb dbbd a3ba 283d 7fad 07bf

fc2.weight f4 [128, 128]
0.027510406 -0.067429006 -0.055927254 -0.073484525 0.077014506 -0.083698444 0.06667723 -0.0029713423
-0.010279458 0.05528501 -0.008169523 0.055433113 0.063906096 -0.076739654 0.03401042 0.016685864
0.01900453 0.012903943 0.02417695 -0.042520702 -0.011308505 0.08397953 0.059383664 -0.0033206132
-0.08313197 0.0038738642 -0.060190123 0.07187665 -0.05365945 -0.006381781 -0.019617144 0.015729045
0.083175875 0.008398592 0.051191352 0.06860895 0.0713569 -0.030525044 -0.019768642 0.04259768
-0.024118323 0.041389078 -0.01931 -0.059949603 0.03597789 0.013551529 0.039407797 0.08781259
0.060345635 0.08379048 0.004730794 -0.076032765 -0.06200683 -0.05490452 -0.07789209 -0.044304438
-0.08136746 -0.08154844 -0.05281686 -0.087136224 -0.05425387 0.03370324 0.073720545 -0.026292248
-0.025710294 0.04719525 -0.043608237 -0.04179289 0.05445867 -0.07701291 0.010807663 0.07808067
0.015157408 0.024036663 -0.05147659 -0.0012194559 0.004859985 0.02169353 0.034342937 0.076803096
-0.06746678 0.0026494667 -0.044162024 -0.06992083 -0.007077931 -0.07780268 0.06168616 0.010236679
-0.04763761 0.0461899 -0.083653204 -0.034188543 -0.017219706 -0.07510802 -0.05620512 -0.0144266235
0.06706595 0.085352585 0.056238182 -0.052778803 -0.057825528 0.077135906 0.0312645 0.002348275
0.011961781 -0.07103743 -0.02951158 0.08508422 -0.021799413 -0.004433922 -0.073391594 -0.04944507
-0.0018048545 -0.054903254 -0.0109610045 0.03597045 -0.08645947 0.026252408 -0.058443096 -0.043138027
0.033933144 0.07027936 -0.024157299 -0.03628952 -0.07992391 -0.04557813 -0.0773961 -0.020229487
0.015673352 -0.08521976 0.07717306 0.053356055 -0.08890739 -0.04451287 0.029799117 -0.018160233
-0.011729654 -0.04212751 0.07099525 -0.049408928 0.07662037 0.003385399 0.015428146 0.06745867
-0.014563358 -0.050323315 -0.016612714 0.06937154 -0.065583035 0.020062426 -0.08686731 0.04413735
0.032656644 0.0037469813 0.035558555 -0.0018383572 0.04654642 -0.06997003 -0.01539596 0.03921036
0.0880186 0.045024265 -0.064273745 0.0679792 -0.019710448 -0.018872188 -0.080337025 -0.015340472
0.060183536 0.012325298 -0.05148214 0.027207002 -0.03040352 0.080698036 -0.079064064 -0.030140229
-0.08534545 -0.037171923 0.02786422 0.08281684 0.0076467614 0.084397964 0.017293368 0.05104745
0.0708576 0.071596414 -0.049473055 0.07893283 0.051213015 -0.042739414 -0.042179216 -0.0764962
0.019845499 -0.07164311 0.03506853 0.027912835 -0.07679199 0.024085902 -0.009549853 0.042491723
0.050716314 -0.09002125 0.08106086 0.07154409 0.03516828 -0.083194144 -0.03398442 -0.025615728
-0.022715623 0.04984423 0.0321354 0.0700194 -0.035443038 0.027484551 0.029093865 -0.07588129
-0.08806792 -0.045863748 0.060506035 -0.08556596 -0.07693621 0.049515203 0.047688074 0.07268993
-0.06914787 -0.06469141 0.045342043 0.076865174 0.05288618 0.0138462195 0.026858825 0.081595056
-0.059298743 -0.0424711 0.059538785 -0.06280515 -0.048738446 0.064522706 0.025221365 0.026433742
-0.039745025 -0.0035040732 0.08089591 -0.055266008 0.00069492776 0.03961296 -0.06284196 0.08343856
-0.046298645 -0.023548268 -0.02391526 -0.05990442 -0.08673236 0.04983791 0.023482496 -0.08278459
00000000: 815d e13c 3818 8abd fa13 65bd 0e7f 96bd
00000010: c8b9 9d3d 176a abbd 128e 883d daba 42bb
00000020: 2c6b 28bc 8972 623d 77d9 05bc d50d 633d
00000030: 33e1 823d ae29 9dbd 834e 0b3d cbb0 883c
00000040: 63af 9b3c 0f6b 533c bd0e c63c 302a 2ebd
00000050: 4f47 39bc 76fd ab3d 493c 733d a59e 59bb
00000060: 1841 aabd a8e0 7d3b eb89 76bd 1134 933d
00000070: 03ca 5bbd 421e d1bb 22b4 a0bc 33da 803c
00000080: 1d58 aa3d 3f9a 093c 06ae 513d d982 8c3d
00000090: 9123 923d a80f fabc d9f1 a1bc e87a 2e3d
000000a0: ca93 c5bc 9887 293d 0130 9ebc b78d 75bd
000000b0: 8d5d 133d 3b07 5e3c 126a 213d 16d7 b33d
000000c0: fc2c 773d 589a ab3d c704 9b3b 11b7 9bbd
000000d0: e0fa 7dbd 90e3 60bd e385 9fbd 9278 35bd
000000e0: fca3 a6bd de02 a7bd 7e56 58bd 7a74 b2bd
000000f0: 4e39 5ebd 690c 0a3d ccfa 963d d762 d7bc
00000100: 659e d2bc ce4f 413d 8d9e 32bd 052f 2bbd
00000110: 0e10 5f3d f2b8 9dbd a012 313c c2e8 9f3d
00000120: c756 783c 89e8 c43c 1ed9 52bd 26d6 9fba
00000130: 8240 9f3b a1b6 b13c 2eab 0c3d f14a 9d3d
00000140: 062c 8abd ada2 2d3b 3de3 34bd a732 8fbd
00000150: fded e7bb 0357 9fbd a0aa 7c3d beb7 273c
00000160: a81f 43bd 9f31 3d3d 5f52 abbd 4909 0cbd
00000170: 5710 8dbc 3cd2 99bd 5737 66bd a55d 6cbc
00000180: df59 893d 56cd ae3d 025a 663d 962e 58bd
00000190: 76da 6cbd 6ef9 9d3d 340f 003d 84e5 193b
000001a0: 59fb 433c 127c 91bd 45c2 f1bc a340 ae3d
000001b0: af94 b2bc 6f4a 91bb 554e 96bd ea86 4abd
000001c0: de90 ecba 3ce2 60bd c995 33bc c055 133d
000001d0: aa11 b1bd 4a0f d73c 0762 6fbd 80b1 30bd
000001e0: 7bfd 0a3d a0ee 8f3d 87e5 c5bc 52a4 14bd
000001f0: 26af a3bd 22b0 3abd d981 9ebd 4fb8 a5bc
00000200: 6765 803c b387 aebd e90c 9e3d e18b 5a3d
00000210: 1415 b6bd 2153 36bd 471d f43c c5c4 94bc
00000220: bc2d 40bc e58d 2cbd f565 913d 0461 4abd
00000230: 24eb 9c3d 92dd 5d3b 56c6 7c3c c527 8a3d
00000240: 279b 6ebc d21f 4ebd 6317 88bc aa12 8e3d
00000250: 6650 86bd f559 a43c 7de7 b1bd 5ec9 343d
00000260: f9c2 053d ea8f 753b d9a5 113d 08f5 f0ba
00000270: 75a7 3e3d 724c 8fbd 563f 7cbc 0b9b 203d
00000280: 1943 b43d 5d6b 383d f4a1 83bd ae38 8b3d
00000290: ce77 a1bc d999 9abc bd87 a4bd 9a56 7bbc
000002a0: 0383 763d 0cf0 493c f0de 52bd 38e1 de3c
000002b0: ce10 f9bc 0345 a53d 57ec a1bd a4e8 f6bc
000002c0: 98c9 aebd 9641 18bd 8143 e43c e09b a93d
000002d0: af91 fa3b d7d8 ac3d d2aa 8d3c 2217 513d
000002e0: ca1d 913d 24a1 923d 42a4 4abd 89a7 a13d
000002f0: bdc4 513d 860f 2fbd 1dc4 2cbd 0aaa 9cbd
00000300: 0793 a23c 9fb9 92bd 05a4 0f3d 75a9 e43c
00000310: 1e45 9dbd cc4f c53c fd76 1cbc cd0b 2e3d
00000320: e9bb 4f3d 105d b8bd 3c03 a63d b585 923d
00000330: 9d0c 103d b161 aabd 3f33 0bbd 13d8 d1bc
00000340: 1d16 babc 7729 4c3d 69a0 033d 5566 8f3d
00000350: b82c 11bd 4827 e13c 4256 ee3c a667 9bbd
00000360: f45c b4bd a0db 3bbd 2dd5 773d 353d afbd
00000370: bb90 9dbd 74d0 4a3d 9254 433d 75de 943d
00000380: 669d 8dbd ee7c 84bd 94b8 393d 7d6b 9d3d
00000390: 2e9f 583d 41db 623c 0a07 dc3c 4f1b a73d
000003a0: 3de3 72bd 2df6 2dbd f1de 733d fd9f 80bd
000003b0: f7a1 47bd 7b24 843d 099d ce3c 938b d83c
000003c0: aecb 22bd 98a4 65bb c1ac a53d 9c5e 62bd
000003d0: d02b 363a 3341 223d 49b3 80bd d6e1 aa3d
000003e0: a6a3 3dbd 4ce8 c0bc efe9 c3bc 565e 75bd
000003f0: bca0 b1bd d622 4c3d 5d5e c03c f88a a9bd

fc2.bias f4 [128]
-0.07533685 0.07579703 -0.07831675 -0.037633248 -0.022633258 -0.016767135 -0.019278921 0.059845854
0.06613344 -0.088699825 -0.08200573 -0.08649869 0.11371849 -0.01072023 -0.04375122 -0.036537934
0.011552198 0.017832873 0.046016194 0.06419995 0.117660984 -0.058925856 -0.00467182 -0.06596574
-0.03189178 -0.012148023 0.049564335 0.0034489466 -0.049831904 -0.02715209 0.033349916 0.0469808
0.099883914 -0.088139884 0.0278285 0.046060145 0.05791654 -0.08603999 -0.065988496 0.026220813
-0.009771074 0.035085846 0.07208937 0.0008703447 -0.025970887 0.048189472 -0.06914219 -0.0014243103
-0.013389885 -0.021147339 0.04620139 -0.022821601 0.0029463286 0.025106646 -0.0070915883 -0.028420158
0.09400128 0.049257413 -0.018862408 -0.017526463 -0.03866909 0.04597377 0.04333657 -0.03740624
0.07518245 -0.0104141915 0.015707416 -0.007833177 -0.00066410203 -0.01847154 0.010711715 -0.0840654
0.015670797 -0.069114484 -0.08212858 -0.09457395 -0.023067972 0.021974104 0.009230202 0.020807477
-0.04673021 -0.024423376 -0.026171168 -0.06988752 -0.019474778 0.04741517 0.044579588 -0.08028587
0.07476593 0.12887634 -0.040100697 -0.07528576 0.012905976 0.019941865 -0.023632044 -0.040604938
-0.003311038 -0.060844842 -0.059810735 0.028275814 0.009995272 0.020160977 0.06874456 -0.000860449
0.047352057 0.06731154 -0.061336383 0.050950192 0.048246395 -0.033755757 0.12717181 -0.04052313
-0.056935616 0.0578151 0.041002415 0.053191163 -0.06982051 0.04020818 0.02170179 -0.052765884
-0.01189094 0.08745531 0.03732251 -0.040640857 -0.00094590173 -0.031240739 0.058341194 0.05165748
00000000: 354a 9abd 793b 9b3d 8864 a0bd 5225 1abd
00000010: 6269 b9bc 3b5b 89bc d4ee 9dbc ed20 753d
00000020: f870 873d 41a8 b5bd 9ff2 a7bd 3a26 b1bd
00000030: 3de5 e83d e7a3 2fbc 7b34 33bd cda8 15bd
00000040: 6e45 3d3c 3f16 923c 7a7b 3c3d 437b 833d
00000050: 3ef8 f03d 3d5c 71bd 1116 99bb 0c19 87bd
00000060: f5a0 02bd 8008 47bc f903 4b3d b907 623b
00000070: 8a1c 4cbd 0f6e debc ec99 083d f06e 403d
00000080: f08f cc3d af82 b4bd 98f8 e33c 90a9 3c3d
00000090: e539 6d3d bc35 b0bd fa24 87bd 08cd d63c
000000a0: db16 20bc 2db6 0f3d 97a3 933d d827 643a
000000b0: e6c0 d4bc 5362 453d 6c9a 8dbd ecaf baba
000000c0: 4061 5bbc 2f3d adbc ab3d 3d3d 5ef4 babc
000000d0: 3117 413b 74ac cd3c 8e60 e8bb 64d1 e8bc
000000e0: be83 c03d 24c2 493d 5685 9abc a893 8fbc
000000f0: 7b63 1ebd fe4e 3c3d b081 313d 4937 19bd
00000100: 42f9 993d 49a0 2abc d7ac 803c ba56 00bc
00000110: 2217 2eba a151 97bc 3080 2f3c 7b2a acbd
00000120: 0b60 803c e58b 8dbd 0733 a8bd fdaf c1bd
00000130: 0bf9 bcbc 0903 b43c 463a 173c 7174 aa3c
00000140: 2d68 3fbd 8813 c8bc eb64 d6bc 3021 8fbd
00000150: 9289 9fbc 6936 423d 1699 363d eb6c a4bd
00000160: e11e 993d 29f8 033e a140 24bd 6c2f 9abd
00000170: 9673 533c 1f5d a33c fd97 c1bc 5d51 26bd
00000180: 00fe 58bb 7138 79bd 1afc 74bd aea2 e73c
00000190: 36c3 233c a228 a53c f3c9 8c3d c18f 61ba
000001a0: 3bf4 413d a2da 893d dc3b 7bbd 26b1 503d
000001b0: 039e 453d 7a43 0abd 5439 023e 95fb 25bd
000001c0: 5235 69bd 87cf 6c3d 26f2 273d fade 593d
000001d0: 0efe 8ebd 55b1 243d f4c7 b13c 0a21 58bd
000001e0: 38d2 42bc c51b b33d 7ddf 183d 0777 26bd
000001f0: 64f6 77ba 94ec ffbc 2df7 6e3d cb96 533d

fc3.weight f4 [13, 128]
-0.013088546 -0.020477569 -0.06854308 -0.019561132 0.03963424 -0.08511509 0.033474546 0.084258415
0.038044695 0.04686049 -0.023922373 -0.007454576 -0.10441771 -0.042775195 0.022208396 -0.011216053
0.05211561 -0.042223793 0.01731624 -0.04650902 -0.11697213 -0.033895127 -0.060112815 0.017234188
0.013918838 0.065606 0.0461577 -0.044322673 0.034105312 0.042208176 -0.09393055 -0.1068816
-0.12942785 -0.043867957 -0.0036305683 0.0868762 0.07487764 -0.022672985 0.006572604 0.030713946
0.008702645 -0.059951108 0.010837219 0.062090646 0.014470783 0.08073356 0.082090914 -0.11137943
0.07846915 -0.06977805 -0.040669106 0.05453242 0.0033685514 0.076331325 0.04857671 -0.018829526
0.054656986 -0.06343316 0.009113733 -0.013607877 0.06631421 0.097501166 0.034717534 -0.049415514
0.027625287 0.060850978 -0.04659233 0.009305888 0.0347704 -0.007686089 0.03194797 0.00024704376
-0.059303798 0.012831144 -0.00058892847 -0.06400682 -0.06571467 0.016047783 -0.03441901 0.0021617329
0.06531317 -0.00803393 0.0482576 0.061628148 0.048295982 -0.089313835 0.042839747 -0.06517506
-0.055957932 -0.070485465 0.076476894 0.049477734 0.02477318 0.05124473 -0.08441681 -0.08430339
0.036712427 -0.021043694 0.028885663 -0.06273128 0.08368598 -0.07285722 0.039042477 0.046565723
-0.11301782 0.045728713 0.04005132 -0.032620024 -0.030757867 0.06764269 -0.073310845 0.0058115865
0.041207284 0.03568168 -0.044259164 0.024856156 0.02680488 0.034328498 -0.041070703 0.039845597
-0.019164242 0.024167381 0.045321696 0.06393893 -0.012001378 0.057446335 0.067997575 0.011880852
-0.0055750795 -0.06780386 -0.05928507 0.05091182 -0.05603643 -0.052045885 0.057255775 -0.049047552
-0.068367995 0.014293975 0.03814747 -0.08012215 -0.006366938 -0.06816221 0.03729152 0.027444871
0.02974202 0.09387356 -0.023984386 -0.037104227 -0.0029750331 0.02652926 -0.039499603 -0.06084293
-0.026911225 0.034798756 0.03735001 -0.0725209 0.07475791 -0.060037937 -0.025007196 -0.05367065
-0.08812837 0.07328248 -0.055654947 0.046472218 0.03023389 -0.045630418 0.07593907 -0.020819204
-0.0004963132 0.08368899 -0.08323623 0.08153333 -0.043618396 -0.07173933 0.049585957 -0.062340163
-0.07313574 -0.047446597 0.058171555 0.0809281 -0.006681048 0.045392122 0.010239141 -0.066179916
0.0135794515 0.062937975 -0.015643138 -0.027231902 0.072553694 -0.018401502 0.07400541 0.050705224
0.03688132 0.02348162 -0.008197851 -0.013146379 -0.050175495 -0.034973558 -0.049441315 -0.01301305
-0.060003754 -0.028465634 -0.06018105 -0.084950335 0.020183701 0.059793383 -0.035847675 -0.058409747
-0.041274417 -0.078590475 -0.09475078 0.09172593 0.047853794 0.051682014 -0.06229511 -0.05844457
0.07617827 -0.06854441 -0.054625276 -0.07362588 0.026903091 -0.011795701 -0.053927884 0.075264335
-0.05205563 0.009567991 0.030705797 0.042296205 0.07398386 -0.020525131 0.039557084 -0.0070143207
-0.023015885 -0.07899087 0.048700653 0.025890261 0.024665974 -0.0067734094 0.0046775406 -0.08537304
0.065167256 0.063782275 0.047356863 -0.024303831 -0.08247585 -0.025469389 -0.07101059 -0.042347815
0.062238034 -0.029084751 0.08805801 -0.044556025 -0.041166198 -0.070840314 0.03366469 0.021955369
00000000: 5771 56bc 93c0 a7bc 5060 8cbd ab3e a0bc
00000010: 8357 223d d250 aebd 9b1c 093d ad8f ac3d
00000020: c1d4 1b3d c9f0 3f3d daf8 c3bc 8445 f4bb
00000030: f4d8 d5bd 0b35 2fbd 62ee b53c 89c3 37bc
00000040: 2e77 553d dbf2 2cbd cada 8d3c 3e80 3ebd
00000050: 168f efbd 9ed5 0abd db38 76bd b62e 8d3c
00000060: d70b 643c 705c 863d db0f 3d3d b18b 35bd
00000070: 03b2 0b3d 7be2 2c3d a95e c0bd bee4 dabd
00000080: bc88 04be e3ae 33bd d4ee 6dbb 26ec b13d
00000090: 7359 993d b2bc b9bc 005f d73b d09b fb3c
000000a0: 8a95 0e3c 4b8f 75bd 978e 313c c352 7e3d
000000b0: dd16 6d3c a357 a53d 481f a83d e61a e4bd
000000c0: 6fb4 a03d cbe7 8ebd a694 26bd 635d 5f3d
000000d0: eac2 5c3b 9953 9c3d 5ff8 463d 6140 9abc
000000e0: 01e0 5f3d 3fe9 81bd c451 153c 93f3 5ebc
000000f0: bfcf 873d b1ae c73d f933 0e3d ec67 4abd
00000100: 6d4e e23c e03e 793d 99d7 3ebd b977 183c
00000110: 686b 0e3d 96db fbbb e0db 023d a785 8139
00000120: 8ae8 72bd b839 523c 5262 1aba 0216 83bd
00000130: 6a95 86bd a476 833c f3fa 0cbd dcab 0d3b
00000140: e9c2 853d bfa0 03bc c3a9 453d cc6d 7c3d
00000150: 02d2 453d 2cea b6bd bb78 2f3d 807a 85bd
00000160: 2534 65bd af5a 90bd eb9f 9c3d 2aa9 4a3d
00000170: 20f1 ca3c fee5 513d b8e2 acbd 41a7 acbd
00000180: c55f 163d d363 acbc a0a1 ec3c 4279 80bd
00000190: 8e63 ab3d 2b36 95bd 01eb 1f3d b3bb 3e3d
000001a0: e375 e7bd 084e 3b3d da0c 243d 939c 05bd
000001b0: ecf7 fbbc 4088 8a3d ff23 96bd 1f6f be3b
000001c0: f8c8 283d f426 123d 1949 35bd 239f cb3c
000001d0: e895 db3c 0a9c 0c3d c139 28bd 2335 233d
000001e0: 54fe 9cbc acfa c53c 3ea3 393d 6af2 823d
000001f0: 6ea1 44bc d94c 6b3d 5042 8b3d e8a7 423c
00000200: 28af b6bb c0dc 8abd e7d4 72bd ea88 503d
00000210: 7586 65bd 112e 55bd 0885 6a3d 16e6 48bd
00000220: 8504 8cbd 4731 6a3c 8640 1c3d 1517 a4bd
00000230: bfa1 d0bb a198 8bbd febe 183d 11d4 e03c
00000240: 89a5 f33c c840 c03d e77a c4bc 9afa 17bd
00000250: c6f8 42bb e453 d93c 56ca 21bd 7036 79bd
00000260: ee74 dcbc 2489 0e3d 53fc 183d d685 94bd
00000270: ad1a 993d 57ea 75bd e4db ccbc c1d5 5bbd
00000280: a67c b4bd 2015 963d 71f6 63bd a759 3e3d
00000290: 10ad f73c f6e6 3abd f185 9b3d 098d aabc
000002a0: 041b 02ba 2265 ab3d c277 aabd f2fa a63d
000002b0: 34a9 32bd 12ec 92bd a51a 4b3d 6658 7fbd
000002c0: 31c8 95bd 5d57 42bd 4c45 6e3d a2bd a53d
000002d0: b1ec dabb 17ed 393d 12c2 273c 5689 87bd
000002e0: 597c 5e3c a0e5 803d 0a26 80bc 7015 dfbc
000002f0: 0897 943d bfbe 96bc 2690 973d 48b0 4f3d
00000300: de10 173d 875c c03c 4750 06bc e963 57bc
00000310: d284 4dbd 6f40 0fbd fa82 4abd b034 55bc
00000320: 7fc6 75bd c330 e9bc 6880 76bd 71fa adbd
00000330: 4a58 a53c e8e9 743d 03d5 12bd 0f3f 6fbd
00000340: 5d0f 29bd 0bf4 a0bd b20c c2bd ceda bb3d
00000350: 5702 443d 85b0 533d 2829 7fbd 9363 6fbd
00000360: 5a03 9c3d 0361 8cbd c1be 5fbd 2ac9 96bd
00000370: df63 dc3c c242 41bc 7ce3 5cbd 3024 9a3d
00000380: 4938 55bd 10c3 1c3c b98a fb3c c93e 2d3d
00000390: da84 973d 5224 a8bc 9c06 223d 63d8 e5bb
000003a0: cf8b bcbc f7c5 a1bd 567a 473d d017 d43c
000003b0: 4c10 ca3c 7af3 ddbb 0e46 993b 0fd8 aebd
000003c0: 6976 853d 48a0 823d 45f9 413d d418 c7bc
000003d0: 19e9 a8bd 2ea5 d0bc 006e 91bd e774 2dbd
000003e0: 4fed 7e3d 2543 eebc c257 b43d 6180 36bd
000003f0: e39d 28bd ba14 91bd fce3 093d bfdb b33c

fc3.bias f4 [13]
0.05371754 -0.04961185 -0.0026805836 0.0389028 0.035162363 -0.06743734 -0.07170851 -0.09912977
0.029880406 -0.035339102 0.0071821334 -0.036514375 0.015535027
00000000: ec06 5c3d cc35 4bbd bbac 2fbb 8b58 1f3d
00000010: 6906 103d 971c 8abd e9db 92bd 8d04 cbbd
00000020: c1c7 f43c bcbf 10bd 1a58 eb3b 1990 15bd
00000030: a086 7e3c
