models/model_episode_4100.pth (torch, 77430 bytes, 6 tensors)

fc1.weight f4 [128, 3]
0.42579898 0.53389907 -0.14770535 0.50380623 -0.02799903 0.16507807 -0.26134798 0.41224915
0.56628025 -0.49912894 0.5626899 0.089795925 0.3944991 0.1437948 0.29216474 -0.10687297
0.5127642 0.05596551 -0.27690962 0.14060266 -0.2660064 -0.06770751 -0.23449561 0.3829974
-0.4498127 -0.22110641 -0.17763197 -0.34969997 0.14613548 -0.5381971 0.52560276 -0.45462102
0.4701566 0.096082136 -0.18746825 0.35677359 0.0823306 0.53711677 0.10096384 -0.1699876
0.277788 -0.101209536 0.24342181 0.6136583 0.35353693 -0.32750818 0.39286652 0.13354938
0.29319867 -0.3518979 -0.5715239 -0.25535285 -0.42534634 0.49959365 0.16088732 0.32607043
0.19418406 -0.0015181686 0.54432076 -0.42650932 0.036352124 -0.39406475 0.17802711 -0.1988292
0.17690952 -0.12028601 0.4788496 -0.3421966 -0.34433055 -0.30982894 0.66042846 0.22858877
0.5555557 -0.47647345 -0.5726599 -0.45169792 -0.38837722 0.23385003 0.20286891 0.5552029
-0.29843825 -0.29258937 0.4468936 -0.19551021 0.3083782 -0.07577825 0.3444683 -0.45764104
-0.30031347 0.16696182 0.12601791 -0.021821957 0.3842997 0.39248803 -0.41867903 -0.30822894
0.51213384 -0.21277143 -0.20703201 -0.558641 -0.3306313 0.14422421 -0.0762063 -0.41909045
0.013542728 -0.3943773 -0.48982203 -0.3179252 -0.5053039 -0.3676209 0.5771244 0.13431041
0.27654412 -0.5384855 -0.37918854 -0.19217439 0.090280905 -0.35857952 -0.08799432 -0.32060745
-0.007775179 -0.16121557 -0.044693373 -0.3912297 -0.39629042 -0.3368272 -0.19762552 -0.45569152
0.4840908 -0.122342035 0.59794134 0.24243343 -0.44158807 0.5054269 -0.132938 -0.2213134
-0.4792414 -0.5739789 0.13877158 -0.03325544 0.26529586 -0.38418353 0.5491171 -0.3982787
-0.11898141 0.16329476 0.3434938 0.457718 0.615613 -0.43913665 0.14530016 -0.24833333
-0.06326882 -0.4299755 0.62743616 -0.4130623 0.2654994 0.26475435 0.25062543 -0.33903474
0.57889193 0.12475468 0.07427037 -0.5087927 0.24236499 -0.105942436 -0.26818103 0.505405
0.12871954 -0.3194343 -0.29221943 -0.07269746 0.39231843 -0.11852445 -0.32942155 -0.19770949
-0.43132386 0.23946662 0.5905421 -0.5020844 0.14225367 0.38837445 0.120747715 -0.25103763
0.38811857 0.3481607 0.21588698 -0.1014528 -0.15288308 0.06413252 0.011217825 -0.122861974
0.3782987 0.61476964 0.003101021 -0.12926692 0.008424862 -0.034472566 0.1564779 0.25969127
-0.5177448 -0.16422407 0.57917833 0.29676995 -0.028716 -0.3480878 -0.35322583 -0.5259282
-0.19890216 0.18446955 0.3858025 0.38714418 -0.46129966 -0.34194538 0.0016212341 0.59086156
0.08351804 -0.14951682 0.2388586 -0.19699913 -0.2361679 0.46481615 -0.2625222 -0.11573953
-0.5743505 0.388549 0.55968136 0.24451804 -0.40257144 -0.56981003 -0.46891174 0.43781045
0.37976575 0.49491712 0.30217192 0.26557583 0.02173292 -0.43907836 -0.49465764 -0.54002374
0.21224019 -0.32523078 -0.11764176 -0.33226812 -0.10520682 -0.40635926 -0.37724972 0.19151333
-0.17158641 0.35642326 -0.18521902 -0.42352524 -0.107881814 -0.17031759 -0.17077793 -0.5309057
00000000: 5302 da3e 9cad 083f 1240 17be 72f9 003f
00000010: 395e e5bc 3a0a 293e 67cf 85be 5212 d33e
00000020: bef7 103f d48d ffbe 720c 103f ede6 b73d
00000030: c9fb c93e f23e 133e 9e96 953e 37e0 dabd
00000040: 8444 033f 173c 653d 19c7 8dbe 25fa 0f3e
00000050: fe31 88be 3caa 8abd 9e1f 70be 3c18 c43e
00000060: da4d e6be b869 62be 28e5 35be e00b b3be
00000070: 8aa4 153e 49c7 09bf e78d 063f 16c4 e8be
00000080: 5eb8 f03e b6c6 c43d adf7 3fbe 07ab b63e
00000090: f29c a83d 7c80 093f 21c6 ce3d 3b11 2ebe
000000a0: 3b3a 8e3e f246 cfbd 9143 793e b618 1d3f
000000b0: cb02 b53e 27af a7be cd25 c93e 2bc1 083e
000000c0: 231e 963e f62b b4be 644f 12bf 9cbd 82be
000000d0: ffc6 d9be bdca ff3e a5bf 243e b4f2 a63e
000000e0: 30d8 463e 49fd c6ba 9b58 0b3f 6e5f dabe
000000f0: f7e5 143d dbc2 c9be bd4c 363e e299 4bbe
00000100: c527 353e 8358 f6bd c62b f53e 6534 afbe
00000110: 184c b0be e6a1 9ebe d711 293f 2d13 6a3e
00000120: e638 0e3f 54f4 f3be d799 12bf f344 e7be
00000130: 61d9 c6be 6276 6f3e debc 4f3e c721 0e3f
00000140: e6cc 98be 46ce 95be 3dcf e43e d433 48be
00000150: bfe3 9d3e a131 9bbd 265e b03e ed4f eabe
00000160: b0c2 99be 0af8 2a3e d70a 013e f6c3 b2bc
00000170: eec2 c43e 31f4 c83e 195d d6be 2fd0 9dbe
00000180: 341b 033f c1e0 59be 3300 54be 1903 0fbf
00000190: 8148 a9be 83af 133e 0c12 9cbd 0693 d6be
000001a0: 51e2 5d3c d2eb c9be f4c9 fabe 18c7 a2be
000001b0: 995b 01bf ce38 bcbe 6dbe 133f ab88 093e
000001c0: 3197 8d3e 30da 09bf 0025 c2be 5dc9 44be
000001d0: 32e5 b83d bc97 b7be 5e36 b4bd a926 a4be
000001e0: eec6 febb b215 25be 6610 37bd 424f c8be
000001f0: 94e6 cabe 9d74 acbe 585e 4abe 6650 e9be
00000200: c0da f73e 768e fabd af12 193f 7840 783e
00000210: d517 e2be a863 013f e620 08be fb9f 62be
00000220: 215f f5be 48f0 12bf 231a 0e3e db36 08bd
00000230: dcd4 873e b4b3 c4be f092 0c3f 30eb cbbe
00000240: 87ac f3bd be36 273e 6bde af3e 045a ea3e
00000250: d098 1d3f 85d6 e0be 91c9 143e 184b 7ebe
00000260: 1593 81bd c025 dcbe a89f 203f e77c d3be
00000270: 8aef 873e e28d 873e fa51 803e f695 adbe
00000280: 4332 143f 627f ff3d 101b 983d 3d40 02bf
00000290: 872e 783e 59f8 d8bd 064f 89be 3962 013f
000002a0: 0ecf 033e e48c a3be c99d 95be 68e2 94bd
000002b0: f6dd c83e f2bc f2bd f1a9 a8be 5b74 4abe
000002c0: 7bd6 dcbe bd36 753e c42d 173f 9a88 00bf
000002d0: f2aa 113e 04d9 c63e 944a f73d 0188 80be
000002e0: 7ab7 c63e 1f42 b23e 7a11 5d3e 7cc6 cfbd
000002f0: 628d 1cbe e957 833d f8ca 373c 0f9f fbbd
00000300: 5eb0 c13e 8b61 1d3f 803a 4b3b 8c5e 04be
00000310: 6f08 0a3c 1b33 0dbd be3b 203e 41f6 843e
00000320: ec8a 04bf 5b2a 28be 0845 143f 3bf2 973e
00000330: d13d ebbc 9038 b2be 04da b4be 3ba3 06bf
00000340: 02ad 4bbe 96e5 3c3e e887 c53e c337 c63e
00000350: 782f ecbe 7713 afbe 977f d43a b442 173f
00000360: 820b ab3d f01a 19be 5997 743e 24ba 49be
00000370: ffd5 71be 62fc ed3e 4f69 86be d908 edbd
00000380: a208 13bf e5ef c63e 4747 0f3f f062 7a3e
00000390: d81d cebe 12df 11bf 3315 f0be b128 e03e
000003a0: a870 c23e c765 fd3e 47b6 9a3e 8ef9 873e
000003b0: 3d09 b23c e1ce e0be c443 fdbe ff3e 0abf
000003c0: 7e55 593e a684 a6be 2aee f0bd 0c1f aabe
000003d0: ac76 d7bd 520e d0be e026 c1be 121c 443e
000003e0: 59b4 2fbe 1c7d b63e 0eaa 3dbe 4dd8 d8be
000003f0: 24f1 dcbd bc67 2ebe 69e0 2ebe 70e9 07bf

fc1.bias f4 [128]
0.051005904 0.6105719 -0.4219273 -0.17007066 0.3907544 -0.072056204 -0.12475699 -0.24063478
0.43762195 0.36592066 0.2212039 -0.32444987 -0.4017482 0.17283161 0.25814214 -0.21534994
-0.16154125 0.3992706 0.12023469 0.10777026 -0.14208621 -0.52284247 -0.5428579 -0.14471059
-0.2934795 0.17987555 -0.1054523 -0.08997975 0.60035515 0.1920456 0.5251913 -0.27950263
-0.2538161 0.21219958 -0.38467413 -0.3774162 -0.027885826 -0.117844276 -0.43281522 0.49883276
0.50804985 0.093659684 -0.10052434 -0.44382674 -0.109093286 0.14698507 0.35312474 0.045031145
-0.19450729 0.39945227 -0.45980158 0.45327953 -0.17060548 0.051667392 -0.11409357 0.06203864
-0.17447433 0.47634003 -0.015009468 0.58288425 0.63596517 -0.20425503 -0.42118227 0.5653343
0.559433 -0.44083422 0.04371861 -0.47879344 -0.4726184 0.10100685 0.26342934 0.20668232
-0.15713435 0.6587357 0.08254836 -0.2305262 -0.032685995 0.23070113 0.3071268 -0.4082333
0.17633976 -0.29495767 -0.47974363 -0.315353 0.6509637 0.6182722 0.5932572 0.4112516
0.54817665 -0.07727818 -0.31767422 0.378195 -0.17876475 -0.38963398 -0.18436758 0.121162295
0.3875589 -0.22424805 -0.3398089 0.07788055 -0.3403094 -0.37589046 0.41769668 -0.0026920561
0.63998675 0.6371037 0.24989976 0.29009077 0.13295437 0.009041814 0.05656829 0.1472876
0.2466062 0.5759894 -0.14962557 -0.1938187 -0.029016573 -0.23681048 0.18488646 0.51156014
0.55025524 0.30574507 -0.42489025 -0.21520387 -0.12685044 -0.022372607 0.017956844 -0.5299911
00000000: 91eb 503d 714e 1c3f db06 d8be 0127 2ebe
00000010: f610 c83e 3492 93bd 9880 ffbd f768 76be
00000020: fc0f e03e f459 bb3e 4683 623e 4b1e a6be
00000030: f1b1 cdbe c5fa 303e 352b 843e b284 5cbe
00000040: 126b 25be 326d cc3e 9b3d f63d a7b6 dc3d
00000050: 0c7f 11be 01d9 05bf bcf8 0abf 032f 14be
00000060: f242 96be 4c31 383e 60f7 d7bd 4e47 b8bd
00000070: e0b0 193f 9aa7 443e f072 063f f81a 8fbe
00000080: 2ff4 81be d94a 593e 02f4 c4be b23c c1be
00000090: d170 e4bc 5758 f1bd f599 ddbe 0267 ff3e
000000a0: 8e0f 023f a6d0 bf3d b5df cdbd 423d e3be
000000b0: 4d6c dfbd 4183 163e c4cc b43e 9472 383d
000000c0: eb2c 47be 0285 cc3e 1d6b ebbe 4114 e83e
000000d0: 34b3 2ebe 30a1 533d e4a9 e9bd 3b1c 7e3d
000000e0: 66a9 32be d7e2 f33e 46ea 75bc e737 153f
000000f0: 9dce 223f 3b28 51be 34a5 d7be c0b9 103f
00000100: 0037 0f3f 06b5 e1be 4912 333d 6a24 f5be
00000110: 0afb f1be aedc ce3d 36e0 863e 88a4 533e
00000120: d4e7 20be e7a2 283f 1d0f a93d 0f0f 6cbe
00000130: c0e1 05bd eb3c 6c3e b93f 9d3e f503 d1be
00000140: 6992 343e b104 97be f5a0 f5be f375 a1be
00000150: 8fa5 263f 1647 1e3f b4df 173f 928f d23e
00000160: 4e55 0c3f 0644 9ebd 32a6 a2be c6a2 c13e
00000170: 1b0e 37be 1b7e c7be dbca 3cbe f023 f83d
00000180: 1f6e c63e 48a1 65be 6ffb adbe d67f 9f3d
00000190: 093d aebe b774 c0be 57dc d53e 356d 30bb
000001a0: 2cd6 233f 3a19 233f b9e5 7f3e c786 943e
000001b0: 3125 083e 1e24 143c 27b4 673d 90d2 163e
000001c0: 5686 7c3e 0b74 133f 7237 19be 6978 46be
000001d0: 2ab4 edbc 727e 72be e052 3d3e 9bf5 023f
000001e0: 87dd 0c3f 9e8a 9c3e 378b d9be 675e 5cbe
000001f0: 15e5 01be c246 b7bc 3b1a 933c 7fad 07bf

fc2.weight f4 [128, 128]
0.027510406 -0.067429006 -0.055927254 -0.073484525 0.077014506 -0.083698444 0.06667723 -0.0029713423
-0.010279458 0.05528501 -0.008169523 0.055433113 0.063906096 -0.076739654 0.03401042 0.016685864
0.01900453 0.012903943 0.02417695 -0.042520702 -0.011308505 0.08397953 0.059383664 -0.0033206132
-0.08313197 0.0038738642 -0.060190123 0.07187665 -0.05365945 -0.006381781 -0.019617144 0.015729045
0.083175875 0.008398592 0.051191352 0.06860895 0.0713569 -0.030525044 -0.019768642 0.04259768
-0.024118323 0.041389078 -0.01931 -0.059949603 0.03597789 0.013551529 0.039407797 0.08781259
0.060345635 0.08379048 0.004730794 -0.076032765 -0.06200683 -0.05490452 -0.07789209 -0.044304438
-0.08136746 -0.08154844 -0.05281686 -0.087136224 -0.05425387 0.03370324 0.073720545 -0.026292248
-0.025710294 0.04719525 -0.043608237 -0.04179289 0.05445867 -0.07701291 0.010807663 0.07808067
0.015157408 0.024036663 -0.05147659 -0.0012194559 0.004859985 0.02169353 0.034342937 0.076803096
-0.06746678 0.0026494667 -0.044162024 -0.06992083 -0.007077931 -0.07780268 0.06168616 0.010236679
-0.04763761 0.0461899 -0.083653204 -0.034188543 -0.017219706 -0.07510802 -0.05620512 -0.0144266235
0.06706595 0.085352585 0.056238182 -0.052778803 -0.057825528 0.077135906 0.0312645 0.002348275
0.011961781 -0.07103743 -0.02951158 0.08508422 -0.021799413 -0.004433922 -0.073391594 -0.04944507
-0.0018048545 -0.054903254 -0.0109610045 0.03597045 -0.08645947 0.026252408 -0.058443096 -0.043138027
0.033933144 0.07027936 -0.024157299 -0.03628952 -0.07992391 -0.04557813 -0.0773961 -0.020229487
0.015673352 -0.08521976 0.07717306 0.053356055 -0.08890739 -0.04451287 0.029799117 -0.018160233
-0.011729654 -0.04212751 0.07099525 -0.049408928 0.07662037 0.003385399 0.015428146 0.06745867
-0.014563358 -0.050323315 -0.016612714 0.06937154 -0.065583035 0.020062426 -0.08686731 0.04413735
0.032656644 0.0037469813 0.035558555 -0.0018383572 0.04654642 -0.06997003 -0.01539596 0.03921036
0.0880186 0.045024265 -0.064273745 0.0679792 -0.019710448 -0.018872188 -0.080337025 -0.015340472
0.060183536 0.012325298 -0.05148214 0.027207002 -0.03040352 0.080698036 -0.079064064 -0.030140229
-0.08534545 -0.037171923 0.02786422 0.08281684 0.0076467614 0.084397964 0.017293368 0.05104745
0.0708576 0.071596414 -0.049473055 0.07893283 0.051213015 -0.042739414 -0.042179216 -0.0764962
0.019845499 -0.07164311 0.03506853 0.027912835 -0.07679199 0.024085902 -0.009549853 0.042491723
0.050716314 -0.09002125 0.08106086 0.07154409 0.03516828 -0.083194144 -0.03398442 -0.025615728
-0.022715623 0.04984423 0.0321354 0.0700194 -0.035443038 0.027484551 0.029093865 -0.07588129
-0.08806792 -0.045863748 0.060506035 -0.08556596 -0.07693621 0.049515203 0.047688074 0.07268993
-0.06914787 -0.06469141 0.045342043 0.076865174 0.05288618 0.0138462195 0.026858825 0.081595056
-0.059298743 -0.0424711 0.059538785 -0.06280515 -0.048738446 0.064522706 0.025221365 0.026433742
-0.039745025 -0.0035040732 0.08089591 -0.055266008 0.00069492776 0.03961296 -0.06284196 0.08343856
-0.046298645 -0.023548268 -0.02391526 -0.05990442 -0.08673236 0.04983791 0.023482496 -0.08278459
00000000: 815d e13c 3818 8abd fa13 65bd 0e7f 96bd
00000010: c8b9 9d3d 176a abbd 128e 883d daba 42bb
00000020: 2c6b 28bc 8972 623d 77d9 05bc d50d 633d
00000030: 33e1 823d ae29 9dbd 834e 0b3d cbb0 883c
00000040: 63af 9b3c 0f6b 533c bd0e c63c 302a 2ebd
00000050: 4f47 39bc 76fd ab3d 493c 733d a59e 59bb
00000060: 1841 aabd a8e0 7d3b eb89 76bd 1134 933d
00000070: 03ca 5bbd 421e d1bb 22b4 a0bc 33da 803c
00000080: 1d58 aa3d 3f9a 093c 06ae 513d d982 8c3d
00000090: 9123 923d a80f fabc d9f1 a1bc e87a 2e3d
000000a0: ca93 c5bc 9887 293d 0130 9ebc b78d 75bd
000000b0: 8d5d 133d 3b07 5e3c 126a 213d 16d7 b33d
000000c0: fc2c 773d 589a ab3d c704 9b3b 11b7 9bbd
000000d0: e0fa 7dbd 90e3 60bd e385 9fbd 9278 35bd
000000e0: fca3 a6bd de02 a7bd 7e56 58bd 7a74 b2bd
000000f0: 4e39 5ebd 690c 0a3d ccfa 963d d762 d7bc
00000100: 659e d2bc ce4f 413d 8d9e 32bd 052f 2bbd
00000110: 0e10 5f3d f2b8 9dbd a012 313c c2e8 9f3d
00000120: c756 783c 89e8 c43c 1ed9 52bd 26d6 9fba
00000130: 8240 9f3b a1b6 b13c 2eab 0c3d f14a 9d3d
00000140: 062c 8abd ada2 2d3b 3de3 34bd a732 8fbd
00000150: fded e7bb 0357 9fbd a0aa 7c3d beb7 273c
00000160: a81f 43bd 9f31 3d3d 5f52 abbd 4909 0cbd
00000170: 5710 8dbc 3cd2 99bd 5737 66bd a55d 6cbc
00000180: df59 893d 56cd ae3d 025a 663d 962e 58bd
00000190: 76da 6cbd 6ef9 9d3d 340f 003d 84e5 193b
000001a0: 59fb 433c 127c 91bd 45c2 f1bc a340 ae3d
000001b0: af94 b2bc 6f4a 91bb 554e 96bd ea86 4abd
000001c0: de90 ecba 3ce2 60bd c995 33bc c055 133d
000001d0: aa11 b1bd 4a0f d73c 0762 6fbd 80b1 30bd
000001e0: 7bfd 0a3d a0ee 8f3d 87e5 c5bc 52a4 14bd
000001f0: 26af a3bd 22b0 3abd d981 9ebd 4fb8 a5bc
00000200: 6765 803c b387 aebd e90c 9e3d e18b 5a3d
00000210: 1415 b6bd 2153 36bd 471d f43c c5c4 94bc
00000220: bc2d 40bc e58d 2cbd f565 913d 0461 4abd
00000230: 24eb 9c3d 92dd 5d3b 56c6 7c3c c527 8a3d
00000240: 279b 6ebc d21f 4ebd 6317 88bc aa12 8e3d
00000250: 6650 86bd f559 a43c 7de7 b1bd 5ec9 343d
00000260: f9c2 053d ea8f 753b d9a5 113d 08f5 f0ba
00000270: 75a7 3e3d 724c 8fbd 563f 7cbc 0b9b 203d
00000280: 1943 b43d 5d6b 383d f4a1 83bd ae38 8b3d
00000290: ce77 a1bc d999 9abc bd87 a4bd 9a56 7bbc
000002a0: 0383 763d 0cf0 493c f0de 52bd 38e1 de3c
000002b0: ce10 f9bc 0345 a53d 57ec a1bd a4e8 f6bc
000002c0: 98c9 aebd 9641 18bd 8143 e43c e09b a93d
000002d0: af91 fa3b d7d8 ac3d d2aa 8d3c 2217 513d
000002e0: ca1d 913d 24a1 923d 42a4 4abd 89a7 a13d
000002f0: bdc4 513d 860f 2fbd 1dc4 2cbd 0aaa 9cbd
00000300: 0793 a23c 9fb9 92bd 05a4 0f3d 75a9 e43c
00000310: 1e45 9dbd cc4f c53c fd76 1cbc cd0b 2e3d
00000320: e9bb 4f3d 105d b8bd 3c03 a63d b585 923d
00000330: 9d0c 103d b161 aabd 3f33 0bbd 13d8 d1bc
00000340: 1d16 babc 7729 4c3d 69a0 033d 5566 8f3d
00000350: b82c 11bd 4827 e13c 4256 ee3c a667 9bbd
00000360: f45c b4bd a0db 3bbd 2dd5 773d 353d afbd
00000370: bb90 9dbd 74d0 4a3d 9254 433d 75de 943d
00000380: 669d 8dbd ee7c 84bd 94b8 393d 7d6b 9d3d
00000390: 2e9f 583d 41db 623c 0a07 dc3c 4f1b a73d
000003a0: 3de3 72bd 2df6 2dbd f1de 733d fd9f 80bd
000003b0: f7a1 47bd 7b24 843d 099d ce3c 938b d83c
000003c0: aecb 22bd 98a4 65bb c1ac a53d 9c5e 62bd
000003d0: d02b 363a 3341 223d 49b3 80bd d6e1 aa3d
000003e0: a6a3 3dbd 4ce8 c0bc efe9 c3bc 565e 75bd
000003f0: bca0 b1bd d622 4c3d 5d5e c03c f88a a9bd

fc2.bias f4 [128]
-0.07533685 0.07579703 -0.07831675 -0.037633248 -0.022633258 -0.016767135 -0.019278921 0.059845854
0.06613344 -0.088699825 -0.08200573 -0.08649869 0.11107388 -0.01072023 -0.04375122 0.038945805
0.011552198 0.017832873 0.119298756 0.06419995 0.09255896 -0.058925856 -0.00467182 -0.06596574
-0.03189178 -0.013292822 0.049564335 0.06488997 -0.049831904 -0.02715209 0.033349916 0.13885279
0.1898349 -0.088139884 0.020686263 0.046060145 0.047709838 -0.08603999 -0.065988496 0.054601558
-0.009771074 0.035085846 0.07208937 -0.010915041 -0.025970887 0.048189472 -0.06914219 -0.013187492
-0.013389885 -0.021147339 0.040146157 -0.022821601 0.0029463286 0.025106646 0.001841459 -0.028420158
0.080401644 0.049257413 -0.018862408 0.034620274 -0.03866909 0.04431404 0.04333657 -0.03740624
0.056999456 -0.0104141915 0.0903779 -0.03276895 -0.00066410203 -0.01847154 0.00957029 -0.0840654
0.09404527 -0.069114484 -0.08212858 -0.09457395 -0.023067972 0.07048878 0.009230202 -0.0059784814
-0.04673021 -0.0144500695 -0.026775131 -0.06988752 -0.019474778 0.025644056 0.041812398 -0.08028587
0.07476593 0.19842072 -0.040100697 -0.07528576 0.012905976 0.019941865 -0.023632044 -0.040604938
-0.003311038 -0.060844842 -0.059810735 0.028275814 0.009995272 0.020160977 0.06874456 -0.000860449
0.08071041 0.12016323 -0.061336383 0.050950192 0.048246395 -0.033755757 0.15302621 -0.04052313
-0.056935616 0.0578151 0.041002415 0.084059834 -0.06982051 0.04020818 0.02170179 -0.052765884
-0.01189094 0.06619581 0.03732251 -0.040640857 -0.00094590173 -0.031240739 0.058341194 0.118261114
00000000: 354a 9abd 793b 9b3d 8864 a0bd 5225 1abd
00000010: 6269 b9bc 3b5b 89bc d4ee 9dbc ed20 753d
00000020: f870 873d 41a8 b5bd 9ff2 a7bd 3a26 b1bd
00000030: b47a e33d e7a3 2fbc 7b34 33bd a385 1f3d
00000040: 6e45 3d3c 3f16 923c e852 f43d 437b 833d
00000050: 8d8f bd3d 3d5c 71bd 1116 99bb 0c19 87bd
00000060: f5a0 02bd 23ca 59bc f903 4b3d 08e5 843d
00000070: 8a1c 4cbd 0f6e debc ec99 083d 6d2f 0e3e
00000080: 1464 423e af82 b4bd 3d76 a93c 90a9 3c3d
00000090: 646b 433d bc35 b0bd fa24 87bd e2a5 5f3d
000000a0: db16 20bc 2db6 0f3d 97a3 933d 00d5 32bc
000000b0: e6c0 d4bc 5362 453d 6c9a 8dbd 5a10 58bc
000000c0: 4061 5bbc 2f3d adbc 4c70 243d 5ef4 babc
000000d0: 3117 413b 74ac cd3c 1c5d f13a 64d1 e8bc
000000e0: 9ea9 a43d 24c2 493d 5685 9abc fdcd 0d3d
000000f0: 7b63 1ebd a482 353d b081 313d 4937 19bd
00000100: 4378 693d 49a0 2abc 0c18 b93d bc38 06bd
00000110: 2217 2eba a151 97bc b5cc 1c3c 7b2a acbd
00000120: ce9a c03d e58b 8dbd 0733 a8bd fdaf c1bd
00000130: 0bf9 bcbc 6c5c 903d 463a 173c 23e7 c3bb
00000140: 2d68 3fbd fcbf 6cbc 8557 dbbc 3021 8fbd
00000150: 9289 9fbc 7c13 d23c 7a43 2b3d eb6c a4bd
00000160: e11e 993d cd2e 4b3e a140 24bd 6c2f 9abd
00000170: 9673 533c 1f5d a33c fd97 c1bc 5d51 26bd
00000180: 00fe 58bb 7138 79bd 1afc 74bd aea2 e73c
00000190: 36c3 233c a228 a53c f3c9 8c3d c18f 61ba
000001a0: 804b a53d 2418 f63d dc3b 7bbd 26b1 503d
000001b0: 039e 453d 7a43 0abd e7b2 1c3e 95fb 25bd
000001c0: 5235 69bd 87cf 6c3d 26f2 273d 9027 ac3d
000001d0: 0efe 8ebd 55b1 243d f4c7 b13c 0a21 58bd
000001e0: 38d2 42bc ab91 873d 7ddf 183d 0777 26bd
000001f0: 64f6 77ba 94ec ffbc 2df7 6e3d e232 f23d

fc3.weight f4 [13, 128]
-0.013088546 -0.020477569 -0.06854308 -0.019561132 0.03963424 -0.08511509 0.033474546 0.084258415
0.038044695 0.04686049 -0.023922373 -0.007454576 -0.13285284 -0.042775195 0.022208396 -0.04884355
0.05211561 -0.042223793 0.0058834073 -0.04650902 -0.14978364 -0.033895127 -0.060112815 0.017234188
0.013918838 0.06560607 0.0461577 -0.084651776 0.034105312 0.042208176 -0.09393055 -0.14792678
-0.17115864 -0.043867957 -0.007132581 0.0868762 0.074382834 -0.022672985 0.006572604 0.0040988503
0.008702645 -0.059951108 0.010837219 0.062256813 0.014470783 0.08073356 0.082090914 -0.14374524
0.07846915 -0.06977805 -0.041866727 0.05453242 0.0033685514 0.076331325 0.04117843 -0.018829526
0.032371745 -0.06343316 0.009113733 -0.046598747 0.06631421 0.09750329 0.034717534 -0.049415514
0.006478551 0.060850978 -0.08307702 -0.017486146 0.0347704 -0.007686089 0.031944077 0.00024704376
-0.09067951 0.012831144 -0.00058892847 -0.06400682 -0.06571467 0.0065410635 -0.03441901 -0.0026798025
0.06531317 -0.046459045 0.04825727 0.061628148 0.048295982 -0.11523829 0.0133508565 -0.06517506
-0.055957932 -0.107281215 0.076476894 0.049477734 0.02477318 0.05124473 -0.08441681 -0.08430339
0.036712427 -0.021043694 0.028885663 -0.06273128 0.08368598 -0.07285722 0.039042477 0.046565723
-0.16417739 0.020454986 0.04005132 -0.032620024 -0.030757867 0.06764269 -0.104309775 0.0058115865
0.041207284 0.03568168 -0.044259164 -0.003766876 0.02680488 0.034328498 -0.041070703 0.039845597
-0.019164242 0.0027127403 0.045321696 0.06393893 -0.012001378 0.057446335 0.067997575 -0.009424552
-0.0055750795 -0.06780386 -0.05928507 0.05091182 -0.05603643 -0.052045885 0.057255775 -0.049047552
-0.068367995 0.014293975 0.03814747 -0.08012215 -0.035436675 -0.06816221 0.03729152 -0.013004415
0.02974202 0.09387356 -0.0471953 -0.037104227 -0.030273218 0.02652926 -0.039499603 -0.06084293
-0.026911225 0.0347989 0.03735001 -0.1073043 0.07475791 -0.060037937 -0.025007196 -0.09573839
-0.12593472 0.07328248 -0.06779424 0.046472218 0.027778007 -0.045630418 0.07593907 -0.047850892
-0.0004963132 0.08368899 -0.08323623 0.07299489 -0.043618396 -0.07173933 0.049585957 -0.0899785
-0.07313574 -0.047446597 0.05909358 0.0809281 -0.006681048 0.045392122 0.0017327424 -0.066179916
-0.011151413 0.062937975 -0.015643138 -0.058768205 0.072553694 -0.018397529 0.07400541 0.050705224
0.015507168 0.02348162 -0.046335407 -0.03853664 -0.050175495 -0.034973558 -0.04944881 -0.01301305
-0.0949472 -0.028465634 -0.06018105 -0.084950335 0.020183701 0.035315022 -0.035847675 -0.06550433
-0.041274417 -0.112643406 -0.094751544 0.09172593 0.047853794 0.026868014 -0.09259044 -0.05844457
0.07617827 -0.104536906 -0.054625276 -0.07362588 0.026903091 -0.011795701 -0.053927884 0.075264335
-0.05205563 0.009567991 0.030705797 0.042296205 0.07398386 -0.020525131 0.039557084 -0.0070143207
-0.05450588 -0.107411735 0.048700653 0.025890261 0.024665974 -0.0067734094 -0.025090128 -0.08537304
0.065167256 0.063782275 0.047356863 -0.054423235 -0.08247585 -0.025469389 -0.07101059 -0.042347815
0.062238034 -0.04925114 0.08805801 -0.044556025 -0.041166198 -0.070840314 0.03366469 -0.014454603
00000000: 5771 56bc 93c0 a7bc 5060 8cbd ab3e a0bc
00000010: 8357 223d d250 aebd 9b1c 093d ad8f ac3d
00000020: c1d4 1b3d c9f0 3f3d daf8 c3bc 8445 f4bb
00000030: 930a 08be 0b35 2fbd 62ee b53c 2d10 48bd
00000040: 2e77 553d dbf2 2cbd 99c9 c03b 3e80 3ebd
00000050: e260 19be 9ed5 0abd db38 76bd b62e 8d3c
00000060: d70b 643c 7a5c 863d db0f 3d3d e95d adbd
00000070: 03b2 0b3d 7be2 2c3d a95e c0bd 1e7a 17be
00000080: 3644 2fbe e3ae 33bd 6db8 e9bb 26ec b13d
00000090: 0756 983d b2bc b9bc 005f d73b a64f 863b
000000a0: 8a95 0e3c 4b8f 75bd 978e 313c 0001 7f3d
000000b0: dd16 6d3c a357 a53d 481f a83d f431 13be
000000c0: 6fb4 a03d cbe7 8ebd 727c 2bbd 635d 5f3d
000000d0: eac2 5c3b 9953 9c3d b7aa 283d 6140 9abc
000000e0: 3c98 043d 3fe9 81bd c451 153c 54de 3ebd
000000f0: bfcf 873d ceaf c73d f933 0e3d ec67 4abd
00000100: 064a d43b e03e 793d 4924 aabd 1b3f 8fbc
00000110: 686b 0e3d 96db fbbb cbd7 023d a785 8139
00000120: 2eb6 b9bd b839 523c 5262 1aba 0216 83bd
00000130: 6a95 86bd 6b56 d63b f3fa 0cbd a09f 2fbb
00000140: e9c2 853d d74b 3ebd 6aa9 453d cc6d 7c3d
00000150: 02d2 453d 0d02 ecbd 8dbd 5a3c 807a 85bd
00000160: 2534 65bd 41b6 dbbd eb9f 9c3d 2aa9 4a3d
00000170: 20f1 ca3c fee5 513d b8e2 acbd 41a7 acbd
00000180: c55f 163d d363 acbc a0a1 ec3c 4279 80bd
00000190: 8e63 ab3d 2b36 95bd 01eb 1f3d b3bb 3e3d
000001a0: 1e1e 28be 3791 a73c da0c 243d 939c 05bd
000001b0: ecf7 fbbc 4088 8a3d 5da0 d5bd 1f6f be3b
000001c0: f8c8 283d f426 123d 1949 35bd b1dd 76bb
000001d0: e895 db3c 0a9c 0c3d c139 28bd 2335 233d
000001e0: 54fe 9cbc 3bc8 313b 3ea3 393d 6af2 823d
000001f0: 6ea1 44bc d94c 6b3d 5042 8b3d 7069 1abc
00000200: 28af b6bb c0dc 8abd e7d4 72bd ea88 503d
00000210: 7586 65bd 112e 55bd 0885 6a3d 16e6 48bd
00000220: 8504 8cbd 4731 6a3c 8640 1c3d 1517 a4bd
00000230: 0c26 11bd a198 8bbd febe 183d 7810 55bc
00000240: 89a5 f33c c840 c03d dc4f 41bd 9afa 17bd
00000250: 8aff f7bc e453 d93c 56ca 21bd 7036 79bd
00000260: ee74 dcbc 4b89 0e3d 53fc 183d 5bc2 dbbd
00000270: ad1a 993d 57ea 75bd e4db ccbc 7d12 c4bd
00000280: 08f5 00be 2015 963d b5d7 8abd a759 3e3d
00000290: b48e e33c f6e6 3abd f185 9b3d 4cff 43bd
000002a0: 041b 02ba 2265 ab3d c277 aabd 587e 953d
000002b0: 34a9 32bd 12ec 92bd a51a 4b3d a646 b8bd
000002c0: 31c8 95bd 5d57 42bd 1c0c 723d a2bd a53d
000002d0: b1ec dabb 17ed 393d 301d e33a 5689 87bd
000002e0: 6bb4 36bc a0e5 803d 0a26 80bc eeb6 70bd
000002f0: 0897 943d 6ab6 96bc 2690 973d 48b0 4f3d
00000300: c711 7e3c 875c c03c 32ca 3dbd 99d8 1dbd
00000310: d284 4dbd 6f40 0fbd d68a 4abd b034 55bc
00000320: ad73 c2bd c330 e9bc 6880 76bd 71fa adbd
00000330: 4a58 a53c 7ca6 103d 03d5 12bd 2227 86bd
00000340: 5d0f 29bd 96b1 e6bd 190d c2bd ceda bb3d
00000350: 5702 443d 4f1a dc3c 0ea0 bdbd 9363 6fbd
00000360: 5a03 9c3d 7217 d6bd c1be 5fbd 2ac9 96bd
00000370: df63 dc3c c242 41bc 7ce3 5cbd 3024 9a3d
00000380: 4938 55bd 10c3 1c3c b98a fb3c c93e 2d3d
00000390: da84 973d 5224 a8bc 9c06 223d 63d8 e5bb
000003a0: 8f41 5fbd affa dbbd 567a 473d d017 d43c
000003b0: 4c10 ca3c 7af3 ddbb d089 cdbc 0fd8 aebd
000003c0: 6976 853d 48a0 823d 45f9 413d e6ea 5ebd
000003d0: 19e9 a8bd 2ea5 d0bc 006e 91bd e774 2dbd
000003e0: 4fed 7e3d 90bb 49bd c257 b43d 6180 36bd
000003f0: e39d 28bd ba14 91bd fce3 093d 00d3 6cbc

fc3.bias f4 [13]
0.041739143 -0.06866682 -0.010576821 0.030696912 0.018638033 -0.07883862 -0.074353166 -0.1059194
0.02279989 -0.056339223 -0.023406113 0.04838531 0.027714653
00000000: aaf6 2a3d 31a1 8cbd 674a 2dbc 1778 fb3c
00000010: caae 983c 2476 a1bd 7946 98bd 45ec d8bd
00000020: d6c6 ba3c f5c3 66bd 2dbe bfbc ad2f 463d
00000030: d709 e33c
