models/model_episode_4900.pth (torch, 77430 bytes, 6 tensors)

fc1.weight f4 [128, 3]
0.4266867 0.53767425 -0.14094315 0.50493485 -0.024703266 0.17096104 -0.25375608 0.41613036
0.5719212 -0.49827626 0.5663917 0.094255656 0.39464924 0.14588442 0.29632026 -0.10611416
0.5160485 0.06188381 -0.27690962 0.14060266 -0.2660064 -0.06770751 -0.23449561 0.3829974
-0.4550123 -0.2200173 -0.17710368 -0.35544547 0.14594047 -0.53789353 0.5259012 -0.45422512
0.47022 0.096082136 -0.18746825 0.35677359 0.083141595 0.54154485 0.10844899 -0.16932294
0.28109613 -0.095122226 0.2440684 0.6162812 0.35838142 -0.31667045 0.39819717 0.13869266
0.29319867 -0.3518979 -0.5715239 -0.24981092 -0.42275155 0.5036975 0.1617492 0.32924944
0.19994842 -0.0008260428 0.54713506 -0.4213366 0.036352124 -0.39406475 0.17802711 -0.1988292
0.17690952 -0.12028601 0.4788496 -0.3421966 -0.34433055 -0.30940515 0.66282225 0.23308235
0.5555557 -0.47647345 -0.5726599 -0.45169792 -0.38837722 0.23385003 0.20364358 0.5587916
-0.291886 -0.2983109 0.44755104 -0.19566797 0.30954623 -0.0723118 0.3506376 -0.45764104
-0.30031347 0.16696182 0.1272129 -0.018431755 0.39026386 0.39248803 -0.41867903 -0.30822894
0.5088801 -0.2158783 -0.20703201 -0.558641 -0.3306313 0.14422421 -0.0762063 -0.41909045
0.013542728 -0.3943773 -0.48982203 -0.3179252 -0.5053039 -0.3676209 0.5771244 0.12876204
0.27640486 -0.5384855 -0.37918854 -0.19217439 0.090280905 -0.36203438 -0.086057134 -0.31553772
-0.007547164 -0.15848276 -0.039466295 -0.3912297 -0.39629042 -0.3368272 -0.19762552 -0.45569152
0.4840908 -0.11517747 0.6033429 0.24755695 -0.45259452 0.5056188 -0.1331173 -0.2213134
-0.4792414 -0.5739789 0.13978854 -0.03011326 0.27095282 -0.39192075 0.5481628 -0.39967242
-0.11401457 0.16557479 0.34710792 0.4582091 0.6183841 -0.4339415 0.14530016 -0.24833333
-0.06326882 -0.42917994 0.63054246 -0.40742302 0.26717722 0.26766554 0.25550956 -0.33809954
0.5822904 0.13084963 0.07427037 -0.5087927 0.24236499 -0.101325564 -0.26569372 0.5085586
0.12871954 -0.3194343 -0.29221943 -0.07240183 0.39481685 -0.113675825 -0.32942155 -0.19770949
-0.43132386 0.24003318 0.593241 -0.49709082 0.14250115 0.3904581 0.124791265 -0.2434884
0.39378938 0.35392687 0.21588698 -0.1014528 -0.15288308 0.06456411 0.013815058 -0.11795073
0.37888667 0.6174617 0.008093528 -0.12926692 0.008424862 -0.034472566 0.1544147 0.2591987
-0.51727986 -0.17471363 0.5799286 0.29512098 -0.028716 -0.3480878 -0.35322583 -0.5259282
-0.19890216 0.18446955 0.3864117 0.3902596 -0.45554754 -0.33847535 0.0044503426 0.5948424
0.08351804 -0.14951682 0.2388586 -0.1962975 -0.23340303 0.46989736 -0.2625222 -0.11573953
-0.5743505 0.3892632 0.56251895 0.24975543 -0.40257144 -0.56981003 -0.46891174 0.43842897
0.38240328 0.49983132 0.30306998 0.26876026 0.027454613 -0.43907836 -0.49465764 -0.54002374
0.2116355 -0.3258567 -0.11744117 -0.33226812 -0.10520682 -0.40635926 -0.37724972 0.19151333
-0.17158641 0.35642326 -0.18521902 -0.42352524 -0.10686914 -0.16673408 -0.16438085 -0.5300504
00000000: ae76 da3e 05a5 093f 6753 10be 6943 013f
00000010: 815e cabc 6910 2f3e 51ec 81be 0a0f d53e
00000020: 6e69 123f 111e ffbe 0cff 103f 1c09 c13d
00000030: 770f ca3e ba62 153e 4ab7 973e 6152 d9bd
00000040: c11b 043f e179 7d3d 19c7 8dbe 25fa 0f3e
00000050: fe31 88be 3caa 8abd 9e1f 70be 3c18 c43e
00000060: 5ff7 e8be 374c 61be ab5a 35be f3fc b5be
00000070: 6b71 153e 64b3 09bf 76a1 063f 3290 e8be
00000080: adc0 f03e b6c6 c43d adf7 3fbe 07ab b63e
00000090: 2446 aa3d afa2 0a3f 811a de3d fe62 2dbe
000000a0: d5eb 8f3e 71cf c2bd 11ed 793e 9bc4 1d3f
000000b0: c57d b73e a122 a2be 80e0 cb3e 7305 0e3e
000000c0: 231e 963e f62b b4be 644f 12bf 6fce 7fbe
000000d0: e472 d8be 52f2 003f 95a1 253e 6293 a83e
000000e0: 47bf 4c3e cb8a 58ba 0b11 0c3f 6eb9 d7be
000000f0: f7e5 143d dbc2 c9be bd4c 363e e299 4bbe
00000100: c527 353e 8358 f6bd c62b f53e 6534 afbe
00000110: 184c b0be 5a6a 9ebe b8ae 293f 24ad 6e3e
00000120: e638 0e3f 54f4 f3be d799 12bf f344 e7be
00000130: 61d9 c6be 6276 6f3e f187 503e f70c 0f3f
00000140: 1572 95be 35bc 98be 6925 e53e 2f5d 48be
00000150: d87c 9e3e 3618 94bd c686 b33e ed4f eabe
00000160: b0c2 99be 0af8 2a3e 1944 023e 31fe 96bc
00000170: aad0 c73e 31f4 c83e 195d d6be 2fd0 9dbe
00000180: f745 023f 330f 5dbe 3300 54be 1903 0fbf
00000190: 8148 a9be 83af 133e 0c12 9cbd 0693 d6be
000001a0: 51e2 5d3c d2eb c9be f4c9 fabe 18c7 a2be
000001b0: 995b 01bf ce38 bcbe 6dbe 133f 32da 033e
000001c0: f084 8d3e 30da 09bf 0025 c2be 5dc9 44be
000001d0: 32e5 b83d 925c b9be b93e b0bd 298e a1be
000001e0: 334e f7bb 4e49 22be 69a7 21bd 424f c8be
000001f0: 94e6 cabe 9d74 acbe 585e 4abe 6650 e9be
00000200: c0da f73e 2ae2 ebbd ae74 1a3f 927f 7d3e
00000210: 78ba e7be 3c70 013f e74f 08be fb9f 62be
00000220: 215f f5be 48f0 12bf ba24 0f3e 15b0 f6bc
00000230: 54ba 8a3e d6a9 c8be 6654 0c3f dda1 ccbe
00000240: 7980 e9bd 708c 293e 21b8 b13e 629a ea3e
00000250: 6c4e 1e3f 952d debe 91c9 143e 184b 7ebe
00000260: 1593 81bd 79bd dbbe 3b6b 213f c099 d0be
00000270: 74cb 883e 750b 893e 26d2 823e 621b adbe
00000280: fc10 153f 72fd 053e 101b 983d 3d40 02bf
00000290: 872e 783e c783 cfbd 0209 88be e530 023f
000002a0: 0ecf 033e e48c a3be c99d 95be 6947 94bd
000002b0: 6f25 ca3e dfce e8bd f1a9 a8be 5b74 4abe
000002c0: 7bd6 dcbe 42cb 753e a4de 173f b082 febe
000002d0: d2eb 113e 20ea c73e 9092 ff3d 0655 79be
000002e0: c39e c93e e735 b53e 7a11 5d3e 7cc6 cfbd
000002f0: 628d 1cbe 303a 843d 8e58 623c 2790 f1bd
00000300: 6ffd c13e f811 1e3f b89a 043c 8c5e 04be
00000310: 6f08 0a3c 1b33 0dbd e31e 1e3e b1b5 843e
00000320: 746c 04bf 21e8 32be 3376 143f 191a 973e
00000330: d13d ebbc 9038 b2be 04da b4be 3ba3 06bf
00000340: 02ad 4bbe 96e5 3c3e c1d7 c53e 1bd0 c73e
00000350: 873d e9be a44c adbe 2ed4 913b 9747 183f
00000360: 820b ab3d f01a 19be 5997 743e 3602 49be
00000370: 3401 6fbe 6396 f03e 4f69 86be d908 edbd
00000380: a208 13bf 824d c73e 3e01 103f e3bf 7f3e
00000390: d81d cebe 12df 11bf 3315 f0be c379 e03e
000003a0: 5dca c33e e4e9 ff3e fd2b 9b3e f29a 893e
000003b0: 7fe8 e03c e1ce e0be c443 fdbe ff3e 0abf
000003c0: fab6 583e b0d6 a6be ff84 f0bd 0c1f aabe
000003d0: ac76 d7bd 520e d0be e026 c1be 121c 443e
000003e0: 59b4 2fbe 1c7d b63e 0eaa 3dbe 4dd8 d8be
000003f0: 35de dabd 57bc 2abe 7453 28be 62b1 07bf

fc1.bias f4 [128]
0.0543353 0.6135861 -0.41772825 -0.16663668 0.39257368 -0.06915931 -0.12475699 -0.24063478
0.43820572 0.36491594 0.22166845 -0.32444987 -0.39774466 0.17571491 0.2604798 -0.20975865
-0.16154125 0.4020536 0.12307395 0.11025614 -0.14208621 -0.52284247 -0.5428579 -0.14260477
-0.2934795 0.17987555 -0.102327034 -0.0899746 0.60352033 0.1920456 0.52828836 -0.27950263
-0.25696364 0.21219958 -0.38467413 -0.3774162 -0.027885826 -0.11860606 -0.43281522 0.5002179
0.51040876 0.093659684 -0.10052434 -0.43822262 -0.109817185 0.14698507 0.35598695 0.042978723
-0.19208784 0.40187874 -0.45980158 0.45601887 -0.16776717 0.05468607 -0.11409357 0.064832576
-0.17447433 0.47850448 -0.015009468 0.58525795 0.6377808 -0.19838423 -0.42118227 0.5676046
0.56181437 -0.44083422 0.04274236 -0.47894883 -0.4726184 0.10100685 0.26614952 0.20945325
-0.15713435 0.6612087 0.08254836 -0.2279885 -0.032685995 0.23305883 0.30997926 -0.4082333
0.1757144 -0.29495767 -0.47974363 -0.315353 0.6541429 0.6208939 0.59579283 0.41422647
0.5501739 -0.07727818 -0.31767422 0.38025072 -0.17596653 -0.38963398 -0.18436758 0.121162295
0.39041746 -0.22424805 -0.3398089 0.07788055 -0.3403094 -0.37589046 0.4204202 -7.938629e-05
0.6421845 0.6390175 0.25228694 0.29183796 0.13295437 0.009041814 0.0581636 0.14899863
0.24938472 0.5785516 -0.14962557 -0.1947853 -0.028221922 -0.2336998 0.18459605 0.51437736
0.5477661 0.30774286 -0.42489025 -0.2133287 -0.12685044 -0.015794793 0.01307056 -0.5299911
00000000: b18e 5e3d fb13 1d3f 7ae0 d5be cea2 2abe
00000010: 6bff c83e 65a3 8dbd 9880 ffbd f768 76be
00000020: 805c e03e 43d6 ba3e 0efd 623e 4b1e a6be
00000030: 30a5 cbbe 9cee 333e 9c5d 853e f9ca 56be
00000040: 126b 25be f8d9 cd3e 320e fc3d f9cd e13d
00000050: 0c7f 11be 01d9 05bf bcf8 0abf fc06 12be
00000060: f242 96be 4c31 383e d690 d1bd 9a44 b8bd
00000070: 4f80 1a3f 9aa7 443e e83d 073f f81a 8fbe
00000080: bd90 83be d94a 593e 02f4 c4be b23c c1be
00000090: d170 e4bc bce7 f2bd f599 ddbe 480e 003f
000000a0: 26aa 023f a6d0 bf3d b5df cdbd b75e e0be
000000b0: d5e7 e0bd 4183 163e ec43 b63e 750a 303d
000000c0: adb2 44be 0dc3 cd3e 1d6b ebbe 4e7b e93e
000000d0: 28cb 2bbe 80fe 5f3d e4a9 e9bd f1c6 843d
000000e0: 66a9 32be 8afe f43e 46ea 75bc 77d3 153f
000000f0: 9a45 233f 3c25 4bbe 34a5 d7be 894e 113f
00000100: 11d3 0f3f 06b5 e1be 9d12 2f3d c838 f5be
00000110: 0afb f1be aedc ce3d c044 883e ea7a 563e
00000120: d4e7 20be f944 293f 1d0f a93d d175 69be
00000130: c0e1 05bd f9a6 6e3e 9ab5 9e3e f503 d1be
00000140: 7aee 333e b104 97be f5a0 f5be f375 a1be
00000150: e975 273f e7f2 1e3f e185 183f 7e15 d43e
00000160: 32d8 0c3f 0644 9ebd 32a6 a2be 39b0 c23e
00000170: 9230 34be 1b7e c7be dbca 3cbe f023 f83d
00000180: cce4 c73e 48a1 65be 6ffb adbe d67f 9f3d
00000190: 093d aebe b774 c0be 5141 d73e 317c a6b8
000001a0: 3466 243f a796 233f c12b 813e c96b 953e
000001b0: 3125 083e 1e24 143c f43c 6e3d 1993 183e
000001c0: b55e 7f3e f51b 143f 7237 19be cc75 47be
000001d0: a931 e7bc 004f 6fbe bf06 3d3e 3cae 033f
000001e0: 663a 0c3f 7990 9d3e 378b d9be d772 5abe
000001f0: 15e5 01be 1564 81bc e725 563c 7fad 07bf

fc2.weight f4 [128, 128]
0.027510406 -0.067429006 -0.055927254 -0.073484525 0.077014506 -0.083698444 0.06667723 -0.0029713423
-0.010279458 0.05528501 -0.008169523 0.055433113 0.063906096 -0.076739654 0.03401042 0.016685864
0.01900453 0.012903943 0.02417695 -0.042520702 -0.011308505 0.08397953 0.059383664 -0.0033206132
-0.08313197 0.0038738642 -0.060190123 0.07187665 -0.05365945 -0.006381781 -0.019617144 0.015729045
0.083175875 0.008398592 0.051191352 0.06860895 0.0713569 -0.030525044 -0.019768642 0.04259768
-0.024118323 0.041389078 -0.01931 -0.059949603 0.03597789 0.013551529 0.039407797 0.08781259
0.060345635 0.08379048 0.004730794 -0.076032765 -0.06200683 -0.05490452 -0.07789209 -0.044304438
-0.08136746 -0.08154844 -0.05281686 -0.087136224 -0.05425387 0.03370324 0.073720545 -0.026292248
-0.025710294 0.04719525 -0.043608237 -0.04179289 0.05445867 -0.07701291 0.010807663 0.07808067
0.015157408 0.024036663 -0.05147659 -0.0012194559 0.004859985 0.02169353 0.034342937 0.076803096
-0.06746678 0.0026494667 -0.044162024 -0.06992083 -0.007077931 -0.07780268 0.06168616 0.010236679
-0.04763761 0.0461899 -0.083653204 -0.034188543 -0.017219706 -0.07510802 -0.05620512 -0.0144266235
0.06706595 0.085352585 0.056238182 -0.052778803 -0.057825528 0.077135906 0.0312645 0.002348275
0.011961781 -0.07103743 -0.02951158 0.08508422 -0.021799413 -0.004433922 -0.073391594 -0.04944507
-0.0018048545 -0.054903254 -0.0109610045 0.03597045 -0.08645947 0.026252408 -0.058443096 -0.043138027
0.033933144 0.07027936 -0.024157299 -0.03628952 -0.07992391 -0.04557813 -0.0773961 -0.020229487
0.015673352 -0.08521976 0.07717306 0.053356055 -0.08890739 -0.04451287 0.029799117 -0.018160233
-0.011729654 -0.04212751 0.07099525 -0.049408928 0.07662037 0.003385399 0.015428146 0.06745867
-0.014563358 -0.050323315 -0.016612714 0.06937154 -0.065583035 0.020062426 -0.08686731 0.04413735
0.032656644 0.0037469813 0.035558555 -0.0018383572 0.04654642 -0.06997003 -0.01539596 0.03921036
0.0880186 0.045024265 -0.064273745 0.0679792 -0.019710448 -0.018872188 -0.080337025 -0.015340472
0.060183536 0.012325298 -0.05148214 0.027207002 -0.03040352 0.080698036 -0.079064064 -0.030140229
-0.08534545 -0.037171923 0.02786422 0.08281684 0.0076467614 0.084397964 0.017293368 0.05104745
0.0708576 0.071596414 -0.049473055 0.07893283 0.051213015 -0.042739414 -0.042179216 -0.0764962
0.019845499 -0.07164311 0.03506853 0.027912835 -0.07679199 0.024085902 -0.009549853 0.042491723
0.050716314 -0.09002125 0.08106086 0.07154409 0.03516828 -0.083194144 -0.03398442 -0.025615728
-0.022715623 0.04984423 0.0321354 0.0700194 -0.035443038 0.027484551 0.029093865 -0.07588129
-0.08806792 -0.045863748 0.060506035 -0.08556596 -0.07693621 0.049515203 0.047688074 0.07268993
-0.06914787 -0.06469141 0.045342043 0.076865174 0.05288618 0.0138462195 0.026858825 0.081595056
-0.059298743 -0.0424711 0.059538785 -0.06280515 -0.048738446 0.064522706 0.025221365 0.026433742
-0.039745025 -0.0035040732 0.08089591 -0.055266008 0.00069492776 0.03961296 -0.06284196 0.08343856
-0.046298645 -0.023548268 -0.02391526 -0.05990442 -0.08673236 0.04983791 0.023482496 -0.08278459
00000000: 815d e13c 3818 8abd fa13 65bd 0e7f 96bd
00000010: c8b9 9d3d 176a abbd 128e 883d daba 42bb
00000020: 2c6b 28bc 8972 623d 77d9 05bc d50d 633d
00000030: 33e1 823d ae29 9dbd 834e 0b3d cbb0 883c
00000040: 63af 9b3c 0f6b 533c bd0e c63c 302a 2ebd
00000050: 4f47 39bc 76fd ab3d 493c 733d a59e 59bb
00000060: 1841 aabd a8e0 7d3b eb89 76bd 1134 933d
00000070: 03ca 5bbd 421e d1bb 22b4 a0bc 33da 803c
00000080: 1d58 aa3d 3f9a 093c 06ae 513d d982 8c3d
00000090: 9123 923d a80f fabc d9f1 a1bc e87a 2e3d
000000a0: ca93 c5bc 9887 293d 0130 9ebc b78d 75bd
000000b0: 8d5d 133d 3b07 5e3c 126a 213d 16d7 b33d
000000c0: fc2c 773d 589a ab3d c704 9b3b 11b7 9bbd
000000d0: e0fa 7dbd 90e3 60bd e385 9fbd 9278 35bd
000000e0: fca3 a6bd de02 a7bd 7e56 58bd 7a74 b2bd
000000f0: 4e39 5ebd 690c 0a3d ccfa 963d d762 d7bc
00000100: 659e d2bc ce4f 413d 8d9e 32bd 052f 2bbd
00000110: 0e10 5f3d f2b8 9dbd a012 313c c2e8 9f3d
00000120: c756 783c 89e8 c43c 1ed9 52bd 26d6 9fba
00000130: 8240 9f3b a1b6 b13c 2eab 0c3d f14a 9d3d
00000140: 062c 8abd ada2 2d3b 3de3 34bd a732 8fbd
00000150: fded e7bb 0357 9fbd a0aa 7c3d beb7 273c
00000160: a81f 43bd 9f31 3d3d 5f52 abbd 4909 0cbd
00000170: 5710 8dbc 3cd2 99bd 5737 66bd a55d 6cbc
00000180: df59 893d 56cd ae3d 025a 663d 962e 58bd
00000190: 76da 6cbd 6ef9 9d3d 340f 003d 84e5 193b
000001a0: 59fb 433c 127c 91bd 45c2 f1bc a340 ae3d
000001b0: af94 b2bc 6f4a 91bb 554e 96bd ea86 4abd
000001c0: de90 ecba 3ce2 60bd c995 33bc c055 133d
000001d0: aa11 b1bd 4a0f d73c 0762 6fbd 80b1 30bd
000001e0: 7bfd 0a3d a0ee 8f3d 87e5 c5bc 52a4 14bd
000001f0: 26af a3bd 22b0 3abd d981 9ebd 4fb8 a5bc
00000200: 6765 803c b387 aebd e90c 9e3d e18b 5a3d
00000210: 1415 b6bd 2153 36bd 471d f43c c5c4 94bc
00000220: bc2d 40bc e58d 2cbd f565 913d 0461 4abd
00000230: 24eb 9c3d 92dd 5d3b 56c6 7c3c c527 8a3d
00000240: 279b 6ebc d21f 4ebd 6317 88bc aa12 8e3d
00000250: 6650 86bd f559 a43c 7de7 b1bd 5ec9 343d
00000260: f9c2 053d ea8f 753b d9a5 113d 08f5 f0ba
00000270: 75a7 3e3d 724c 8fbd 563f 7cbc 0b9b 203d
00000280: 1943 b43d 5d6b 383d f4a1 83bd ae38 8b3d
00000290: ce77 a1bc d999 9abc bd87 a4bd 9a56 7bbc
000002a0: 0383 763d 0cf0 493c f0de 52bd 38e1 de3c
000002b0: ce10 f9bc 0345 a53d 57ec a1bd a4e8 f6bc
000002c0: 98c9 aebd 9641 18bd 8143 e43c e09b a93d
000002d0: af91 fa3b d7d8 ac3d d2aa 8d3c 2217 513d
000002e0: ca1d 913d 24a1 923d 42a4 4abd 89a7 a13d
000002f0: bdc4 513d 860f 2fbd 1dc4 2cbd 0aaa 9cbd
00000300: 0793 a23c 9fb9 92bd 05a4 0f3d 75a9 e43c
00000310: 1e45 9dbd cc4f c53c fd76 1cbc cd0b 2e3d
00000320: e9bb 4f3d 105d b8bd 3c03 a63d b585 923d
00000330: 9d0c 103d b161 aabd 3f33 0bbd 13d8 d1bc
00000340: 1d16 babc 7729 4c3d 69a0 033d 5566 8f3d
00000350: b82c 11bd 4827 e13c 4256 ee3c a667 9bbd
00000360: f45c b4bd a0db 3bbd 2dd5 773d 353d afbd
00000370: bb90 9dbd 74d0 4a3d 9254 433d 75de 943d
00000380: 669d 8dbd ee7c 84bd 94b8 393d 7d6b 9d3d
00000390: 2e9f 583d 41db 623c 0a07 dc3c 4f1b a73d
000003a0: 3de3 72bd 2df6 2dbd f1de 733d fd9f 80bd
000003b0: f7a1 47bd 7b24 843d 099d ce3c 938b d83c
000003c0: aecb 22bd 98a4 65bb c1ac a53d 9c5e 62bd
000003d0: d02b 363a 3341 223d 49b3 80bd d6e1 aa3d
000003e0: a6a3 3dbd 4ce8 c0bc efe9 c3bc 565e 75bd
000003f0: bca0 b1bd d622 4c3d 5d5e c03c f88a a9bd

fc2.bias f4 [128]
-0.07533685 0.07579703 -0.07831675 -0.037633248 -0.022633258 -0.016767135 -0.019278921 0.059845854
0.06613344 -0.088699825 -0.08200573 -0.08649869 0.11042919 -0.01072023 -0.04375122 0.041201152
0.011552198 0.017832873 0.12203377 0.06419995 0.09150476 -0.058925856 -0.00467182 -0.06596574
-0.03189178 -0.013292822 0.049564335 0.06564781 -0.049831904 -0.02715209 0.033349916 0.1409085
0.19170235 -0.088139884 0.020686263 0.046060145 0.047709838 -0.08603999 -0.065988496 0.05524596
-0.009771074 0.035085846 0.07208937 -0.010915041 -0.025970887 0.048189472 -0.06914219 -0.013952652
-0.013389885 -0.021147339 0.040146157 -0.022821601 0.0029463286 0.025106646 0.0035815923 -0.028420158
0.07937355 0.049257413 -0.018862408 0.0354982 -0.03866909 0.04431404 0.04333657 -0.03740624
0.05611759 -0.0104141915 0.09230731 -0.033345126 -0.00066410203 -0.01847154 0.00957029 -0.0840654
0.09654717 -0.069114484 -0.08212858 -0.09457395 -0.023067972 0.07323762 0.009230202 -0.0059784814
-0.04673021 -0.014530971 -0.026775131 -0.06988752 -0.019474778 0.025474047 0.041125026 -0.08028587
0.07476593 0.19974525 -0.040100697 -0.07528576 0.012905976 0.019941865 -0.023632044 -0.040604938
-0.003311038 -0.060844842 -0.059810735 0.028275814 0.009995272 0.020160977 0.06874456 -0.000860449
0.0813684 0.122892894 -0.061336383 0.050950192 0.048246395 -0.033755757 0.15340607 -0.04052313
-0.056935616 0.0578151 0.041002415 0.08404885 -0.06982051 0.04020818 0.02170179 -0.052765884
-0.01189094 0.06509105 0.03732251 -0.040640857 -0.00094590173 -0.031240739 0.058341194 0.12142983
00000000: 354a 9abd 793b 9b3d 8864 a0bd 5225 1abd
00000010: 6269 b9bc 3b5b 89bc d4ee 9dbc ed20 753d
00000020: f870 873d 41a8 b5bd 9ff2 a7bd 3a26 b1bd
00000030: b328 e23d e7a3 2fbc 7b34 33bd 8ac2 283d
00000040: 6e45 3d3c 3f16 923c d7ec f93d 437b 833d
00000050: d966 bb3d 3d5c 71bd 1116 99bb 0c19 87bd
00000060: f5a0 02bd 23ca 59bc f903 4b3d 5c72 863d
00000070: 8a1c 4cbd 0f6e debc ec99 083d 514a 103e
00000080: 9f4d 443e af82 b4bd 3d76 a93c 90a9 3c3d
00000090: 646b 433d bc35 b0bd fa24 87bd 9649 623d
000000a0: db16 20bc 2db6 0f3d 97a3 933d 00d5 32bc
000000b0: e6c0 d4bc 5362 453d 6c9a 8dbd aa99 64bc
000000c0: 4061 5bbc 2f3d adbc 4c70 243d 5ef4 babc
000000d0: 3117 413b 74ac cd3c 26b9 6a3b 64d1 e8bc
000000e0: 9a8e a23d 24c2 493d 5685 9abc 9066 113d
000000f0: 7b63 1ebd a482 353d b081 313d 4937 19bd
00000100: 8fdb 653d 49a0 2abc 9d0b bd3d e694 08bd
00000110: 2217 2eba a151 97bc b5cc 1c3c 7b2a acbd
00000120: 86ba c53d e58b 8dbd 0733 a8bd fdaf c1bd
00000130: 0bf9 bcbc 9bfd 953d 463a 173c 23e7 c3bb
00000140: 2d68 3fbd 4f13 6ebc 8557 dbbc 3021 8fbd
00000150: 9289 9fbc f3ae d03c b772 283d eb6c a4bd
00000160: e11e 993d 058a 4c3e a140 24bd 6c2f 9abd
00000170: 9673 533c 1f5d a33c fd97 c1bc 5d51 26bd
00000180: 00fe 58bb 7138 79bd 1afc 74bd aea2 e73c
00000190: 36c3 233c a228 a53c f3c9 8c3d c18f 61ba
000001a0: 7aa4 a63d 45af fb3d dc3b 7bbd 26b1 503d
000001b0: 039e 453d 7a43 0abd 7b16 1d3e 95fb 25bd
000001c0: 5235 69bd 87cf 6c3d 26f2 273d ce21 ac3d
000001d0: 0efe 8ebd 55b1 243d f4c7 b13c 0a21 58bd
000001e0: 38d2 42bc 754e 853d 7ddf 183d 0777 26bd
000001f0: 64f6 77ba 94ec ffbc 2df7 6e3d 34b0 f83d

fc3.weight f4 [13, 128]
-0.013088546 -0.020477569 -0.06854308 -0.019561132 0.03963424 -0.08511509 0.033474546 0.084258415
0.038044695 0.04686049 -0.023922373 -0.007454576 -0.13281013 -0.042775195 0.022208396 -0.048681494
0.05211561 -0.042223793 0.0060254 -0.04650902 -0.14976539 -0.033895127 -0.060112815 0.017234188
0.013918838 0.06560607 0.0461577 -0.084525704 0.034105312 0.042208176 -0.09393055 -0.14777951
-0.17098744 -0.043867957 -0.007132581 0.0868762 0.074382834 -0.022672985 0.006572604 0.004184558
0.008702645 -0.059951108 0.010837219 0.062256813 0.014470783 0.08073356 0.082090914 -0.14370693
0.07846915 -0.06977805 -0.041866727 0.05453242 0.0033685514 0.076331325 0.04121385 -0.018829526
0.032393925 -0.06343316 0.009113733 -0.046494525 0.06631421 0.09750329 0.034717534 -0.049415514
0.0064890604 0.060850978 -0.0828695 -0.017479355 0.0347704 -0.007686089 0.031944077 0.00024704376
-0.09054701 0.012831144 -0.00058892847 -0.06400682 -0.06571467 0.0067038946 -0.03441901 -0.0026798025
0.06531317 -0.046392575 0.04825727 0.061628148 0.048295982 -0.11521284 0.013388953 -0.06517506
-0.055957932 -0.107155316 0.076476894 0.049477734 0.02477318 0.05124473 -0.08441681 -0.08430339
0.036712427 -0.021043694 0.028885663 -0.06273128 0.08368598 -0.07285722 0.039042477 0.046565723
-0.16401984 0.020630175 0.04005132 -0.032620024 -0.030757867 0.06764269 -0.10423762 0.0058115865
0.041207284 0.03568168 -0.044259164 -0.0036989816 0.02680488 0.034328498 -0.041070703 0.039845597
-0.019164242 0.002720871 0.045321696 0.06393893 -0.012001378 0.057446335 0.067997575 -0.009247205
-0.0055750795 -0.06780386 -0.05928507 0.05091182 -0.05603643 -0.052045885 0.057255775 -0.049047552
-0.068367995 0.014293975 0.03814747 -0.08012215 -0.035389937 -0.06816221 0.03729152 -0.012846576
0.02974202 0.09387356 -0.046966743 -0.037104227 -0.030255746 0.02652926 -0.039499603 -0.06084293
-0.026911225 0.0347989 0.03735001 -0.10718404 0.07475791 -0.060037937 -0.025007196 -0.09560285
-0.12577735 0.07328248 -0.06779424 0.046472218 0.027778007 -0.045630418 0.07593907 -0.04775245
-0.0004963132 0.08368899 -0.08323623 0.07299489 -0.043618396 -0.07173933 0.049585957 -0.08994151
-0.07313574 -0.047446597 0.05909358 0.0809281 -0.006681048 0.045392122 0.0017919885 -0.066179916
-0.011125243 0.062937975 -0.015643138 -0.058662377 0.072553694 -0.018397529 0.07400541 0.050705224
0.015519768 0.02348162 -0.046126492 -0.038529277 -0.050175495 -0.034973558 -0.04944881 -0.01301305
-0.094803035 -0.028465634 -0.06018105 -0.084950335 0.020183701 0.035539195 -0.035847675 -0.06550433
-0.041274417 -0.112582445 -0.094751544 0.09172593 0.047853794 0.02689549 -0.092549294 -0.05844457
0.07617827 -0.10441598 -0.054625276 -0.07362588 0.026903091 -0.011795701 -0.053927884 0.075264335
-0.05205563 0.009567991 0.030705797 0.042296205 0.07398386 -0.020525131 0.039557084 -0.0070143207
-0.05436787 -0.107206464 0.048700653 0.025890261 0.024665974 -0.0067734094 -0.025017155 -0.08537304
0.065167256 0.063782275 0.047356863 -0.054350324 -0.08247585 -0.025469389 -0.07101059 -0.042347815
0.062238034 -0.049241144 0.08805801 -0.044556025 -0.041166198 -0.070840314 0.03366469 -0.014217547
00000000: 5771 56bc 93c0 a7bc 5060 8cbd ab3e a0bc
00000010: 8357 223d d250 aebd 9b1c 093d ad8f ac3d
00000020: c1d4 1b3d c9f0 3f3d daf8 c3bc 8445 f4bb
00000030: 61ff 07be 0b35 2fbd 62ee b53c 3f66 47bd
00000040: 2e77 553d dbf2 2cbd b870 c53b 3e80 3ebd
00000050: 195c 19be 9ed5 0abd db38 76bd b62e 8d3c
00000060: d70b 643c 7a5c 863d db0f 3d3d d01b adbd
00000070: 03b2 0b3d 7be2 2c3d a95e c0bd 8353 17be
00000080: 5517 2fbe e3ae 33bd 6db8 e9bb 26ec b13d
00000090: 0756 983d b2bc b9bc 005f d73b 9e1e 893b
000000a0: 8a95 0e3c 4b8f 75bd 978e 313c 0001 7f3d
000000b0: dd16 6d3c a357 a53d 481f a83d e927 13be
000000c0: 6fb4 a03d cbe7 8ebd 727c 2bbd 635d 5f3d
000000d0: eac2 5c3b 9953 9c3d dbcf 283d 6140 9abc
000000e0: 7eaf 043d 3fe9 81bd c451 153c 0b71 3ebd
000000f0: bfcf 873d ceaf c73d f933 0e3d ec67 4abd
00000100: 2fa2 d43b e03e 793d 7cb7 a9bd dd30 8fbc
00000110: 686b 0e3d 96db fbbb cbd7 023d a785 8139
00000120: b670 b9bd b839 523c 5262 1aba 0216 83bd
00000130: 6a95 86bd 58ac db3b f3fa 0cbd a09f 2fbb
00000140: e9c2 853d 2406 3ebd 6aa9 453d cc6d 7c3d
00000150: 02d2 453d b6f4 ebbd 575d 5b3c 807a 85bd
00000160: 2534 65bd 3f74 dbbd eb9f 9c3d 2aa9 4a3d
00000170: 20f1 ca3c fee5 513d b8e2 acbd 41a7 acbd
00000180: c55f 163d d363 acbc a0a1 ec3c 4279 80bd
00000190: 8e63 ab3d 2b36 95bd 01eb 1f3d b3bb 3e3d
000001a0: d1f4 27be 9d00 a93c da0c 243d 939c 05bd
000001b0: ecf7 fbbc 4088 8a3d 897a d5bd 1f6f be3b
000001c0: f8c8 283d f426 123d 1949 35bd 9d6a 72bb
000001d0: e895 db3c 0a9c 0c3d c139 28bd 2335 233d
000001e0: 54fe 9cbc a450 323b 3ea3 393d 6af2 823d
000001f0: 6ea1 44bc d94c 6b3d 5042 8b3d 9781 17bc
00000200: 28af b6bb c0dc 8abd e7d4 72bd ea88 503d
00000210: 7586 65bd 112e 55bd 0885 6a3d 16e6 48bd
00000220: 8504 8cbd 4731 6a3c 8640 1c3d 1517 a4bd
00000230: 0af5 10bd a198 8bbd febe 183d 727a 52bc
00000240: 89a5 f33c c840 c03d 3360 40bd 9afa 17bd
00000250: e6da f7bc e453 d93c 56ca 21bd 7036 79bd
00000260: ee74 dcbc 4b89 0e3d 53fc 183d 4e83 dbbd
00000270: ad1a 993d 57ea 75bd e4db ccbc 6dcb c3bd
00000280: c7cb 00be 2015 963d b5d7 8abd a759 3e3d
00000290: b48e e33c f6e6 3abd f185 9b3d 1398 43bd
000002a0: 041b 02ba 2265 ab3d c277 aabd 587e 953d
000002b0: 34a9 32bd 12ec 92bd a51a 4b3d 4133 b8bd
000002c0: 31c8 95bd 5d57 42bd 1c0c 723d a2bd a53d
000002d0: b1ec dabb 17ed 393d 28e1 ea3a 5689 87bd
000002e0: a746 36bc a0e5 803d 0a26 80bc f647 70bd
000002f0: 0897 943d 6ab6 96bc 2690 973d 48b0 4f3d
00000300: a046 7e3c 875c c03c 22ef 3cbd e0d0 1dbd
00000310: d284 4dbd 6f40 0fbd d68a 4abd b034 55bc
00000320: 1828 c2bd c330 e9bc 6880 76bd 71fa adbd
00000330: 4a58 a53c 8c91 113d 03d5 12bd 2227 86bd
00000340: 5d0f 29bd a091 e6bd 190d c2bd ceda bb3d
00000350: 5702 443d ee53 dc3c 7c8a bdbd 9363 6fbd
00000360: 5a03 9c3d 0cd8 d5bd c1be 5fbd 2ac9 96bd
00000370: df63 dc3c c242 41bc 7ce3 5cbd 3024 9a3d
00000380: 4938 55bd 10c3 1c3c b98a fb3c c93e 2d3d
00000390: da84 973d 5224 a8bc 9c06 223d 63d8 e5bb
000003a0: d8b0 5ebd 108f dbbd 567a 473d d017 d43c
000003b0: 4c10 ca3c 7af3 ddbb c7f0 ccbc 0fd8 aebd
000003c0: 6976 853d 48a0 823d 45f9 413d 729e 5ebd
000003d0: 19e9 a8bd 2ea5 d0bc 006e 91bd e774 2dbd
000003e0: 4fed 7e3d 15b1 49bd c257 b43d 6180 36bd
000003f0: e39d 28bd ba14 91bd fce3 093d b7f0 68bc

fc3.bias f4 [13]
0.041759998 -0.06863586 -0.010370776 0.03161727 0.01903036 -0.07882326 -0.073916666 -0.105902076
0.02294536 -0.056105226 -0.025284639 0.049730647 0.027951188
00000000: 880c 2b3d f590 8cbd 30ea 29bc 1c81 013d
00000010: 8fe5 9b3c 176e a1bd 9f61 97bd 30e3 d8bd
00000020: e8f7 bb3c 98ce 65bd bb21 cfbc 5db2 4b3d
00000030: e4f9 e43c
