models/model_episode_4600.pth (torch, 77430 bytes, 6 tensors)

fc1.weight f4 [128, 3]
0.4275208 0.53645855 -0.14554162 0.505629 -0.025754549 0.16699748 -0.25676247 0.4136391
0.56837595 -0.50926924 0.56241 0.08738204 0.39547935 0.14520988 0.29340756 -0.10529614
0.5150221 0.057845946 -0.27690962 0.14060266 -0.2660064 -0.06770751 -0.23449561 0.3829974
-0.4534987 -0.22020823 -0.17720167 -0.35222822 0.14705902 -0.5379183 0.5256854 -0.4543843
0.47002694 0.096082136 -0.18746825 0.35677359 0.08426645 0.5401408 0.10329665 -0.16846581
0.28006822 -0.09927747 0.24479134 0.6154549 0.3550705 -0.3334565 0.3941214 0.13220417
0.29319867 -0.3518979 -0.5715239 -0.25192678 -0.42458868 0.5009834 0.16255923 0.32826707
0.19608353 -3.610422e-05 0.5462747 -0.4247634 0.036352124 -0.39406475 0.17802711 -0.1988292
0.17690952 -0.12028601 0.4788496 -0.3421966 -0.34433055 -0.3085595 0.662101 0.23003344
0.5555557 -0.47647345 -0.5726599 -0.45169792 -0.38837722 0.23385003 0.20451675 0.5576689
-0.29627457 -0.2938689 0.44847134 -0.19556703 0.31029248 -0.0734029 0.34650108 -0.45764104
-0.30031347 0.16696182 0.12789993 -0.019500721 0.3862527 0.39248803 -0.41867903 -0.30822894
0.5096143 -0.21517695 -0.20703201 -0.558641 -0.3306313 0.14422421 -0.0762063 -0.41909045
0.013542728 -0.3943773 -0.48982203 -0.3179252 -0.5053039 -0.3676209 0.5771244 0.13197412
0.27793333 -0.5384855 -0.37918854 -0.19217439 0.090280905 -0.3630583 -0.08799176 -0.32280058
-0.006648341 -0.15937476 -0.04314267 -0.3912297 -0.39629042 -0.3368272 -0.19762552 -0.45569152
0.4840908 -0.117906205 0.6007071 0.244039 -0.4495776 0.5056911 -0.13299735 -0.2213134
-0.4792414 -0.5739789 0.14051846 -0.031103576 0.26713547 -0.38788873 0.54968524 -0.3993079
-0.11596542 0.16386291 0.34461153 0.45901448 0.6174952 -0.43751255 0.14530016 -0.24833333
-0.06326882 -0.42839238 0.62959677 -0.41118798 0.26764247 0.2667042 0.25221935 -0.33728483
0.58126223 0.12677942 0.07427037 -0.5087927 0.24236499 -0.10307403 -0.2672641 0.5065057
0.12871954 -0.3194343 -0.29221943 -0.07154912 0.39403096 -0.11702521 -0.32942155 -0.19770949
-0.43132386 0.24079935 0.59239155 -0.5004951 0.14328139 0.38980013 0.12199626 -0.24639152
0.3910071 0.35007468 0.21588698 -0.1014528 -0.15288308 0.06535788 0.012988236 -0.12133838
0.37963924 0.61660874 0.004669644 -0.12926692 0.008424862 -0.034472566 0.15819658 0.2611421
-0.5141221 -0.179776 0.57693666 0.29118407 -0.028716 -0.3480878 -0.35322583 -0.5259282
-0.19890216 0.18446955 0.3872168 0.38925627 -0.45948657 -0.33992615 0.0027885418 0.59208536
0.08351804 -0.14951682 0.2388586 -0.19548424 -0.23424067 0.46646512 -0.2625222 -0.11573953
-0.5743505 0.39003965 0.5616244 0.2461938 -0.40257144 -0.56981003 -0.46891174 0.43923146
0.38158122 0.49650788 0.30378821 0.2677408 0.023557229 -0.43907836 -0.49465764 -0.54002374
0.21210918 -0.32540444 -0.11723828 -0.33226812 -0.10520682 -0.40635926 -0.37724972 0.19151333
-0.17158641 0.35642326 -0.18521902 -0.42352524 -0.10606335 -0.16783275 -0.16862653 -0.5293023
00000000: 02e4 da3e 5955 093f dd08 15be e770 013f
00000010: 34fb d2bc 6301 2b3e 5f76 83be 81c8 d33e
00000020: 1681 113f 785f 02bf 1afa 0f3f 5bf5 b23d
00000030: 457c ca3e e6b1 143e 8439 963e 81a5 d7bd
00000040: 7dd8 033f dfef 6c3d 19c7 8dbe 25fa 0f3e
00000050: fe31 88be 3caa 8abd 9e1f 70be 3c18 c43e
00000060: fb30 e8be 447e 61be 5b74 35be 4257 b4be
00000070: a496 163e 04b5 09bf 5293 063f 0fa5 e8be
00000080: 5fa7 f03e b6c6 c43d adf7 3fbe 07ab b63e
00000090: e393 ac3d ab46 0a3f 328d d33d 4d82 2cbe
000000a0: 1a65 8f3e fc51 cbbd 95aa 7a3e 748e 1d3f
000000b0: cdcb b53e cfba aabe 48ca c93e 8860 073e
000000c0: 231e 963e f62b b4be 644f 12bf 8cfc 80be
000000d0: b063 d9be 7340 003f ed75 263e 9f12 a83e
000000e0: 1fca 483e 9c6e 17b8 a9d8 0b3f 977a d9be
000000f0: f7e5 143d dbc2 c9be bd4c 363e e299 4bbe
00000100: c527 353e 8358 f6bd c62b f53e 6534 afbe
00000110: 184c b0be 83fb 9dbe 737f 293f e38d 6b3e
00000120: e638 0e3f 54f4 f3be d799 12bf f344 e7be
00000130: 61d9 c6be 6276 6f3e d76c 513e 64c3 0e3f
00000140: 4db1 97be fc75 96be 099e e53e b942 48be
00000150: a8de 9e3e 4254 96bd 9768 b13e ed4f eabe
00000160: b0c2 99be 0af8 2a3e 33f8 023e fabf 9fbc
00000170: eac2 c53e 31f4 c83e 195d d6be 2fd0 9dbe
00000180: 1576 023f 5957 5cbe 3300 54be 1903 0fbf
00000190: 8148 a9be 83af 133e 0c12 9cbd 0693 d6be
000001a0: 51e2 5d3c d2eb c9be f4c9 fabe 18c7 a2be
000001b0: 995b 01bf ce38 bcbe 6dbe 133f 3924 073e
000001c0: 474d 8e3e 30da 09bf 0025 c2be 5dc9 44be
000001d0: 32e5 b83d c7e2 b9be 0635 b4bd 1e46 a5be
000001e0: 54da d9bb 2333 23be 5eb6 30bd 424f c8be
000001f0: 94e6 cabe 9d74 acbe 585e 4abe 6650 e9be
00000200: c0da f73e cf78 f1bd f1c7 193f 5ce5 793e
00000210: 092f e6be f974 013f 7530 08be fb9f 62be
00000220: 215f f5be 48f0 12bf 12e4 0f3e edcc febc
00000230: fbc5 883e 5a99 c6be 2cb8 0c3f 1672 ccbe
00000240: 477f edbd aecb 273e ec70 b03e f203 eb3e
00000250: 2a14 1e3f a501 e0be 91c9 143e 184b 7ebe
00000260: 1593 81bd 3f56 dbbe 412d 213f 3b87 d2be
00000270: 6f08 893e 748d 883e e522 813e 99b0 acbe
00000280: 9acd 143f 77d2 013e 101b 983d 3d40 02bf
00000290: 872e 783e 7a18 d3bd d7d6 88be 5caa 013f
000002a0: 0ecf 033e e48c a3be c99d 95be 5888 92bd
000002b0: 6dbe c93e eaaa efbd f1a9 a8be 5b74 4abe
000002c0: 7bd6 dcbe 1b94 763e f9a6 173f 7220 00bf
000002d0: 5bb8 123e e293 c73e 2dd9 f93d 0f4e 7cbe
000002e0: 1532 c83e fd3c b33e 7a11 5d3e 7cc6 cfbd
000002f0: 628d 1cbe 5ada 853d 9ccc 543c 4280 f8bd
00000300: 1360 c23e 12da 1d3f d003 993b 8c5e 04be
00000310: 6f08 0a3c 1b33 0dbd 49fe 213e 6bb4 853e
00000320: 829d 03bf 3317 38be 1fb2 133f 1416 953e
00000330: d13d ebbc 9038 b2be 04da b4be 3ba3 06bf
00000340: 02ad 4bbe 96e5 3c3e 4841 c63e 994c c73e
00000350: d341 ebbe cd0a aebe f8bf 363b e892 173f
00000360: 820b ab3d f01a 19be 5997 743e 052d 48be
00000370: c9dc 6fbe 84d4 ee3e 4f69 86be d908 edbd
00000380: a208 13bf 47b3 c73e 9ec6 0f3f 3a1a 7c3e
00000390: d81d cebe 12df 11bf 3315 f0be f2e2 e03e
000003a0: 9d5e c33e 4836 fe3e 218a 9b3e 5215 893e
000003b0: 17fb c03c e1ce e0be c443 fdbe ff3e 0abf
000003c0: 2633 593e 699b a6be a01a f0bd 0c1f aabe
000003d0: ac76 d7bd 520e d0be e026 c1be 121c 443e
000003e0: 59b4 2fbe 1c7d b63e 0eaa 3dbe 4dd8 d8be
000003f0: be37 d9bd 59dc 2bbe 6fac 2cbe 5b80 07bf

fc1.bias f4 [128]
0.0531678 0.61254853 -0.42059746 -0.1712433 0.39192694 -0.070143335 -0.12475699 -0.24063478
0.43816438 0.3664072 0.2214846 -0.32444987 -0.39911568 0.174739 0.2596795 -0.21458776
-0.16154125 0.39995176 0.12212772 0.10943295 -0.14208621 -0.52284247 -0.5428579 -0.14329267
-0.2934795 0.17987555 -0.10339097 -0.08867881 0.6024488 0.1920456 0.52723706 -0.27950263
-0.2562534 0.21219958 -0.38467413 -0.3774162 -0.027885826 -0.11678046 -0.43281522 0.49812368
0.5095574 0.093659684 -0.10052434 -0.44116387 -0.10948567 0.14698507 0.35501504 0.044965774
-0.19405548 0.40102544 -0.45980158 0.4551164 -0.16876681 0.05370289 -0.11409357 0.063011855
-0.17447433 0.47775757 -0.015009468 0.5844422 0.63715225 -0.20148318 -0.42118227 0.5668126
0.5609915 -0.44083422 0.045093413 -0.48241988 -0.4726184 0.10100685 0.2651891 0.20762245
-0.15713435 0.6604026 0.08254836 -0.22885515 -0.032685995 0.23226373 0.30898747 -0.4082333
0.17617206 -0.29495767 -0.47974363 -0.315353 0.6530911 0.62004304 0.59492606 0.4132561
0.54950595 -0.07727818 -0.31767422 0.37954214 -0.18083584 -0.38963398 -0.18436758 0.121162295
0.3894075 -0.22424805 -0.3398089 0.07788055 -0.3403094 -0.37589046 0.4195073 -0.000967721
0.6414645 0.6383735 0.25146785 0.29125628 0.13295437 0.009041814 0.057399325 0.14699595
0.24846165 0.57770205 -0.14962557 -0.19331862 -0.03163715 -0.23474978 0.18133223 0.5134438
0.54994404 0.30707002 -0.42489025 -0.2139521 -0.12685044 -0.01918871 0.0154924365 -0.5299911
00000000: 7bc6 593d fbcf 1c3f 8d58 d7be 675a 2fbe
00000010: a6aa c83e 4fa7 8fbd 9880 ffbd f768 76be
00000020: 1557 e03e b999 bb3e dccc 623e 4b1e a6be
00000030: e458 ccbe c8ee 323e b6f4 843e e5bc 5bbe
00000040: 126b 25be 7ac6 cc3e 191e fa3d 621e e03d
00000050: 0c7f 11be 01d9 05bf bcf8 0abf 50bb 12be
00000060: f242 96be 4c31 383e a5be d3bd 3c9d b5bd
00000070: 163a 1a3f 9aa7 443e 02f9 063f f81a 8fbe
00000080: a533 83be d94a 593e 02f4 c4be b23c c1be
00000090: d170 e4bc 982a efbd f599 ddbe 110a ff3e
000000a0: 5b72 023f a6d0 bf3d b5df cdbd 3be0 e1be
000000b0: 063a e0bd 4183 163e 88c4 b53e 082e 383d
000000c0: 7bb6 46be 3553 cd3e 1d6b ebbe 0405 e93e
000000d0: 35d1 2cbe 90f7 5b3d e4a9 e9bd 5c0c 813d
000000e0: 66a9 32be a49c f43e 46ea 75bc 019e 153f
000000f0: 691c 233f 9b51 4ebe 34a5 d7be a11a 113f
00000100: 249d 0f3f 06b5 e1be dfb3 383d bdff f6be
00000110: 0afb f1be aedc ce3d dec6 873e fb9a 543e
00000120: d4e7 20be 2510 293f 1d0f a93d 0159 6abe
00000130: c0e1 05bd 8bd6 6d3e 9b33 9e3e f503 d1be
00000140: 7366 343e b104 97be f5a0 f5be f375 a1be
00000150: fa30 273f 24bb 1e3f 134d 183f 4e96 d33e
00000160: 6cac 0c3f 0644 9ebd 32a6 a2be 5953 c23e
00000170: 082d 39be 1b7e c7be dbca 3cbe f023 f83d
00000180: 6b60 c73e 48a1 65be 6ffb adbe d67f 9f3d
00000190: 093d aebe b774 c0be a9c9 d63e a8ae 7dba
000001a0: 0437 243f 726c 233f 65c0 803e 8b1f 953e
000001b0: 3125 083e 1e24 143c 8e1b 6b3d 1b86 163e
000001c0: bb6c 7e3e 48e4 133f 7237 19be 51f5 45be
000001d0: f595 01bd 3f62 70be 28af 393e 0e71 033f
000001e0: 22c9 0c3f 4838 9d3e 378b d9be 4216 5bbe
000001f0: 15e5 01be a431 9dbc fdd3 7d3c 7fad 07bf

fc2.weight f4 [128, 128]
0.027510406 -0.067429006 -0.055927254 -0.073484525 0.077014506 -0.083698444 0.06667723 -0.0029713423
-0.010279458 0.05528501 -0.008169523 0.055433113 0.063906096 -0.076739654 0.03401042 0.016685864
0.01900453 0.012903943 0.02417695 -0.042520702 -0.011308505 0.08397953 0.059383664 -0.0033206132
-0.08313197 0.0038738642 -0.060190123 0.07187665 -0.05365945 -0.006381781 -0.019617144 0.015729045
0.083175875 0.008398592 0.051191352 0.06860895 0.0713569 -0.030525044 -0.019768642 0.04259768
-0.024118323 0.041389078 -0.01931 -0.059949603 0.03597789 0.013551529 0.039407797 0.08781259
0.060345635 0.08379048 0.004730794 -0.076032765 -0.06200683 -0.05490452 -0.07789209 -0.044304438
-0.08136746 -0.08154844 -0.05281686 -0.087136224 -0.05425387 0.03370324 0.073720545 -0.026292248
-0.025710294 0.04719525 -0.043608237 -0.04179289 0.05445867 -0.07701291 0.010807663 0.07808067
0.015157408 0.024036663 -0.05147659 -0.0012194559 0.004859985 0.02169353 0.034342937 0.076803096
-0.06746678 0.0026494667 -0.044162024 -0.06992083 -0.007077931 -0.07780268 0.06168616 0.010236679
-0.04763761 0.0461899 -0.083653204 -0.034188543 -0.017219706 -0.07510802 -0.05620512 -0.0144266235
0.06706595 0.085352585 0.056238182 -0.052778803 -0.057825528 0.077135906 0.0312645 0.002348275
0.011961781 -0.07103743 -0.02951158 0.08508422 -0.021799413 -0.004433922 -0.073391594 -0.04944507
-0.0018048545 -0.054903254 -0.0109610045 0.03597045 -0.08645947 0.026252408 -0.058443096 -0.043138027
0.033933144 0.07027936 -0.024157299 -0.03628952 -0.07992391 -0.04557813 -0.0773961 -0.020229487
0.015673352 -0.08521976 0.07717306 0.053356055 -0.08890739 -0.04451287 0.029799117 -0.018160233
-0.011729654 -0.04212751 0.07099525 -0.049408928 0.07662037 0.003385399 0.015428146 0.06745867
-0.014563358 -0.050323315 -0.016612714 0.06937154 -0.065583035 0.020062426 -0.08686731 0.04413735
0.032656644 0.0037469813 0.035558555 -0.0018383572 0.04654642 -0.06997003 -0.01539596 0.03921036
0.0880186 0.045024265 -0.064273745 0.0679792 -0.019710448 -0.018872188 -0.080337025 -0.015340472
0.060183536 0.012325298 -0.05148214 0.027207002 -0.03040352 0.080698036 -0.079064064 -0.030140229
-0.08534545 -0.037171923 0.02786422 0.08281684 0.0076467614 0.084397964 0.017293368 0.05104745
0.0708576 0.071596414 -0.049473055 0.07893283 0.051213015 -0.042739414 -0.042179216 -0.0764962
0.019845499 -0.07164311 0.03506853 0.027912835 -0.07679199 0.024085902 -0.009549853 0.042491723
0.050716314 -0.09002125 0.08106086 0.07154409 0.03516828 -0.083194144 -0.03398442 -0.025615728
-0.022715623 0.04984423 0.0321354 0.0700194 -0.035443038 0.027484551 0.029093865 -0.07588129
-0.08806792 -0.045863748 0.060506035 -0.08556596 -0.07693621 0.049515203 0.047688074 0.07268993
-0.06914787 -0.06469141 0.045342043 0.076865174 0.05288618 0.0138462195 0.026858825 0.081595056
-0.059298743 -0.0424711 0.059538785 -0.06280515 -0.048738446 0.064522706 0.025221365 0.026433742
-0.039745025 -0.0035040732 0.08089591 -0.055266008 0.00069492776 0.03961296 -0.06284196 0.08343856
-0.046298645 -0.023548268 -0.02391526 -0.05990442 -0.08673236 0.04983791 0.023482496 -0.08278459
00000000: 815d e13c 3818 8abd fa13 65bd 0e7f 96bd
00000010: c8b9 9d3d 176a abbd 128e 883d daba 42bb
00000020: 2c6b 28bc 8972 623d 77d9 05bc d50d 633d
00000030: 33e1 823d ae29 9dbd 834e 0b3d cbb0 883c
00000040: 63af 9b3c 0f6b 533c bd0e c63c 302a 2ebd
00000050: 4f47 39bc 76fd ab3d 493c 733d a59e 59bb
00000060: 1841 aabd a8e0 7d3b eb89 76bd 1134 933d
00000070: 03ca 5bbd 421e d1bb 22b4 a0bc 33da 803c
00000080: 1d58 aa3d 3f9a 093c 06ae 513d d982 8c3d
00000090: 9123 923d a80f fabc d9f1 a1bc e87a 2e3d
000000a0: ca93 c5bc 9887 293d 0130 9ebc b78d 75bd
000000b0: 8d5d 133d 3b07 5e3c 126a 213d 16d7 b33d
000000c0: fc2c 773d 589a ab3d c704 9b3b 11b7 9bbd
000000d0: e0fa 7dbd 90e3 60bd e385 9fbd 9278 35bd
000000e0: fca3 a6bd de02 a7bd 7e56 58bd 7a74 b2bd
000000f0: 4e39 5ebd 690c 0a3d ccfa 963d d762 d7bc
00000100: 659e d2bc ce4f 413d 8d9e 32bd 052f 2bbd
00000110: 0e10 5f3d f2b8 9dbd a012 313c c2e8 9f3d
00000120: c756 783c 89e8 c43c 1ed9 52bd 26d6 9fba
00000130: 8240 9f3b a1b6 b13c 2eab 0c3d f14a 9d3d
00000140: 062c 8abd ada2 2d3b 3de3 34bd a732 8fbd
00000150: fded e7bb 0357 9fbd a0aa 7c3d beb7 273c
00000160: a81f 43bd 9f31 3d3d 5f52 abbd 4909 0cbd
00000170: 5710 8dbc 3cd2 99bd 5737 66bd a55d 6cbc
00000180: df59 893d 56cd ae3d 025a 663d 962e 58bd
00000190: 76da 6cbd 6ef9 9d3d 340f 003d 84e5 193b
000001a0: 59fb 433c 127c 91bd 45c2 f1bc a340 ae3d
000001b0: af94 b2bc 6f4a 91bb 554e 96bd ea86 4abd
000001c0: de90 ecba 3ce2 60bd c995 33bc c055 133d
000001d0: aa11 b1bd 4a0f d73c 0762 6fbd 80b1 30bd
000001e0: 7bfd 0a3d a0ee 8f3d 87e5 c5bc 52a4 14bd
000001f0: 26af a3bd 22b0 3abd d981 9ebd 4fb8 a5bc
00000200: 6765 803c b387 aebd e90c 9e3d e18b 5a3d
00000210: 1415 b6bd 2153 36bd 471d f43c c5c4 94bc
00000220: bc2d 40bc e58d 2cbd f565 913d 0461 4abd
00000230: 24eb 9c3d 92dd 5d3b 56c6 7c3c c527 8a3d
00000240: 279b 6ebc d21f 4ebd 6317 88bc aa12 8e3d
00000250: 6650 86bd f559 a43c 7de7 b1bd 5ec9 343d
00000260: f9c2 053d ea8f 753b d9a5 113d 08f5 f0ba
00000270: 75a7 3e3d 724c 8fbd 563f 7cbc 0b9b 203d
00000280: 1943 b43d 5d6b 383d f4a1 83bd ae38 8b3d
00000290: ce77 a1bc d999 9abc bd87 a4bd 9a56 7bbc
000002a0: 0383 763d 0cf0 493c f0de 52bd 38e1 de3c
000002b0: ce10 f9bc 0345 a53d 57ec a1bd a4e8 f6bc
000002c0: 98c9 aebd 9641 18bd 8143 e43c e09b a93d
000002d0: af91 fa3b d7d8 ac3d d2aa 8d3c 2217 513d
000002e0: ca1d 913d 24a1 923d 42a4 4abd 89a7 a13d
000002f0: bdc4 513d 860f 2fbd 1dc4 2cbd 0aaa 9cbd
00000300: 0793 a23c 9fb9 92bd 05a4 0f3d 75a9 e43c
00000310: 1e45 9dbd cc4f c53c fd76 1cbc cd0b 2e3d
00000320: e9bb 4f3d 105d b8bd 3c03 a63d b585 923d
00000330: 9d0c 103d b161 aabd 3f33 0bbd 13d8 d1bc
00000340: 1d16 babc 7729 4c3d 69a0 033d 5566 8f3d
00000350: b82c 11bd 4827 e13c 4256 ee3c a667 9bbd
00000360: f45c b4bd a0db 3bbd 2dd5 773d 353d afbd
00000370: bb90 9dbd 74d0 4a3d 9254 433d 75de 943d
00000380: 669d 8dbd ee7c 84bd 94b8 393d 7d6b 9d3d
00000390: 2e9f 583d 41db 623c 0a07 dc3c 4f1b a73d
000003a0: 3de3 72bd 2df6 2dbd f1de 733d fd9f 80bd
000003b0: f7a1 47bd 7b24 843d 099d ce3c 938b d83c
000003c0: aecb 22bd 98a4 65bb c1ac a53d 9c5e 62bd
000003d0: d02b 363a 3341 223d 49b3 80bd d6e1 aa3d
000003e0: a6a3 3dbd 4ce8 c0bc efe9 c3bc 565e 75bd
000003f0: bca0 b1bd d622 4c3d 5d5e c03c f88a a9bd

fc2.bias f4 [128]
-0.07533685 0.07579703 -0.07831675 -0.037633248 -0.022633258 -0.016767135 -0.019278921 0.059845854
0.06613344 -0.088699825 -0.08200573 -0.08649869 0.11059794 -0.01072023 -0.04375122 0.040475436
0.011552198 0.017832873 0.12116267 0.06419995 0.091805525 -0.058925856 -0.00467182 -0.06596574
-0.03189178 -0.013292822 0.049564335 0.06538064 -0.049831904 -0.02715209 0.033349916 0.14026995
0.19110544 -0.088139884 0.020686263 0.046060145 0.047709838 -0.08603999 -0.065988496 0.055015214
-0.009771074 0.035085846 0.07208937 -0.010915041 -0.025970887 0.048189472 -0.06914219 -0.013744293
-0.013389885 -0.021147339 0.040146157 -0.022821601 0.0029463286 0.025106646 0.0030085659 -0.028420158
0.07966154 0.049257413 -0.018862408 0.03519398 -0.03866909 0.04431404 0.04333657 -0.03740624
0.05636673 -0.0104141915 0.09168831 -0.033004064 -0.00066410203 -0.01847154 0.00957029 -0.0840654
0.09577184 -0.069114484 -0.08212858 -0.09457395 -0.023067972 0.072364025 0.009230202 -0.0059784814
-0.04673021 -0.014539628 -0.026775131 -0.06988752 -0.019474778 0.025503026 0.041307356 -0.08028587
0.07476593 0.19930609 -0.040100697 -0.07528576 0.012905976 0.019941865 -0.023632044 -0.040604938
-0.003311038 -0.060844842 -0.059810735 0.028275814 0.009995272 0.020160977 0.06874456 -0.000860449
0.08113805 0.12201227 -0.061336383 0.050950192 0.048246395 -0.033755757 0.15325586 -0.04052313
-0.056935616 0.0578151 0.041002415 0.08401466 -0.06982051 0.04020818 0.02170179 -0.052765884
-0.01189094 0.06541103 0.03732251 -0.040640857 -0.00094590173 -0.031240739 0.058341194 0.12042386
00000000: 354a 9abd 793b 9b3d 8864 a0bd 5225 1abd
00000010: 6269 b9bc 3b5b 89bc d4ee 9dbc ed20 753d
00000020: f870 873d 41a8 b5bd 9ff2 a7bd 3a26 b1bd
00000030: 2c81 e23d e7a3 2fbc 7b34 33bd 92c9 253d
00000040: 6e45 3d3c 3f16 923c 2224 f83d 437b 833d
00000050: 8904 bc3d 3d5c 71bd 1116 99bb 0c19 87bd
00000060: f5a0 02bd 23ca 59bc f903 4b3d 49e6 853d
00000070: 8a1c 4cbd 0f6e debc ec99 083d eda2 0f3e
00000080: 25b1 433e af82 b4bd 3d76 a93c 90a9 3c3d
00000090: 646b 433d bc35 b0bd fa24 87bd a257 613d
000000a0: db16 20bc 2db6 0f3d 97a3 933d 00d5 32bc
000000b0: e6c0 d4bc 5362 453d 6c9a 8dbd be2f 61bc
000000c0: 4061 5bbc 2f3d adbc 4c70 243d 5ef4 babc
000000d0: 3117 413b 74ac cd3c 5c2b 453b 64d1 e8bc
000000e0: 9725 a33d 24c2 493d 5685 9abc 9027 103d
000000f0: 7b63 1ebd a482 353d b081 313d 4937 19bd
00000100: cde0 663d 49a0 2abc 15c7 bb3d 452f 07bd
00000110: 2217 2eba a151 97bc b5cc 1c3c 7b2a acbd
00000120: 0724 c43d e58b 8dbd 0733 a8bd fdaf c1bd
00000130: 0bf9 bcbc 9733 943d 463a 173c 23e7 c3bb
00000140: 2d68 3fbd 9f37 6ebc 8557 dbbc 3021 8fbd
00000150: 9289 9fbc b9eb d03c e731 293d eb6c a4bd
00000160: e11e 993d e516 4c3e a140 24bd 6c2f 9abd
00000170: 9673 533c 1f5d a33c fd97 c1bc 5d51 26bd
00000180: 00fe 58bb 7138 79bd 1afc 74bd aea2 e73c
00000190: 36c3 233c a228 a53c f3c9 8c3d c18f 61ba
000001a0: b52b a63d 92e1 f93d dc3b 7bbd 26b1 503d
000001b0: 039e 453d 7a43 0abd 1bef 1c3e 95fb 25bd
000001c0: 5235 69bd 87cf 6c3d 26f2 273d e10f ac3d
000001d0: 0efe 8ebd 55b1 243d f4c7 b13c 0a21 58bd
000001e0: 38d2 42bc 38f6 853d 7ddf 183d 0777 26bd
000001f0: 64f6 77ba 94ec ffbc 2df7 6e3d c9a0 f63d

fc3.weight f4 [13, 128]
-0.013088546 -0.020477569 -0.06854308 -0.019561132 0.03963424 -0.08511509 0.033474546 0.084258415
0.038044695 0.04686049 -0.023922373 -0.007454576 -0.13282073 -0.042775195 0.022208396 -0.04872266
0.05211561 -0.042223793 0.0059888163 -0.04650902 -0.14976986 -0.033895127 -0.060112815 0.017234188
0.013918838 0.06560607 0.0461577 -0.08455757 0.034105312 0.042208176 -0.09393055 -0.14781658
-0.1710308 -0.043867957 -0.007132581 0.0868762 0.074382834 -0.022672985 0.006572604 0.0041628005
0.008702645 -0.059951108 0.010837219 0.062256813 0.014470783 0.08073356 0.082090914 -0.14371641
0.07846915 -0.06977805 -0.041866727 0.05453242 0.0033685514 0.076331325 0.04120416 -0.018829526
0.032388814 -0.06343316 0.009113733 -0.046520893 0.06631421 0.09750329 0.034717534 -0.049415514
0.006486681 0.060850978 -0.08292244 -0.017480941 0.0347704 -0.007686089 0.031944077 0.00024704376
-0.09058078 0.012831144 -0.00058892847 -0.06400682 -0.06571467 0.006661569 -0.03441901 -0.0026798025
0.06531317 -0.046409052 0.04825727 0.061628148 0.048295982 -0.11521914 0.01337973 -0.06517506
-0.055957932 -0.10718708 0.076476894 0.049477734 0.02477318 0.05124473 -0.08441681 -0.08430339
0.036712427 -0.021043694 0.028885663 -0.06273128 0.08368598 -0.07285722 0.039042477 0.046565723
-0.16406034 0.020584473 0.04005132 -0.032620024 -0.030757867 0.06764269 -0.10425577 0.0058115865
0.041207284 0.03568168 -0.044259164 -0.0037159317 0.02680488 0.034328498 -0.041070703 0.039845597
-0.019164242 0.0027190966 0.045321696 0.06393893 -0.012001378 0.057446335 0.067997575 -0.009293146
-0.0055750795 -0.06780386 -0.05928507 0.05091182 -0.05603643 -0.052045885 0.057255775 -0.049047552
-0.068367995 0.014293975 0.03814747 -0.08012215 -0.035401482 -0.06816221 0.03729152 -0.012886776
0.02974202 0.09387356 -0.0470258 -0.037104227 -0.030259766 0.02652926 -0.039499603 -0.06084293
-0.026911225 0.0347989 0.03735001 -0.10721455 0.07475791 -0.060037937 -0.025007196 -0.09563709
-0.12581725 0.07328248 -0.06779424 0.046472218 0.027778007 -0.045630418 0.07593907 -0.047777515
-0.0004963132 0.08368899 -0.08323623 0.07299489 -0.043618396 -0.07173933 0.049585957 -0.08995056
-0.07313574 -0.047446597 0.05909358 0.0809281 -0.006681048 0.045392122 0.0017757176 -0.066179916
-0.011131302 0.062937975 -0.015643138 -0.058689218 0.072553694 -0.018397529 0.07400541 0.050705224
0.015516906 0.02348162 -0.04617993 -0.038530968 -0.050175495 -0.034973558 -0.04944881 -0.01301305
-0.0948399 -0.028465634 -0.06018105 -0.084950335 0.020183701 0.035480764 -0.035847675 -0.06550433
-0.041274417 -0.112597585 -0.094751544 0.09172593 0.047853794 0.026888674 -0.09255921 -0.05844457
0.07617827 -0.104446575 -0.054625276 -0.07362588 0.026903091 -0.011795701 -0.053927884 0.075264335
-0.05205563 0.009567991 0.030705797 0.042296205 0.07398386 -0.020525131 0.039557084 -0.0070143207
-0.05440348 -0.107260175 0.048700653 0.025890261 0.024665974 -0.0067734094 -0.025035555 -0.08537304
0.065167256 0.063782275 0.047356863 -0.054368574 -0.08247585 -0.025469389 -0.07101059 -0.042347815
0.062238034 -0.04924338 0.08805801 -0.044556025 -0.041166198 -0.070840314 0.03366469 -0.01427913
00000000: 5771 56bc 93c0 a7bc 5060 8cbd ab3e a0bc
00000010: 8357 223d d250 aebd 9b1c 093d ad8f ac3d
00000020: c1d4 1b3d c9f0 3f3d daf8 c3bc 8445 f4bb
00000030: 2802 08be 0b35 2fbd 62ee b53c 6991 47bd
00000040: 2e77 553d dbf2 2cbd d53d c43b 3e80 3ebd
00000050: 455d 19be 9ed5 0abd db38 76bd b62e 8d3c
00000060: d70b 643c 7a5c 863d db0f 3d3d 852c adbd
00000070: 03b2 0b3d 7be2 2c3d a95e c0bd 3b5d 17be
00000080: b322 2fbe e3ae 33bd 6db8 e9bb 26ec b13d
00000090: 0756 983d b2bc b9bc 005f d73b 1a68 883b
000000a0: 8a95 0e3c 4b8f 75bd 978e 313c 0001 7f3d
000000b0: dd16 6d3c a357 a53d 481f a83d 652a 13be
000000c0: 6fb4 a03d cbe7 8ebd 727c 2bbd 635d 5f3d
000000d0: eac2 5c3b 9953 9c3d b1c5 283d 6140 9abc
000000e0: 22aa 043d 3fe9 81bd c451 153c b18c 3ebd
000000f0: bfcf 873d ceaf c73d f933 0e3d ec67 4abd
00000100: 398e d43b e03e 793d 3dd3 a9bd 3134 8fbc
00000110: 686b 0e3d 96db fbbb cbd7 023d a785 8139
00000120: 6a82 b9bd b839 523c 5262 1aba 0216 83bd
00000130: 6a95 86bd 4a49 da3b f3fa 0cbd a09f 2fbb
00000140: e9c2 853d 6b17 3ebd 6aa9 453d cc6d 7c3d
00000150: 02d2 453d 03f8 ebbd a836 5b3c 807a 85bd
00000160: 2534 65bd e684 dbbd eb9f 9c3d 2aa9 4a3d
00000170: 20f1 ca3c fee5 513d b8e2 acbd 41a7 acbd
00000180: c55f 163d d363 acbc a0a1 ec3c 4279 80bd
00000190: 8e63 ab3d 2b36 95bd 01eb 1f3d b3bb 3e3d
000001a0: 6fff 27be c5a0 a83c da0c 243d 939c 05bd
000001b0: ecf7 fbbc 4088 8a3d 0d84 d5bd 1f6f be3b
000001c0: f8c8 283d f426 123d 1949 35bd fd86 73bb
000001d0: e895 db3c 0a9c 0c3d c139 28bd 2335 233d
000001e0: 54fe 9cbc df32 323b 3ea3 393d 6af2 823d
000001f0: 6ea1 44bc d94c 6b3d 5042 8b3d 4842 18bc
00000200: 28af b6bb c0dc 8abd e7d4 72bd ea88 503d
00000210: 7586 65bd 112e 55bd 0885 6a3d 16e6 48bd
00000220: 8504 8cbd 4731 6a3c 8640 1c3d 1517 a4bd
00000230: 2501 11bd a198 8bbd febe 183d 0e23 53bc
00000240: 89a5 f33c c840 c03d 209e 40bd 9afa 17bd
00000250: 54e3 f7bc e453 d93c 56ca 21bd 7036 79bd
00000260: ee74 dcbc 4b89 0e3d 53fc 183d 4d93 dbbd
00000270: ad1a 993d 57ea 75bd e4db ccbc 61dd c3bd
00000280: 3dd6 00be 2015 963d b5d7 8abd a759 3e3d
00000290: b48e e33c f6e6 3abd f185 9b3d 5bb2 43bd
000002a0: 041b 02ba 2265 ab3d c277 aabd 587e 953d
000002b0: 34a9 32bd 12ec 92bd a51a 4b3d 0038 b8bd
000002c0: 31c8 95bd 5d57 42bd 1c0c 723d a2bd a53d
000002d0: b1ec dabb 17ed 393d 32bf e83a 5689 87bd
000002e0: 1160 36bc a0e5 803d 0a26 80bc 1b64 70bd
000002f0: 0897 943d 6ab6 96bc 2690 973d 48b0 4f3d
00000300: 9f3a 7e3c 875c c03c 2b27 3dbd a6d2 1dbd
00000310: d284 4dbd 6f40 0fbd d68a 4abd b034 55bc
00000320: 6c3b c2bd c330 e9bc 6880 76bd 71fa adbd
00000330: 4a58 a53c 4754 113d 03d5 12bd 2227 86bd
00000340: 5d0f 29bd 9099 e6bd 190d c2bd ceda bb3d
00000350: 5702 443d a345 dc3c af8f bdbd 9363 6fbd
00000360: 5a03 9c3d 16e8 d5bd c1be 5fbd 2ac9 96bd
00000370: df63 dc3c c242 41bc 7ce3 5cbd 3024 9a3d
00000380: 4938 55bd 10c3 1c3c b98a fb3c c93e 2d3d
00000390: da84 973d 5224 a8bc 9c06 223d 63d8 e5bb
000003a0: 2fd6 5ebd 39ab dbbd 567a 473d d017 d43c
000003b0: 4c10 ca3c 7af3 ddbb 5d17 cdbc 0fd8 aebd
000003c0: 6976 853d 48a0 823d 45f9 413d 95b1 5ebd
000003d0: 19e9 a8bd 2ea5 d0bc 006e 91bd e774 2dbd
000003e0: 4fed 7e3d 6db3 49bd c257 b43d 6180 36bd
000003f0: e39d 28bd ba14 91bd fce3 093d 03f3 69bc

fc3.bias f4 [13]
0.041754916 -0.068643466 -0.010425359 0.031345047 0.018922735 -0.078826815 -0.07404215 -0.105906196
0.022907307 -0.056168217 -0.024729436 0.04932357 0.027887868
00000000: 3407 2b3d f294 8cbd 20cf 2abc aa63 003d
00000010: da03 9b3c f46f a1bd 69a3 97bd 59e5 d8bd
00000020: 1ba8 bb3c a510 66bd 6395 cabc 8307 4a3d
00000030: 1975 e43c
