models/model_episode_3100.pth (torch, 77430 bytes, 6 tensors)

fc1.weight f4 [128, 3]
000000 07 95 da 3e 63 e1 07 3f 09 0e 11 be 97 e9 00 3f
       0.42691824 0.5307829 -0.1416551 0.5035643
000010 58 96 01 bd 8f fc 2d 3e 00 31 80 be 99 2b d4 3e
       -0.03163752 0.16990875 -0.25037384 0.41439512
000020 6a 01 12 3f 77 f8 f5 be b8 14 10 3f d7 5f c5 3d
       0.5703341 -0.48041126 0.56281614 0.096374206
000030 0f b4 ca 3e 5f 45 12 3e 3d c0 97 3e 2e 5f d9 bd
       0.395905 0.14284275 0.29638854 -0.10613857
000040 22 a1 02 3f 3f cc 7b 3d 19 c7 8d be 25 fa 0f 3e
       0.5102712 0.06147408 -0.27690962 0.14060266
000050 fe 31 88 be 3c aa 8a bd 9e 1f 70 be 3c 18 c4 3e
       -0.2660064 -0.06770751 -0.23449561 0.3829974
000060 fc bc e4 be 79 7b 63 be 63 d9 36 be e5 6d b4 be
       -0.44675434 -0.2221507 -0.17856364 -0.35240093
000070 2c 13 12 3e 46 10 0a bf f1 7e 06 3f 53 e9 e8 be
       0.14265126 -0.5393108 0.5253745 -0.45490512
000080 83 60 f0 3e b6 c6 c4 3d ad f7 3f be 07 ab b6 3e
       0.46948633 0.096082136 -0.18746825 0.35677359
000090 46 43 af 3d 3f 24 08 3f a7 15 dc 3d 74 00 2d be
       0.08557753 0.5318031 0.10746317 -0.16894704
0000a0 0d f8 8c 3e ac 2c c3 bd 80 8e 79 3e f3 8c 1c 3f
       0.27532998 -0.09530005 0.24370766 0.6115257
0000b0 54 49 b7 3e 60 85 9c be 5e fa c8 3e 93 49 0b 3e
       0.35798132 -0.30570507 0.39253515 0.13602285
0000c0 23 1e 96 3e f6 2b b4 be 64 4f 12 bf a5 fc 7e be
       0.29319867 -0.3518979 -0.5715239 -0.24901064
0000d0 e8 b9 d8 be ad c0 00 3f 15 5b 25 3e 46 93 a5 3e
       -0.42329335 0.50294 0.16148026 0.32338923
0000e0 a6 2d 4c 3e 46 7d 7f b9 e3 16 0b 3f 6b e9 d7 be
       0.19939288 -0.00024365363 0.543318 -0.4217027
0000f0 f7 e5 14 3d db c2 c9 be bd 4c 36 3e e2 99 4b be
       0.036352124 -0.39406475 0.17802711 -0.1988292
000100 c5 27 35 3e 83 58 f6 bd c6 2b f5 3e 65 34 af be
       0.17690952 -0.12028601 0.4788496 -0.3421966
000110 18 4c b0 be 45 24 9e be f0 b4 28 3f 30 a8 6e 3e
       -0.34433055 -0.30887046 0.6590109 0.23306346
000120 e6 38 0e 3f 54 f4 f3 be d7 99 12 bf f3 44 e7 be
       0.5555557 -0.47647345 -0.5726599 -0.45169792
000130 61 d9 c6 be 62 76 6f 3e 67 61 51 3e 9c 9c 0d 3f
       -0.38837722 0.23385003 0.20447312 0.5531709
000140 99 ab 95 be 91 91 9b be 1a 19 e2 3e 65 b4 49 be
       -0.2923248 -0.30384496 0.44159776 -0.19697721
000150 6f dd 9d 3e 65 f5 a2 bd 01 ff b2 3e ed 4f ea be
       0.30833003 -0.079569615 0.34960178 -0.45764104
000160 b0 c2 99 be 0a f8 2a 3e 63 b5 00 3e 22 f0 cf bc
       -0.30031347 0.16696182 0.12569194 -0.025383059
000170 29 46 c7 3e 31 f4 c8 3e 19 5d d6 be 2f d0 9d be
       0.38920715 0.39248803 -0.41867903 -0.30822894
000180 0e 99 03 3f 05 3b 58 be 33 00 54 be 19 03 0f bf
       0.5140542 -0.21116264 -0.20703201 -0.558641
000190 81 48 a9 be 83 af 13 3e 0c 12 9c bd 06 93 d6 be
       -0.3306313 0.14422421 -0.0762063 -0.41909045
0001a0 51 e2 5d 3c d2 eb c9 be f4 c9 fa be 18 c7 a2 be
       0.013542728 -0.3943773 -0.48982203 -0.3179252
0001b0 99 5b 01 bf ce 38 bc be 6d be 13 3f 4b 74 06 3e
       -0.5053039 -0.3676209 0.5771244 0.131303
0001c0 a0 0d 8c 3e 30 da 09 bf 00 25 c2 be 5d c9 44 be
       0.27354145 -0.5384855 -0.37918854 -0.19217439
0001d0 32 e5 b8 3d bb 98 b7 be 7d ae b9 bd 32 7b a2 be
       0.090280905 -0.35858712 -0.09066484 -0.31734616
0001e0 51 1c c0 bb c6 4f 26 be dd 46 21 bd 42 4f c8 be
       -0.0058627506 -0.16241369 -0.03937422 -0.3912297
0001f0 94 e6 ca be 9d 74 ac be 58 5e 4a be 66 50 e9 be
       -0.39629042 -0.3368272 -0.19762552 -0.45569152
000200 c0 da f7 3e 28 43 e4 bd d8 73 19 3f 09 3d 7d 3e
       0.4840908 -0.111456215 0.5994239 0.24730314
000210 80 98 da be fc 4c 01 3f 40 1b 09 be fb 9f 62 be
       -0.42694473 0.50508094 -0.13389301 -0.2213134
000220 21 5f f5 be 48 f0 12 bf c3 0c 0e 3e e0 a5 15 bd
       -0.4792414 -0.5739789 0.13872056 -0.036535144
000230 c1 4c 8a 3e c9 ed c5 be a8 76 0b 3f e5 9b cb be
       0.27011684 -0.38657978 0.5447793 -0.39767376
000240 70 a8 e5 bd 0e 80 29 3e 99 a4 b1 3e 0c f1 ea 3e
       -0.112137675 0.16552755 0.3469589 0.4588703
000250 43 2d 1d 3f 11 4e de be 91 c9 14 3e 18 4b 7e be
       0.6139719 -0.43418935 0.14530016 -0.24833333
000260 15 93 81 bd 1e cb db be 85 15 20 3f f9 cd d0 be
       -0.06326882 -0.42928404 0.62532836 -0.40782145
000270 53 a3 86 3e 0b 1d 85 3e 7b e2 81 3e 8f 5f ad be
       0.26296481 0.2599872 0.25368103 -0.33861968
000280 1c 76 13 3f d1 70 05 3e 10 1b 98 3d 3d 40 02 bf
       0.57602096 0.13031317 0.07427037 -0.5087927
000290 87 2e 78 3e a2 5e ce bd 04 08 88 be 96 28 02 3f
       0.24236499 -0.100766435 -0.26568615 0.5084318
0002a0 0e cf 03 3e e4 8c a3 be c9 9d 95 be b4 2f 92 bd
       0.12871954 -0.3194343 -0.29221943 -0.07138005
0002b0 b7 34 c8 3e 94 b8 e8 bd f1 a9 a8 be 5b 74 4a be
       0.39102718 -0.113633305 -0.32942155 -0.19770949
0002c0 7b d6 dc be ef 1c 76 3e 89 c6 16 3f 87 a5 fe be
       -0.43132386 0.24034475 0.5889669 -0.49735662
0002d0 8e e6 12 3e 38 67 c6 3e 5f aa ff 3d a0 21 75 be
       0.14345762 0.38750625 0.124836676 -0.23938608
0002e0 f5 5b c7 3e 70 b8 b4 3e 7a 11 5d 3e 7c c6 cf bd
       0.38937345 0.35296965 0.21588698 -0.1014528
0002f0 62 8d 1c be a4 60 85 3d 86 20 1d 3c c3 da f1 bd
       -0.15288308 0.06512573 0.009590274 -0.118093036
000300 5f f0 c1 3e c0 d4 1c 3f 1a 4e fe 3b 8c 5e 04 be
       0.378787 0.6126213 0.0077607753 -0.12926692
000310 6f 08 0a 3c 1b 33 0d bd 7d 35 23 3e b1 02 86 3e
       0.008424862 -0.034472566 0.15938373 0.26173928
000320 d0 77 02 bf 62 9d 1e be 84 54 13 3f e5 5d 99 3e
       -0.5096407 -0.15489724 0.57550836 0.29954448
000330 d1 3d eb bc 90 38 b2 be 04 da b4 be 3b a3 06 bf
       -0.028716 -0.3480878 -0.35322583 -0.5259282
000340 02 ad 4b be 96 e5 3c 3e a0 33 c6 3e 85 54 c5 3e
       -0.19890216 0.18446955 0.38711262 0.38541046
000350 55 6b e9 be 40 e5 ab be 01 2f ff 3a 96 41 18 3f
       -0.455897 -0.3357334 0.0019468964 0.59475076
000360 82 0b ab 3d f0 1a 19 be 59 97 74 3e a0 59 49 be
       0.08351804 -0.14951682 0.2388586 -0.19663095
000370 2e 7c 74 be 14 73 f0 3e 4f 69 86 be d9 08 ed bd
       -0.23875496 0.46962798 -0.2625222 -0.11573953
000380 a2 08 13 bf 7d 35 c7 3e 66 b3 0e 3f f0 3d 7f 3e
       -0.5743505 0.38907996 0.5574249 0.24925971
000390 d8 1d ce be 12 df 11 bf 33 15 f0 be 3f 96 e0 3e
       -0.40257144 -0.56981003 -0.46891174 0.4386463
0003a0 51 8b c1 3e 65 b7 ff 3e 6e d6 9a 3e 69 89 86 3e
       0.37801602 0.49944606 0.30241722 0.2627671
0003b0 85 ef da 3c e1 ce e0 be c4 43 fd be ff 3e 0a bf
       0.02672554 -0.43907836 -0.49465764 -0.54002374
0003c0 d0 5d 5b 3e 23 7f a5 be 47 df ef bd 0c 1f aa be
       0.21422505 -0.3232356 -0.11712509 -0.33226812
0003d0 ac 76 d7 bd 52 0e d0 be e0 26 c1 be 12 1c 44 3e
       -0.10520682 -0.40635926 -0.37724972 0.19151333
0003e0 59 b4 2f be 1c 7d b6 3e 0e aa 3d be 4d d8 d8 be
       -0.17158641 0.35642326 -0.18521902 -0.42352524
0003f0 36 29 db bd 62 3d 31 be 91 ed 28 be 83 c9 07 bf
       -0.1070122 -0.17308572 -0.16496874 -0.5304186

fc1.bias f4 [128]
000000 c3 0e 4b 3d 3c b2 1b 3f b2 f6 d5 be 6a bb 2b be
       0.049574625 0.6081884 -0.41789776 -0.16770712
000010 3e 25 c8 3e 9d 8b 95 bd 98 80 ff bd f7 68 76 be
       0.39090914 -0.0730202 -0.12475699 -0.24063478
000020 b2 09 e0 3e 08 ef b9 3e 55 1f 62 3e 4b 1e a6 be
       0.43757397 0.3631518 0.22082265 -0.32444987
000030 71 70 cf be 45 1d 30 3e 89 ad 83 3e 99 fd 5a be
       -0.40515473 0.17198665 0.25718334 -0.21385802
000040 12 6b 25 be b9 34 ce 3e 13 9d f3 3d 68 6b dd 3d
       -0.16154125 0.402746 0.11895194 0.10811502
000050 0c 7f 11 be 01 d9 05 bf bc f8 0a bf 37 67 14 be
       -0.14208621 -0.52284247 -0.5428579 -0.14492498
000060 f2 42 96 be 4c 31 38 3e 4e 9f d8 bd ac a3 c2 bd
       -0.2934795 0.17987555 -0.1057726 -0.09503874
000070 74 10 19 3f 9a a7 44 3e 72 df 05 3f f8 1a 8f be
       0.5979073 0.1920456 0.52294075 -0.27950263
000080 44 1d 81 be d9 4a 59 3e 02 f4 c4 be b2 3c c1 be
       -0.2521764 0.21219958 -0.38467413 -0.3774162
000090 d1 70 e4 bc 3a 02 f7 bd f5 99 dd be 30 b0 fe 3e
       -0.027885826 -0.120609716 -0.43281522 0.49743795
0000a0 29 21 02 3f a6 d0 bf 3d b5 df cd bd c1 67 e1 be
       0.5083185 0.093659684 -0.10052434 -0.4402447
0000b0 6e b5 dc bd 41 83 16 3e b0 c2 b3 3e 80 f7 2a 3d
       -0.107767925 0.14698507 0.35109472 0.04173994
0000c0 0c 6c 43 be d9 5d cc 3e 1d 6b eb be 44 bd e7 3e
       -0.19084185 0.3991535 -0.45980158 0.45261586
0000d0 e5 f0 32 be 80 1b 4e 3d e4 a9 e9 bd ec 3b 86 3d
       -0.17474706 0.050319195 -0.11409357 0.06554398
0000e0 66 a9 32 be f6 e3 f3 3e 46 ea 75 bc 76 25 15 3f
       -0.17447433 0.47634858 -0.015009468 0.58260286
0000f0 04 dd 22 3f 5b 95 4d be 34 a5 d7 be d2 a2 10 3f
       0.63618493 -0.20076506 -0.42118227 0.56498444
000100 6c fb 0e 3f 06 b5 e1 be 5e f3 3e 3d 6b 39 f6 be
       0.5585239 -0.44083422 0.04661881 -0.4809068
000110 0a fb f1 be ae dc ce 3d b9 c1 86 3e e0 74 55 3e
       -0.4726184 0.10100685 0.26319674 0.20845366
000120 d4 e7 20 be 42 4b 28 3f 1d 0f a9 3d bc 14 6d be
       -0.15713435 0.65739834 0.08254836 -0.23152441
000130 c0 e1 05 bd 52 ae 6b 3e 04 81 9c 3e f5 03 d1 be
       -0.032685995 0.23015717 0.3056718 -0.4082333
000140 af a2 36 3e b1 04 97 be f5 a0 f5 be f3 75 a1 be
       0.17835496 -0.29495767 -0.47974363 -0.315353
000150 b0 59 26 3f 2e 19 1e 3f 2a 9f 17 3f 2b 30 d2 3e
       0.649806 0.6175717 0.5922724 0.41052374
000160 93 52 0c 3f 06 44 9e bd 32 a6 a2 be 91 a1 c1 3e
       0.548135 -0.07727818 -0.31767422 0.37818578
000170 2a e5 32 be 1b 7e c7 be db ca 3c be f0 23 f8 3d
       -0.17470232 -0.38963398 -0.18436758 0.121162295
000180 6f 6a c5 3e 48 a1 65 be 6f fb ad be d6 7f 9f 3d
       0.38557765 -0.22424805 -0.3398089 0.07788055
000190 09 3d ae be b7 74 c0 be c8 29 d5 3e 2a 39 8b bb
       -0.3403094 -0.37589046 0.4163344 -0.004248758
0001a0 cd c2 23 3f 79 17 23 3f a1 4a 80 3e 79 c5 94 3e
       0.6396912 0.6370769 0.25056937 0.2905691
0001b0 31 25 08 3e 1e 24 14 3c 97 c3 74 3d a7 f6 14 3e
       0.13295437 0.009041814 0.05975684 0.14547215
0001c0 04 91 7c 3e b9 62 13 3f 72 37 19 be 6f 8b 49 be
       0.24664694 0.57572514 -0.14962557 -0.19682096
0001d0 f0 7a b8 bc 1c 39 76 be 6a a2 3f 3e 0c 4e 02 3f
       -0.022519559 -0.24045223 0.187143 0.5090034
0001e0 28 65 0c 3f 9e f2 9c 3e 37 8b d9 be 4b 8d 5c be
       0.5484185 0.30653852 -0.42489025 -0.21538274
0001f0 15 e5 01 be ac da a3 bc 3e 62 7c 3c 7f ad 07 bf
       -0.12685044 -0.020001732 0.015404282 -0.5299911

fc2.weight f4 [128, 128]
000000 81 5d e1 3c 38 18 8a bd fa 13 65 bd 0e 7f 96 bd
       0.027510406 -0.067429006 -0.055927254 -0.073484525
000010 c8 b9 9d 3d 17 6a ab bd 12 8e 88 3d da ba 42 bb
       0.077014506 -0.083698444 0.06667723 -0.0029713423
000020 2c 6b 28 bc 89 72 62 3d 77 d9 05 bc d5 0d 63 3d
       -0.010279458 0.05528501 -0.008169523 0.055433113
000030 33 e1 82 3d ae 29 9d bd 83 4e 0b 3d cb b0 88 3c
       0.063906096 -0.076739654 0.03401042 0.016685864
000040 63 af 9b 3c 0f 6b 53 3c bd 0e c6 3c 30 2a 2e bd
       0.01900453 0.012903943 0.02417695 -0.042520702
000050 4f 47 39 bc 76 fd ab 3d 49 3c 73 3d a5 9e 59 bb
       -0.011308505 0.08397953 0.059383664 -0.0033206132
000060 18 41 aa bd a8 e0 7d 3b eb 89 76 bd 11 34 93 3d
       -0.08313197 0.0038738642 -0.060190123 0.07187665
000070 03 ca 5b bd 42 1e d1 bb 22 b4 a0 bc 33 da 80 3c
       -0.05365945 -0.006381781 -0.019617144 0.015729045
000080 1d 58 aa 3d 3f 9a 09 3c 06 ae 51 3d d9 82 8c 3d
       0.083175875 0.008398592 0.051191352 0.06860895
000090 91 23 92 3d a8 0f fa bc d9 f1 a1 bc e8 7a 2e 3d
       0.0713569 -0.030525044 -0.019768642 0.04259768
0000a0 ca 93 c5 bc 98 87 29 3d 01 30 9e bc b7 8d 75 bd
       -0.024118323 0.041389078 -0.01931 -0.059949603
0000b0 8d 5d 13 3d 3b 07 5e 3c 12 6a 21 3d 16 d7 b3 3d
       0.03597789 0.013551529 0.039407797 0.08781259
0000c0 fc 2c 77 3d 58 9a ab 3d c7 04 9b 3b 11 b7 9b bd
       0.060345635 0.08379048 0.004730794 -0.076032765
0000d0 e0 fa 7d bd 90 e3 60 bd e3 85 9f bd 92 78 35 bd
       -0.06200683 -0.05490452 -0.07789209 -0.044304438
0000e0 fc a3 a6 bd de 02 a7 bd 7e 56 58 bd 7a 74 b2 bd
       -0.08136746 -0.08154844 -0.05281686 -0.087136224
0000f0 4e 39 5e bd 69 0c 0a 3d cc fa 96 3d d7 62 d7 bc
       -0.05425387 0.03370324 0.073720545 -0.026292248
000100 65 9e d2 bc ce 4f 41 3d 8d 9e 32 bd 05 2f 2b bd
       -0.025710294 0.04719525 -0.043608237 -0.04179289
000110 0e 10 5f 3d f2 b8 9d bd a0 12 31 3c c2 e8 9f 3d
       0.05445867 -0.07701291 0.010807663 0.07808067
000120 c7 56 78 3c 89 e8 c4 3c 1e d9 52 bd 26 d6 9f ba
       0.015157408 0.024036663 -0.05147659 -0.0012194559
000130 82 40 9f 3b a1 b6 b1 3c 2e ab 0c 3d f1 4a 9d 3d
       0.004859985 0.02169353 0.034342937 0.076803096
000140 06 2c 8a bd ad a2 2d 3b 3d e3 34 bd a7 32 8f bd
       -0.06746678 0.0026494667 -0.044162024 -0.06992083
000150 fd ed e7 bb 03 57 9f bd a0 aa 7c 3d be b7 27 3c
       -0.007077931 -0.07780268 0.06168616 0.010236679
000160 a8 1f 43 bd 9f 31 3d 3d 5f 52 ab bd 49 09 0c bd
       -0.04763761 0.0461899 -0.083653204 -0.034188543
000170 57 10 8d bc 3c d2 99 bd 57 37 66 bd a5 5d 6c bc
       -0.017219706 -0.07510802 -0.05620512 -0.0144266235
000180 df 59 89 3d 56 cd ae 3d 02 5a 66 3d 96 2e 58 bd
       0.06706595 0.085352585 0.056238182 -0.052778803
000190 76 da 6c bd 6e f9 9d 3d 34 0f 00 3d 84 e5 19 3b
       -0.057825528 0.077135906 0.0312645 0.002348275
0001a0 59 fb 43 3c 12 7c 91 bd 45 c2 f1 bc a3 40 ae 3d
       0.011961781 -0.07103743 -0.02951158 0.08508422
0001b0 af 94 b2 bc 6f 4a 91 bb 55 4e 96 bd ea 86 4a bd
       -0.021799413 -0.004433922 -0.073391594 -0.04944507
0001c0 de 90 ec ba 3c e2 60 bd c9 95 33 bc c0 55 13 3d
       -0.0018048545 -0.054903254 -0.0109610045 0.03597045
0001d0 aa 11 b1 bd 4a 0f d7 3c 07 62 6f bd 80 b1 30 bd
       -0.08645947 0.026252408 -0.058443096 -0.043138027
0001e0 7b fd 0a 3d a0 ee 8f 3d 87 e5 c5 bc 52 a4 14 bd
       0.033933144 0.07027936 -0.024157299 -0.03628952
0001f0 26 af a3 bd 22 b0 3a bd d9 81 9e bd 4f b8 a5 bc
       -0.07992391 -0.04557813 -0.0773961 -0.020229487
000200 67 65 80 3c b3 87 ae bd e9 0c 9e 3d e1 8b 5a 3d
       0.015673352 -0.08521976 0.07717306 0.053356055
000210 14 15 b6 bd 21 53 36 bd 47 1d f4 3c c5 c4 94 bc
       -0.08890739 -0.04451287 0.029799117 -0.018160233
000220 bc 2d 40 bc e5 8d 2c bd f5 65 91 3d 04 61 4a bd
       -0.011729654 -0.04212751 0.07099525 -0.049408928
000230 24 eb 9c 3d 92 dd 5d 3b 56 c6 7c 3c c5 27 8a 3d
       0.07662037 0.003385399 0.015428146 0.06745867
000240 27 9b 6e bc d2 1f 4e bd 63 17 88 bc aa 12 8e 3d
       -0.014563358 -0.050323315 -0.016612714 0.06937154
000250 66 50 86 bd f5 59 a4 3c 7d e7 b1 bd 5e c9 34 3d
       -0.065583035 0.020062426 -0.08686731 0.04413735
000260 f9 c2 05 3d ea 8f 75 3b d9 a5 11 3d 08 f5 f0 ba
       0.032656644 0.0037469813 0.035558555 -0.0018383572
000270 75 a7 3e 3d 72 4c 8f bd 56 3f 7c bc 0b 9b 20 3d
       0.04654642 -0.06997003 -0.01539596 0.03921036
000280 19 43 b4 3d 5d 6b 38 3d f4 a1 83 bd ae 38 8b 3d
       0.0880186 0.045024265 -0.064273745 0.0679792
000290 ce 77 a1 bc d9 99 9a bc bd 87 a4 bd 9a 56 7b bc
       -0.019710448 -0.018872188 -0.080337025 -0.015340472
0002a0 03 83 76 3d 0c f0 49 3c f0 de 52 bd 38 e1 de 3c
       0.060183536 0.012325298 -0.05148214 0.027207002
0002b0 ce 10 f9 bc 03 45 a5 3d 57 ec a1 bd a4 e8 f6 bc
       -0.03040352 0.080698036 -0.079064064 -0.030140229
0002c0 98 c9 ae bd 96 41 18 bd 81 43 e4 3c e0 9b a9 3d
       -0.08534545 -0.037171923 0.02786422 0.08281684
0002d0 af 91 fa 3b d7 d8 ac 3d d2 aa 8d 3c 22 17 51 3d
       0.0076467614 0.084397964 0.017293368 0.05104745
0002e0 ca 1d 91 3d 24 a1 92 3d 42 a4 4a bd 89 a7 a1 3d
       0.0708576 0.071596414 -0.049473055 0.07893283
0002f0 bd c4 51 3d 86 0f 2f bd 1d c4 2c bd 0a aa 9c bd
       0.051213015 -0.042739414 -0.042179216 -0.0764962
000300 07 93 a2 3c 9f b9 92 bd 05 a4 0f 3d 75 a9 e4 3c
       0.019845499 -0.07164311 0.03506853 0.027912835
000310 1e 45 9d bd cc 4f c5 3c fd 76 1c bc cd 0b 2e 3d
       -0.07679199 0.024085902 -0.009549853 0.042491723
000320 e9 bb 4f 3d 10 5d b8 bd 3c 03 a6 3d b5 85 92 3d
       0.050716314 -0.09002125 0.08106086 0.07154409
000330 9d 0c 10 3d b1 61 aa bd 3f 33 0b bd 13 d8 d1 bc
       0.03516828 -0.083194144 -0.03398442 -0.025615728
000340 1d 16 ba bc 77 29 4c 3d 69 a0 03 3d 55 66 8f 3d
       -0.022715623 0.04984423 0.0321354 0.0700194
000350 b8 2c 11 bd 48 27 e1 3c 42 56 ee 3c a6 67 9b bd
       -0.035443038 0.027484551 0.029093865 -0.07588129
000360 f4 5c b4 bd a0 db 3b bd 2d d5 77 3d 35 3d af bd
       -0.08806792 -0.045863748 0.060506035 -0.08556596
000370 bb 90 9d bd 74 d0 4a 3d 92 54 43 3d 75 de 94 3d
       -0.07693621 0.049515203 0.047688074 0.07268993
000380 66 9d 8d bd ee 7c 84 bd 94 b8 39 3d 7d 6b 9d 3d
       -0.06914787 -0.06469141 0.045342043 0.076865174
000390 2e 9f 58 3d 41 db 62 3c 0a 07 dc 3c 4f 1b a7 3d
       0.05288618 0.0138462195 0.026858825 0.081595056
0003a0 3d e3 72 bd 2d f6 2d bd f1 de 73 3d fd 9f 80 bd
       -0.059298743 -0.0424711 0.059538785 -0.06280515
0003b0 f7 a1 47 bd 7b 24 84 3d 09 9d ce 3c 93 8b d8 3c
       -0.048738446 0.064522706 0.025221365 0.026433742
0003c0 ae cb 22 bd 98 a4 65 bb c1 ac a5 3d 9c 5e 62 bd
       -0.039745025 -0.0035040732 0.08089591 -0.055266008
0003d0 d0 2b 36 3a 33 41 22 3d 49 b3 80 bd d6 e1 aa 3d
       0.00069492776 0.03961296 -0.06284196 0.08343856
0003e0 a6 a3 3d bd 4c e8 c0 bc ef e9 c3 bc 56 5e 75 bd
       -0.046298645 -0.023548268 -0.02391526 -0.05990442
0003f0 bc a0 b1 bd d6 22 4c 3d 5d 5e c0 3c f8 8a a9 bd
       -0.08673236 0.04983791 0.023482496 -0.08278459

fc2.bias f4 [128]
000000 35 4a 9a bd 79 3b 9b 3d 88 64 a0 bd 52 25 1a bd
       -0.07533685 0.07579703 -0.07831675 -0.037633248
000010 62 69 b9 bc 3b 5b 89 bc d4 ee 9d bc ed 20 75 3d
       -0.022633258 -0.016767135 -0.019278921 0.059845854
000020 f8 70 87 3d 41 a8 b5 bd 9f f2 a7 bd 3a 26 b1 bd
       0.06613344 -0.088699825 -0.08200573 -0.08649869
000030 34 76 e9 3d e7 a3 2f bc 7b 34 33 bd 5b d9 18 3d
       0.113994986 -0.01072023 -0.04375122 0.03731666
000040 6e 45 3d 3c 3f 16 92 3c 6d 95 ef 3d 43 7b 83 3d
       0.011552198 0.017832873 0.116984226 0.06419995
000050 ef 25 c3 3d 3d 5c 71 bd 11 16 99 bb 0c 19 87 bd
       0.0952872 -0.058925856 -0.00467182 -0.06596574
000060 f5 a0 02 bd 23 ca 59 bc f9 03 4b 3d d1 5d 87 3d
       -0.03189178 -0.013292822 0.049564335 0.06609691
000070 8a 1c 4c bd 0f 6e de bc ec 99 08 3d 8b c2 0b 3e
       -0.049831904 -0.02715209 0.033349916 0.13648431
000080 bc 11 40 3e af 82 b4 bd 3d 76 a9 3c 90 a9 3c 3d
       0.18756765 -0.088139884 0.020686263 0.046060145
000090 64 6b 43 3d bc 35 b0 bd fa 24 87 bd 2a 32 60 3d
       0.047709838 -0.08603999 -0.065988496 0.05473534
0000a0 db 16 20 bc 2d b6 0f 3d 97 a3 93 3d 00 d5 32 bc
       -0.009771074 0.035085846 0.07208937 -0.010915041
0000b0 e6 c0 d4 bc 53 62 45 3d 6c 9a 8d bd 6f 47 2c bc
       -0.025970887 0.048189472 -0.06914219 -0.010515078
0000c0 40 61 5b bc 2f 3d ad bc 4c 70 24 3d 5e f4 ba bc
       -0.013389885 -0.021147339 0.040146157 -0.022821601
0000d0 31 17 41 3b 74 ac cd 3c 6a c3 9c b9 64 d1 e8 bc
       0.0029463286 0.025106646 -0.00029900233 -0.028420158
0000e0 3e 12 ab 3d 24 c2 49 3d 56 85 9a bc b3 04 0e 3d
       0.08353089 0.049257413 -0.018862408 0.03467245
0000f0 7b 63 1e bd a4 82 35 3d b0 81 31 3d 49 37 19 bd
       -0.03866909 0.04431404 0.04333657 -0.03740624
000100 76 0d 74 3d 49 a0 2a bc ee 0e b5 3d d3 ab f3 bc
       0.05958315 -0.0104141915 0.08840738 -0.029745018
000110 22 17 2e ba a1 51 97 bc b5 cc 1c 3c 7b 2a ac bd
       -0.00066410203 -0.01847154 0.00957029 -0.0840654
000120 68 ac b9 3d e5 8b 8d bd 07 33 a8 bd fd af c1 bd
       0.09066087 -0.069114484 -0.08212858 -0.09457395
000130 0b f9 bc bc 0f 9b 88 3d 46 3a 17 3c 23 e7 c3 bb
       -0.023067972 0.066702 0.009230202 -0.0059784814
000140 2d 68 3f bd 96 1a 44 bc 85 57 db bc 30 21 8f bd
       -0.04673021 -0.011969229 -0.026775131 -0.06988752
000150 92 89 9f bc 1e 4e da 3c 47 8e 39 3d eb 6c a4 bd
       -0.019474778 0.026648577 0.045301702 -0.08028587
000160 e1 1e 99 3d 32 17 4a 3e a1 40 24 bd 6c 2f 9a bd
       0.07476593 0.19735411 -0.040100697 -0.07528576
000170 96 73 53 3c 1f 5d a3 3c fd 97 c1 bc 5d 51 26 bd
       0.012905976 0.019941865 -0.023632044 -0.040604938
000180 00 fe 58 bb 71 38 79 bd 1a fc 74 bd ae a2 e7 3c
       -0.003311038 -0.060844842 -0.059810735 0.028275814
000190 36 c3 23 3c a2 28 a5 3c f3 c9 8c 3d c1 8f 61 ba
       0.009995272 0.020160977 0.06874456 -0.000860449
0001a0 c2 20 a6 3d 44 d8 f0 3d dc 3b 7b bd 26 b1 50 3d
       0.08111717 0.117599994 -0.061336383 0.050950192
0001b0 03 9e 45 3d 7a 43 0a bd 04 82 1d 3e 95 fb 25 bd
       0.048246395 -0.033755757 0.15381628 -0.04052313
0001c0 52 35 69 bd 87 cf 6c 3d 26 f2 27 3d 3c 99 b0 3d
       -0.056935616 0.0578151 0.041002415 0.08622977
0001d0 0e fe 8e bd 55 b1 24 3d f4 c7 b1 3c 0a 21 58 bd
       -0.06982051 0.04020818 0.02170179 -0.052765884
0001e0 38 d2 42 bc cd 90 8d 3d 7d df 18 3d 07 77 26 bd
       -0.01189094 0.06912384 0.03732251 -0.040640857
0001f0 64 f6 77 ba 94 ec ff bc 2d f7 6e 3d 95 e1 ec 3d
       -0.00094590173 -0.031240739 0.058341194 0.11566464

fc3.weight f4 [13, 128]
000000 57 71 56 bc 93 c0 a7 bc 50 60 8c bd ab 3e a0 bc
       -0.013088546 -0.020477569 -0.06854308 -0.019561132
000010 83 57 22 3d d2 50 ae bd 9b 1c 09 3d ad 8f ac 3d
       0.03963424 -0.08511509 0.033474546 0.084258415
000020 c1 d4 1b 3d c9 f0 3f 3d da f8 c3 bc 84 45 f4 bb
       0.038044695 0.04686049 -0.023922373 -0.007454576
000030 68 21 08 be 0b 35 2f bd 62 ee b5 3c 69 4a 49 bd
       -0.13293993 -0.042775195 0.022208396 -0.04914323
000040 2e 77 55 3d db f2 2c bd 46 68 b8 3b 3e 80 3e bd
       0.05211561 -0.042223793 0.0056276647 -0.04650902
000050 f1 6b 19 be 9e d5 0a bd db 38 76 bd b6 2e 8d 3c
       -0.14982583 -0.033895127 -0.060112815 0.017234188
000060 d7 0b 64 3c 7a 5c 86 3d db 0f 3d 3d e3 db ad bd
       0.013918838 0.06560607 0.0461577 -0.08489206
000070 03 b2 0b 3d 7b e2 2c 3d a9 5e c0 bd 70 c2 17 be
       0.034105312 0.042208176 -0.09393055 -0.14820266
000080 fe 97 2f be e3 ae 33 bd 6d b8 e9 bb 26 ec b1 3d
       -0.17147824 -0.043867957 -0.007132581 0.0868762
000090 07 56 98 3d b2 bc b9 bc 00 5f d7 3b ba 03 81 3b
       0.074382834 -0.022672985 0.006572604 0.003937212
0000a0 8a 95 0e 3c 4b 8f 75 bd 97 8e 31 3c 00 01 7f 3d
       0.008702645 -0.059951108 0.010837219 0.062256813
0000b0 dd 16 6d 3c a3 57 a5 3d 48 1f a8 3d 6f 46 13 be
       0.014470783 0.08073356 0.082090914 -0.14382337
0000c0 6f b4 a0 3d cb e7 8e bd 72 7c 2b bd 63 5d 5f 3d
       0.07846915 -0.06977805 -0.041866727 0.05453242
0000d0 ea c2 5c 3b 99 53 9c 3d e8 71 28 3d 61 40 9a bc
       0.0033685514 0.076331325 0.041124254 -0.018829526
0000e0 9e 62 04 3d 3f e9 81 bd c4 51 15 3c 2b ad 3f bd
       0.03232061 -0.06343316 0.009113733 -0.046796005
0000f0 bf cf 87 3d ce af c7 3d f9 33 0e 3d ec 67 4a bd
       0.06631421 0.09750329 0.034717534 -0.049415514
000100 dc 66 d3 3b e0 3e 79 3d d1 ec aa bd 04 66 8f bc
       0.006451471 0.060850978 -0.083459504 -0.0175047
000110 68 6b 0e 3d 96 db fb bb cb d7 02 3d a7 85 81 39
       0.0347704 -0.007686089 0.031944077 0.00024704376
000120 ec 35 ba bd b8 39 52 3c 52 62 1a ba 02 16 83 bd
       -0.09092316 0.012831144 -0.00058892847 -0.06400682
000130 6a 95 86 bd 05 0e cd 3b f3 fa 0c bd a0 9f 2f bb
       -0.06571467 0.006257775 -0.03441901 -0.0026798025
000140 e9 c2 85 3d a5 d5 3e bd 6a a9 45 3d cc 6d 7c 3d
       0.06531317 -0.046590466 0.04825727 0.061628148
000150 02 d2 45 3d a9 1c ec bd b5 67 59 3c 80 7a 85 bd
       0.048295982 -0.11528904 0.013269355 -0.06517506
000160 25 34 65 bd ae 32 dc bd eb 9f 9c 3d 2a a9 4a 3d
       -0.055957932 -0.10751854 0.076476894 0.049477734
000170 20 f1 ca 3c fe e5 51 3d b8 e2 ac bd 41 a7 ac bd
       0.02477318 0.05124473 -0.08441681 -0.08430339
000180 c5 5f 16 3d d3 63 ac bc a0 a1 ec 3c 42 79 80 bd
       0.036712427 -0.021043694 0.028885663 -0.06273128
000190 8e 63 ab 3d 2b 36 95 bd 01 eb 1f 3d b3 bb 3e 3d
       0.08368598 -0.07285722 0.039042477 0.046565723
0001a0 22 6b 28 be 6b 0e a5 3c da 0c 24 3d 93 9c 05 bd
       -0.16447118 0.020148477 0.04005132 -0.032620024
0001b0 ec f7 fb bc 40 88 8a 3d b9 e8 d5 bd 1f 6f be 3b
       -0.030757867 0.06764269 -0.10444779 0.0058115865
0001c0 f8 c8 28 3d f4 26 12 3d 19 49 35 bd 52 87 7f bb
       0.041207284 0.03568168 -0.044259164 -0.003899057
0001d0 e8 95 db 3c 0a 9c 0c 3d c1 39 28 bd 23 35 23 3d
       0.02680488 0.034328498 -0.041070703 0.039845597
0001e0 54 fe 9c bc 0d 40 30 3b 3e a3 39 3d 6a f2 82 3d
       -0.019164242 0.0026893646 0.045321696 0.06393893
0001f0 6e a1 44 bc d9 4c 6b 3d 50 42 8b 3d 25 91 1f bc
       -0.012001378 0.057446335 0.067997575 -0.009739195
000200 28 af b6 bb c0 dc 8a bd e7 d4 72 bd ea 88 50 3d
       -0.0055750795 -0.06780386 -0.05928507 0.05091182
000210 75 86 65 bd 11 2e 55 bd 08 85 6a 3d 16 e6 48 bd
       -0.05603643 -0.052045885 0.057255775 -0.049047552
000220 85 04 8c bd 47 31 6a 3c 86 40 1c 3d 15 17 a4 bd
       -0.068367995 0.014293975 0.03814747 -0.08012215
000230 c7 89 11 bd a1 98 8b bd fe be 18 3d c9 d7 59 bc
       -0.035531785 -0.06816221 0.03729152 -0.013296076
000240 89 a5 f3 3c c8 40 c0 3d 79 ff 42 bd 9a fa 17 bd
       0.02974202 0.09387356 -0.04760692 -0.037104227
000250 86 55 f8 bc e4 53 d9 3c 56 ca 21 bd 70 36 79 bd
       -0.030314218 0.02652926 -0.039499603 -0.06084293
000260 ee 74 dc bc 4b 89 0e 3d 53 fc 18 3d 60 3a dc bd
       -0.026911225 0.0347989 0.03735001 -0.10753322
000270 ad 1a 99 3d 57 ea 75 bd e4 db cc bc 8f 97 c4 bd
       0.07475791 -0.060037937 -0.025007196 -0.0959922
000280 0b 42 01 be 20 15 96 3d b5 d7 8a bd a7 59 3e 3d
       -0.1262285 0.07328248 -0.06779424 0.046472218
000290 b4 8e e3 3c f6 e6 3a bd f1 85 9b 3d da c1 44 bd
       0.027778007 -0.045630418 0.07593907 -0.048036434
0002a0 04 1b 02 ba 22 65 ab 3d c2 77 aa bd 58 7e 95 3d
       -0.0004963132 0.08368899 -0.08323623 0.07299489
0002b0 34 a9 32 bd 12 ec 92 bd a5 1a 4b 3d 88 6e b8 bd
       -0.043618396 -0.07173933 0.049585957 -0.09005457
0002c0 31 c8 95 bd 5d 57 42 bd 1c 0c 72 3d a2 bd a5 3d
       -0.07313574 -0.047446597 0.05909358 0.0809281
0002d0 b1 ec da bb 17 ed 39 3d be 41 d7 3a 56 89 87 bd
       -0.006681048 0.045392122 0.0016422791 -0.066179916
0002e0 b0 b1 37 bc a0 e5 80 3d 0a 26 80 bc c1 88 71 bd
       -0.011211798 0.062937975 -0.015643138 -0.05896831
0002f0 08 97 94 3d 6a b6 96 bc 26 90 97 3d 48 b0 4f 3d
       0.072553694 -0.018397529 0.07400541 0.050705224
000300 9c 89 7d 3c 87 5c c0 3c 7d 5d 3f bd f6 ed 1d bd
       0.015474703 0.02348162 -0.046720017 -0.038557015
000310 d2 84 4d bd 6f 40 0f bd d6 8a 4a bd b0 34 55 bc
       -0.050175495 -0.034973558 -0.04944881 -0.01301305
000320 85 fe c2 bd c3 30 e9 bc 68 80 76 bd 71 fa ad bd
       -0.09521202 -0.028465634 -0.06018105 -0.084950335
000330 4a 58 a5 3c 9d 0d 0f 3d 03 d5 12 bd 22 27 86 bd
       0.020183701 0.034925092 -0.035847675 -0.06550433
000340 5d 0f 29 bd ed f0 e6 bd 19 0d c2 bd ce da bb 3d
       -0.041274417 -0.11276422 -0.094751544 0.09172593
000350 57 02 44 3d 9c a7 db 3c 4b ce bd bd 93 63 6f bd
       0.047853794 0.02681332 -0.09267863 -0.05844457
000360 5a 03 9c 3d c9 8e d6 bd c1 be 5f bd 2a c9 96 bd
       0.07617827 -0.10476453 -0.054625276 -0.07362588
000370 df 63 dc 3c c2 42 41 bc 7c e3 5c bd 30 24 9a 3d
       0.026903091 -0.011795701 -0.053927884 0.075264335
000380 49 38 55 bd 10 c3 1c 3c b9 8a fb 3c c9 3e 2d 3d
       -0.05205563 0.009567991 0.030705797 0.042296205
000390 da 84 97 3d 52 24 a8 bc 9c 06 22 3d 63 d8 e5 bb
       0.07398386 -0.020525131 0.039557084 -0.0070143207
0003a0 61 4f 60 bd c5 b6 dc bd 56 7a 47 3d d0 17 d4 3c
       -0.0547632 -0.10777048 0.048700653 0.025890261
0003b0 4c 10 ca 3c 7a f3 dd bb be ae ce bc 0f d8 ae bd
       0.024665974 -0.0067734094 -0.025229808 -0.08537304
0003c0 69 76 85 3d 48 a0 82 3d 45 f9 41 3d 94 7f 5f bd
       0.065167256 0.063782275 0.047356863 -0.054565027
0003d0 19 e9 a8 bd 2e a5 d0 bc 00 6e 91 bd e7 74 2d bd
       -0.08247585 -0.025469389 -0.07101059 -0.042347815
0003e0 4f ed 7e 3d 9b d9 49 bd c2 57 b4 3d 61 80 36 bd
       0.062238034 -0.04927979 0.08805801 -0.044556025
0003f0 e3 9d 28 bd ba 14 91 bd fc e3 09 3d 31 b6 73 bc
       -0.041166198 -0.070840314 0.03366469 -0.014874981

fc3.bias f4 [13]
000000 3f cb 2a 3d 76 c1 8c bd 8d 1d 33 bc 65 33 f1 3c
       0.041697737 -0.06872837 -0.010932338 0.029443452
000010 5d 58 93 3c 7f 87 a1 bd 38 9b 99 bd 41 ff d8 bd
       0.01798647 -0.07887172 -0.07500309 -0.10595561
000020 c4 a6 b8 3c cd f4 7a bd 20 87 9f bc 7f 48 3d 3d
       0.022540458 -0.061268616 -0.019473612 0.046211716
000030 8e be df 3c
       0.027312543
