models/model_episode_2500.pth (torch, 77430 bytes, 6 tensors)

fc1.weight f4 [128, 3]
0.4140258 0.5212145 -0.15275475 0.49124655 -0.03991538 0.16012311 -0.2777023 0.40610674
0.56028897 -0.4893455 0.55756265 0.096147664 0.3874518 0.1370626 0.2896678 -0.11811284
0.5013536 0.0511465 -0.27690962 0.14060266 -0.2660064 -0.06770751 -0.23449561 0.3829974
-0.45352155 -0.2254251 -0.17865652 -0.35242617 0.1403205 -0.5393241 0.5259586 -0.45408487
0.4703269 0.096082136 -0.18746825 0.35677359 0.063149385 0.5205302 0.09500134 -0.18122637
0.26604393 -0.106263034 0.23390618 0.6044381 0.3497099 -0.30387315 0.39010695 0.13684376
0.29319867 -0.3518979 -0.5715239 -0.26417986 -0.42930707 0.49540183 0.14997828 0.31509674
0.18975504 -0.009875168 0.5360381 -0.42995885 0.036352124 -0.39406475 0.17802711 -0.1988292
0.17690952 -0.12028601 0.4788496 -0.3421966 -0.34433055 -0.3186218 0.6522387 0.2253078
0.5555557 -0.47647345 -0.5726599 -0.45169792 -0.38837722 0.23385003 0.1925912 0.54390943
-0.30305594 -0.3010067 0.43964472 -0.19748284 0.2952135 -0.08831929 0.33925983 -0.45764104
-0.30031347 0.16696182 0.11319726 -0.033990078 0.3790887 0.39248803 -0.41867903 -0.30822894
0.51257706 -0.21273221 -0.20703201 -0.558641 -0.3306313 0.14422421 -0.0762063 -0.41909045
0.013542728 -0.3943773 -0.48982203 -0.3179252 -0.5053039 -0.3676209 0.5771244 0.1313596
0.27100396 -0.5384855 -0.37918854 -0.19217439 0.090280905 -0.3573685 -0.09287907 -0.31579897
-0.016649554 -0.17015502 -0.048281588 -0.3912297 -0.39629042 -0.3368272 -0.19762552 -0.45569152
0.4840908 -0.13090833 0.5913218 0.23816077 -0.43094087 0.5013269 -0.13424869 -0.2213134
-0.4792414 -0.5739789 0.12685946 -0.04459312 0.26061177 -0.38648003 0.54181826 -0.39746067
-0.12547238 0.16007711 0.34037313 0.4488184 0.6065632 -0.44273722 0.14530016 -0.24833333
-0.06326882 -0.44020498 0.6169265 -0.41755253 0.25117826 0.25362858 0.24639875 -0.35074884
0.56689787 0.119629905 0.07427037 -0.5087927 0.24236499 -0.11123086 -0.26900586 0.5039872
0.12871954 -0.3194343 -0.29221943 -0.0809408 0.38400668 -0.121840745 -0.32942155 -0.19770949
-0.43132386 0.230509 0.58163023 -0.50578284 0.13538446 0.381749 0.11823598 -0.26237363
0.38032696 0.3423519 0.21588698 -0.1014528 -0.15288308 0.055394273 0.0024145057 -0.12641647
0.3687826 0.6052957 -0.0007620453 -0.12926692 0.008424862 -0.034472566 0.15355903 0.25718698
-0.52069044 -0.18438052 0.5691691 0.2935814 -0.028716 -0.3480878 -0.35322583 -0.5259282
-0.19890216 0.18446955 0.37618232 0.37710917 -0.4654808 -0.35034874 -0.0051588397 0.5877048
0.08351804 -0.14951682 0.2388586 -0.2076915 -0.24647696 0.46060252 -0.2625222 -0.11573953
-0.5743505 0.37857386 0.5499781 0.2405778 -0.40257144 -0.56981003 -0.46891174 0.42887065
0.37118447 0.49157858 0.29104608 0.25450397 0.017088246 -0.43907836 -0.49465764 -0.54002374
0.21516594 -0.32230645 -0.1162485 -0.33226812 -0.10520682 -0.40635926 -0.37724972 0.19151333
-0.17158641 0.35642326 -0.18521902 -0.42352524 -0.11962545 -0.18257031 -0.17602165 -0.54062414
00000000: 31fb d33e 506e 053f be6b 1cbe ab84 fb3e
00000010: 4f7e 23bd 50f7 233e ff2e 8ebe 39ed cf3e
00000020: 196f 0f3f 7e8b fabe 6dbc 0e3f 11e9 c43d
00000030: 1560 c63e 235a 0c3e 564f 943e 25e5 f1bd
00000040: b658 003f fe7e 513d 19c7 8dbe 25fa 0f3e
00000050: fe31 88be 3caa 8abd 9e1f 70be 3c18 c43e
00000060: fa33 e8be d6d5 66be bcf1 36be 3471 b4be
00000070: 2db0 0f3e 2511 0abf 39a5 063f d07d e8be
00000080: b0ce f03e b6c6 c43d adf7 3fbe 07ab b63e
00000090: 7754 813d 7841 053f 1090 c23d 6893 39be
000000a0: e936 883e 6fa0 d9bd 1a85 6f3e 75bc 1a3f
000000b0: 2d0d b33e 4395 9bbe 19bc c73e c520 0c3e
000000c0: 231e 963e f62b b4be 644f 12bf 9542 87be
000000d0: 23ce dbbe 4fa5 fd3e e893 193e 5c54 a13e
000000e0: 254f 423e 75cb 21bc cb39 093f 9123 dcbe
000000f0: f7e5 143d dbc2 c9be bd4c 363e e299 4bbe
00000100: c527 353e 8358 f6bd c62b f53e 6534 afbe
00000110: 184c b0be 6622 a3be 1ef9 263f 17b7 663e
00000120: e638 0e3f 54f4 f3be d799 12bf f344 e7be
00000130: 61d9 c6be 6276 6f3e a136 453e a63d 0b3f
00000140: 262a 9bbe 8d1d 9abe 1d19 e13e f138 4abe
00000150: 3926 973e bee0 b4bd 77b3 ad3e ed4f eabe
00000160: b0c2 99be 0af8 2a3e f7d3 e73d 2e39 0bbd
00000170: ea17 c23e 31f4 c83e 195d d6be 2fd0 9dbe
00000180: 4038 033f 79d6 59be 3300 54be 1903 0fbf
00000190: 8148 a9be 83af 133e 0c12 9cbd 0693 d6be
000001a0: 51e2 5d3c d2eb c9be f4c9 fabe 18c7 a2be
000001b0: 995b 01bf ce38 bcbe 6dbe 133f 2283 063e
000001c0: 08c1 8a3e 30da 09bf 0025 c2be 5dc9 44be
000001d0: 32e5 b83d 01f9 b6be 6237 bebd 67b0 a1be
000001e0: a564 88bc 1e3d 2ebe eac2 45bd 424f c8be
000001f0: 94e6 cabe 9d74 acbe 585e 4abe 6650 e9be
00000200: c0da f73e d50c 06be de60 173f 6be0 733e
00000210: 48a4 dcbe f656 003f 7d78 09be fb9f 62be
00000220: 215f f5be 48f0 12bf 72e7 013e 47a7 36bd
00000230: e86e 853e b6e0 c5be 9ab4 0a3f f77f cbbe
00000240: d57b 00be 41eb 233e 6345 ae3e 86cb e53e
00000250: ba47 1b3f 74ae e2be 91c9 143e 184b 7ebe
00000260: 1593 81bd 8c62 e1be e5ee 1d3f 72c9 d5be
00000270: 709a 803e 9bdb 813e f44f 7c3e 5a95 b3be
00000280: 3820 113f 8600 f53d 101b 983d 3d40 02bf
00000290: 872e 783e 01cd e3bd 23bb 89be 4e05 013f
000002a0: 0ecf 033e e48c a3be c99d 95be 4ac4 a5bd
000002b0: 869c c43e a487 f9bd f1a9 a8be 5b74 4abe
000002c0: 7bd6 dcbe 8d0a 6c3e b8e5 143f fc7a 01bf
000002d0: 39a2 0a3e 9b74 c33e b525 f23d d655 86be
000002e0: 37ba c23e c048 af3e 7a11 5d3e 7cc6 cfbd
000002f0: 628d 1cbe 1be5 623d af3c 1e3b 5273 01be
00000300: 13d1 bc3e a9f4 1a3f ffc3 47ba 8c5e 04be
00000310: 6f08 0a3c 1b33 0dbd 943e 1d3e 03ae 833e
00000320: f84b 05bf 3fce 3cbe 11b5 113f 4d50 963e
00000330: d13d ebbc 9038 b2be 04da b4be 3ba3 06bf
00000340: 02ad 4bbe 96e5 3c3e f89a c03e 7414 c13e
00000350: 8053 eebe e960 b3be 7c0b a9bb d273 163f
00000360: 820b ab3d f01a 19be 5997 743e 15ad 54be
00000370: 7564 7cbe 18d4 eb3e 4f69 86be d908 edbd
00000380: a208 13bf 6fd4 c13e 5dcb 0c3f 075a 763e
00000390: d81d cebe 12df 11bf 3315 f0be ef94 db3e
000003a0: e40b be3e 30b0 fb3e fe03 953e 584e 823e
000003b0: a6fc 8b3c e1ce e0be c443 fdbe ff3e 0abf
000003c0: 7654 5c3e 5a05 a5be b213 eebd 0c1f aabe
000003d0: ac76 d7bd 520e d0be e026 c1be 121c 443e
000003e0: 59b4 2fbe 1c7d b63e 0eaa 3dbe 4dd8 d8be
000003f0: 30fe f4bd b6f3 3abe 053f 34be 5866 0abf

fc1.bias f4 [128]
0.039170254 0.5990489 -0.42784578 -0.17324962 0.38453698 -0.08275239 -0.12475699 -0.24063478
0.43409455 0.3609576 0.22176118 -0.32444987 -0.41804156 0.16188973 0.24941617 -0.21612793
-0.16154125 0.39567786 0.10987985 0.10018615 -0.14208621 -0.52284247 -0.5428579 -0.15237854
-0.2934795 0.17987555 -0.11578138 -0.096844316 0.5882377 0.1920456 0.51345646 -0.27950263
-0.25376084 0.21219958 -0.38467413 -0.3774162 -0.027885826 -0.123025134 -0.43281522 0.49553728
0.49983853 0.093659684 -0.10052434 -0.44954568 -0.11162895 0.14698507 0.34220725 0.038960636
-0.19728063 0.39106697 -0.45980158 0.44348744 -0.18193746 0.040362485 -0.11409357 0.06160343
-0.17447433 0.46866772 -0.015009468 0.57460433 0.62986505 -0.21115372 -0.42118227 0.557145
0.55051225 -0.44083422 0.041572 -0.48824555 -0.4726184 0.10100685 0.25419092 0.20036308
-0.15713435 0.6488972 0.08254836 -0.23969407 -0.032685995 0.22264132 0.2966404 -0.4082333
0.17930257 -0.29495767 -0.47974363 -0.315353 0.6394925 0.6090899 0.5839236 0.4007886
0.5412484 -0.07727818 -0.31767422 0.3712024 -0.179101 -0.38963398 -0.18436758 0.121162295
0.37673637 -0.22424805 -0.3398089 0.07788055 -0.3403094 -0.37589046 0.4074289 -0.01305228
0.6320198 0.63054985 0.24252556 0.28426912 0.13295437 0.009041814 0.048367247 0.14346687
0.23737888 0.5674209 -0.14962557 -0.19895694 -0.034565046 -0.24888203 0.17507924 0.5002353
0.54487413 0.2996657 -0.42489025 -0.22190179 -0.12685044 -0.031559978 0.02636452 -0.5299911
00000000: fd70 203d 455b 193f 9a0e dbbe 5968 31be
00000010: 08e2 c43e 167a a9bd 9880 ffbd f768 76be
00000020: a441 de3e 6fcf b83e 5d15 633e 4b1e a6be
00000030: 8b09 d6be 6cc6 253e f466 7f3e a450 5dbe
00000040: 126b 25be 4a96 ca3e b008 e13d 652e cd3d
00000050: 0c7f 11be 01d9 05bf bcf8 0abf 1f09 1cbe
00000060: f242 96be 4c31 383e ca1e edbd 5056 c6bd
00000070: bf96 163f 9aa7 443e e271 033f f81a 8fbe
00000080: f1ec 81be d94a 593e 02f4 c4be b23c c1be
00000090: d170 e4bc 9af4 fbbd f599 ddbe 10b7 fd3e
000000a0: d6ea ff3e a6d0 bf3d b5df cdbd da2a e6be
000000b0: b89d e4bd 4183 163e ca35 af3e 3095 1f3d
000000c0: ef03 4abe ee39 c83e 1d6b ebbe c910 e33e
000000d0: d04d 3abe 2253 253d e4a9 e9bd e153 7c3d
000000e0: 66a9 32be 37f5 ef3e 46ea 75bc 4519 133f
000000f0: d63e 213f ae38 58be 34a5 d7be 0ea1 0e3f
00000100: 5fee 0c3f 06b5 e1be 6747 2a3d 52fb f9be
00000110: 0afb f1be aedc ce3d 5025 823e fb2b 4d3e
00000120: d4e7 20be 201e 263f 1d0f a93d 5d72 75be
00000130: c0e1 05bd 16fc 633e 40e1 973e f503 d1be
00000140: 189b 373e b104 97be f5a0 f5be f375 a1be
00000150: c8b5 233f 51ed 1b3f 047c 153f 2a34 cd3e
00000160: 418f 0a3f 0644 9ebd 32a6 a2be 3e0e be3e
00000170: 4166 37be 1b7e c7be dbca 3cbe f023 f83d
00000180: 97e3 c03e 48a1 65be 6ffb adbe d67f 9f3d
00000190: 093d aebe b774 c0be 859a d03e 3bd9 55bc
000001a0: 0dcc 213f b76b 213f 9f58 783e b98b 913e
000001b0: 3125 083e 1e24 143c bc1c 463d fbe8 123e
000001c0: 7313 733e 7f42 113f 7237 19be 5ebb 4bbe
000001d0: 1494 0dbd eeda 7ebe f947 333e 6c0f 003f
000001e0: df7c 0b3f c86d 993e 378b d9be 393a 63be
000001f0: 15e5 01be 0945 01bd 68fa d73c 7fad 07bf

fc2.weight f4 [128, 128]
0.027510406 -0.067429006 -0.055927254 -0.073484525 0.077014506 -0.083698444 0.06667723 -0.0029713423
-0.010279458 0.05528501 -0.008169523 0.055433113 0.063906096 -0.076739654 0.03401042 0.016685864
0.01900453 0.012903943 0.02417695 -0.042520702 -0.011308505 0.08397953 0.059383664 -0.0033206132
-0.08313197 0.0038738642 -0.060190123 0.07187665 -0.05365945 -0.006381781 -0.019617144 0.015729045
0.083175875 0.008398592 0.051191352 0.06860895 0.0713569 -0.030525044 -0.019768642 0.04259768
-0.024118323 0.041389078 -0.01931 -0.059949603 0.03597789 0.013551529 0.039407797 0.08781259
0.060345635 0.08379048 0.004730794 -0.076032765 -0.06200683 -0.05490452 -0.07789209 -0.044304438
-0.08136746 -0.08154844 -0.05281686 -0.087136224 -0.05425387 0.03370324 0.073720545 -0.026292248
-0.025710294 0.04719525 -0.043608237 -0.04179289 0.05445867 -0.07701291 0.010807663 0.07808067
0.015157408 0.024036663 -0.05147659 -0.0012194559 0.004859985 0.02169353 0.034342937 0.076803096
-0.06746678 0.0026494667 -0.044162024 -0.06992083 -0.007077931 -0.07780268 0.06168616 0.010236679
-0.04763761 0.0461899 -0.083653204 -0.034188543 -0.017219706 -0.07510802 -0.05620512 -0.0144266235
0.06706595 0.085352585 0.056238182 -0.052778803 -0.057825528 0.077135906 0.0312645 0.002348275
0.011961781 -0.07103743 -0.02951158 0.08508422 -0.021799413 -0.004433922 -0.073391594 -0.04944507
-0.0018048545 -0.054903254 -0.0109610045 0.03597045 -0.08645947 0.026252408 -0.058443096 -0.043138027
0.033933144 0.07027936 -0.024157299 -0.03628952 -0.07992391 -0.04557813 -0.0773961 -0.020229487
0.015673352 -0.08521976 0.07717306 0.053356055 -0.08890739 -0.04451287 0.029799117 -0.018160233
-0.011729654 -0.04212751 0.07099525 -0.049408928 0.07662037 0.003385399 0.015428146 0.06745867
-0.014563358 -0.050323315 -0.016612714 0.06937154 -0.065583035 0.020062426 -0.08686731 0.04413735
0.032656644 0.0037469813 0.035558555 -0.0018383572 0.04654642 -0.06997003 -0.01539596 0.03921036
0.0880186 0.045024265 -0.064273745 0.0679792 -0.019710448 -0.018872188 -0.080337025 -0.015340472
0.060183536 0.012325298 -0.05148214 0.027207002 -0.03040352 0.080698036 -0.079064064 -0.030140229
-0.08534545 -0.037171923 0.02786422 0.08281684 0.0076467614 0.084397964 0.017293368 0.05104745
0.0708576 0.071596414 -0.049473055 0.07893283 0.051213015 -0.042739414 -0.042179216 -0.0764962
0.019845499 -0.07164311 0.03506853 0.027912835 -0.07679199 0.024085902 -0.009549853 0.042491723
0.050716314 -0.09002125 0.08106086 0.07154409 0.03516828 -0.083194144 -0.03398442 -0.025615728
-0.022715623 0.04984423 0.0321354 0.0700194 -0.035443038 0.027484551 0.029093865 -0.07588129
-0.08806792 -0.045863748 0.060506035 -0.08556596 -0.07693621 0.049515203 0.047688074 0.07268993
-0.06914787 -0.06469141 0.045342043 0.076865174 0.05288618 0.0138462195 0.026858825 0.081595056
-0.059298743 -0.0424711 0.059538785 -0.06280515 -0.048738446 0.064522706 0.025221365 0.026433742
-0.039745025 -0.0035040732 0.08089591 -0.055266008 0.00069492776 0.03961296 -0.06284196 0.08343856
-0.046298645 -0.023548268 -0.02391526 -0.05990442 -0.08673236 0.04983791 0.023482496 -0.08278459
00000000: 815d e13c 3818 8abd fa13 65bd 0e7f 96bd
00000010: c8b9 9d3d 176a abbd 128e 883d daba 42bb
00000020: 2c6b 28bc 8972 623d 77d9 05bc d50d 633d
00000030: 33e1 823d ae29 9dbd 834e 0b3d cbb0 883c
00000040: 63af 9b3c 0f6b 533c bd0e c63c 302a 2ebd
00000050: 4f47 39bc 76fd ab3d 493c 733d a59e 59bb
00000060: 1841 aabd a8e0 7d3b eb89 76bd 1134 933d
00000070: 03ca 5bbd 421e d1bb 22b4 a0bc 33da 803c
00000080: 1d58 aa3d 3f9a 093c 06ae 513d d982 8c3d
00000090: 9123 923d a80f fabc d9f1 a1bc e87a 2e3d
000000a0: ca93 c5bc 9887 293d 0130 9ebc b78d 75bd
000000b0: 8d5d 133d 3b07 5e3c 126a 213d 16d7 b33d
000000c0: fc2c 773d 589a ab3d c704 9b3b 11b7 9bbd
000000d0: e0fa 7dbd 90e3 60bd e385 9fbd 9278 35bd
000000e0: fca3 a6bd de02 a7bd 7e56 58bd 7a74 b2bd
000000f0: 4e39 5ebd 690c 0a3d ccfa 963d d762 d7bc
00000100: 659e d2bc ce4f 413d 8d9e 32bd 052f 2bbd
00000110: 0e10 5f3d f2b8 9dbd a012 313c c2e8 9f3d
00000120: c756 783c 89e8 c43c 1ed9 52bd 26d6 9fba
00000130: 8240 9f3b a1b6 b13c 2eab 0c3d f14a 9d3d
00000140: 062c 8abd ada2 2d3b 3de3 34bd a732 8fbd
00000150: fded e7bb 0357 9fbd a0aa 7c3d beb7 273c
00000160: a81f 43bd 9f31 3d3d 5f52 abbd 4909 0cbd
00000170: 5710 8dbc 3cd2 99bd 5737 66bd a55d 6cbc
00000180: df59 893d 56cd ae3d 025a 663d 962e 58bd
00000190: 76da 6cbd 6ef9 9d3d 340f 003d 84e5 193b
000001a0: 59fb 433c 127c 91bd 45c2 f1bc a340 ae3d
000001b0: af94 b2bc 6f4a 91bb 554e 96bd ea86 4abd
000001c0: de90 ecba 3ce2 60bd c995 33bc c055 133d
000001d0: aa11 b1bd 4a0f d73c 0762 6fbd 80b1 30bd
000001e0: 7bfd 0a3d a0ee 8f3d 87e5 c5bc 52a4 14bd
000001f0: 26af a3bd 22b0 3abd d981 9ebd 4fb8 a5bc
00000200: 6765 803c b387 aebd e90c 9e3d e18b 5a3d
00000210: 1415 b6bd 2153 36bd 471d f43c c5c4 94bc
00000220: bc2d 40bc e58d 2cbd f565 913d 0461 4abd
00000230: 24eb 9c3d 92dd 5d3b 56c6 7c3c c527 8a3d
00000240: 279b 6ebc d21f 4ebd 6317 88bc aa12 8e3d
00000250: 6650 86bd f559 a43c 7de7 b1bd 5ec9 343d
00000260: f9c2 053d ea8f 753b d9a5 113d 08f5 f0ba
00000270: 75a7 3e3d 724c 8fbd 563f 7cbc 0b9b 203d
00000280: 1943 b43d 5d6b 383d f4a1 83bd ae38 8b3d
00000290: ce77 a1bc d999 9abc bd87 a4bd 9a56 7bbc
000002a0: 0383 763d 0cf0 493c f0de 52bd 38e1 de3c
000002b0: ce10 f9bc 0345 a53d 57ec a1bd a4e8 f6bc
000002c0: 98c9 aebd 9641 18bd 8143 e43c e09b a93d
000002d0: af91 fa3b d7d8 ac3d d2aa 8d3c 2217 513d
000002e0: ca1d 913d 24a1 923d 42a4 4abd 89a7 a13d
000002f0: bdc4 513d 860f 2fbd 1dc4 2cbd 0aaa 9cbd
00000300: 0793 a23c 9fb9 92bd 05a4 0f3d 75a9 e43c
00000310: 1e45 9dbd cc4f c53c fd76 1cbc cd0b 2e3d
00000320: e9bb 4f3d 105d b8bd 3c03 a63d b585 923d
00000330: 9d0c 103d b161 aabd 3f33 0bbd 13d8 d1bc
00000340: 1d16 babc 7729 4c3d 69a0 033d 5566 8f3d
00000350: b82c 11bd 4827 e13c 4256 ee3c a667 9bbd
00000360: f45c b4bd a0db 3bbd 2dd5 773d 353d afbd
00000370: bb90 9dbd 74d0 4a3d 9254 433d 75de 943d
00000380: 669d 8dbd ee7c 84bd 94b8 393d 7d6b 9d3d
00000390: 2e9f 583d 41db 623c 0a07 dc3c 4f1b a73d
000003a0: 3de3 72bd 2df6 2dbd f1de 733d fd9f 80bd
000003b0: f7a1 47bd 7b24 843d 099d ce3c 938b d83c
000003c0: aecb 22bd 98a4 65bb c1ac a53d 9c5e 62bd
000003d0: d02b 363a 3341 223d 49b3 80bd d6e1 aa3d
000003e0: a6a3 3dbd 4ce8 c0bc efe9 c3bc 565e 75bd
000003f0: bca0 b1bd d622 4c3d 5d5e c03c f88a a9bd

fc2.bias f4 [128]
-0.07533685 0.07579703 -0.07831675 -0.037633248 -0.022633258 -0.016767135 -0.019278921 0.059845854
0.06613344 -0.088699825 -0.08200573 -0.08649869 0.11424704 -0.01072023 -0.04375122 0.03083386
0.011552198 0.017832873 0.109903604 0.06419995 0.09684894 -0.058925856 -0.00467182 -0.06596574
-0.03189178 -0.013292822 0.049564335 0.062084418 -0.049831904 -0.02715209 0.033349916 0.13112901
0.18170358 -0.088139884 0.020686263 0.046060145 0.047709838 -0.08603999 -0.065988496 0.051806994
-0.009771074 0.035085846 0.07208937 -0.010915041 -0.025970887 0.048189472 -0.06914219 -0.009625188
-0.013389885 -0.021147339 0.040146157 -0.022821601 0.0029463286 0.025106646 -0.0040933425 -0.028420158
0.084797315 0.049257413 -0.018862408 0.030579813 -0.03866909 0.04431404 0.04333657 -0.03740624
0.060397863 -0.0104141915 0.082556225 -0.028122125 -0.00066410203 -0.01847154 0.00957029 -0.0840654
0.08439261 -0.069114484 -0.08212858 -0.09457395 -0.023067972 0.060439844 0.009230202 -0.0059784814
-0.04673021 -0.012735157 -0.026775131 -0.06988752 -0.019474778 0.026532108 0.045752022 -0.08028587
0.07476593 0.19258624 -0.040100697 -0.07528576 0.012905976 0.019941865 -0.023632044 -0.040604938
-0.003311038 -0.060844842 -0.059810735 0.028275814 0.009995272 0.020160977 0.06874456 -0.000860449
0.0777989 0.11064194 -0.061336383 0.050950192 0.048246395 -0.033755757 0.15168709 -0.04052313
-0.056935616 0.0578151 0.041002415 0.08418323 -0.06982051 0.04020818 0.02170179 -0.052765884
-0.01189094 0.07064772 0.03732251 -0.040640857 -0.00094590173 -0.031240739 0.058341194 0.10794975
00000000: 354a 9abd 793b 9b3d 8864 a0bd 5225 1abd
00000010: 6269 b9bc 3b5b 89bc d4ee 9dbc ed20 753d
00000020: f870 873d 41a8 b5bd 9ff2 a7bd 3a26 b1bd
00000030: 5afa e93d e7a3 2fbc 7b34 33bd 4b97 fc3c
00000040: 6e45 3d3c 3f16 923c 2415 e13d 437b 833d
00000050: bd58 c63d 3d5c 71bd 1116 99bb 0c19 87bd
00000060: f5a0 02bd 23ca 59bc f903 4b3d 3b4c 7e3d
00000070: 8a1c 4cbd 0f6e debc ec99 083d af46 063e
00000080: 8110 3a3e af82 b4bd 3d76 a93c 90a9 3c3d
00000090: 646b 433d bc35 b0bd fa24 87bd 9233 543d
000000a0: db16 20bc 2db6 0f3d 97a3 933d 00d5 32bc
000000b0: e6c0 d4bc 5362 453d 6c9a 8dbd f7b2 1dbc
000000c0: 4061 5bbc 2f3d adbc 4c70 243d 5ef4 babc
000000d0: 3117 413b 74ac cd3c 7221 86bb 64d1 e8bc
000000e0: 37aa ad3d 24c2 493d 5685 9abc 8482 fa3c
000000f0: 7b63 1ebd a482 353d b081 313d 4937 19bd
00000100: c063 773d 49a0 2abc 3d13 a93d 5f60 e6bc
00000110: 2217 2eba a151 97bc b5cc 1c3c 7b2a acbd
00000120: 08d6 ac3d e58b 8dbd 0733 a8bd fdaf c1bd
00000130: 0bf9 bcbc c58f 773d 463a 173c 23e7 c3bb
00000140: 2d68 3fbd 1fa7 50bc 8557 dbbc 3021 8fbd
00000150: 9289 9fbc dd59 d93c 7966 3b3d eb6c a4bd
00000160: e11e 993d 5435 453e a140 24bd 6c2f 9abd
00000170: 9673 533c 1f5d a33c fd97 c1bc 5d51 26bd
00000180: 00fe 58bb 7138 79bd 1afc 74bd aea2 e73c
00000190: 36c3 233c a228 a53c f3c9 8c3d c18f 61ba
000001a0: 0855 9f3d 3e98 e23d dc3b 7bbd 26b1 503d
000001b0: 039e 453d 7a43 0abd dc53 1b3e 95fb 25bd
000001c0: 5235 69bd 87cf 6c3d 26f2 273d 4268 ac3d
000001d0: 0efe 8ebd 55b1 243d f4c7 b13c 0a21 58bd
000001e0: 38d2 42bc c0af 903d 7ddf 183d 0777 26bd
000001f0: 64f6 77ba 94ec ffbc 2df7 6e3d c214 dd3d

fc3.weight f4 [13, 128]
-0.013088546 -0.020477569 -0.06854308 -0.019561132 0.03963424 -0.08511509 0.033474546 0.084258415
0.038044695 0.04686049 -0.023922373 -0.007454576 -0.13295989 -0.042775195 0.022208396 -0.049210798
0.05211561 -0.042223793 0.0055698412 -0.04650902 -0.14983672 -0.033895127 -0.060112815 0.017234188
0.013918838 0.06560607 0.0461577 -0.08494684 0.034105312 0.042208176 -0.09393055 -0.14826408
-0.17154999 -0.043867957 -0.007132581 0.0868762 0.074382834 -0.022672985 0.006572604 0.003900322
0.008702645 -0.059951108 0.010837219 0.062256813 0.014470783 0.08073356 0.082090914 -0.14384161
0.07846915 -0.06977805 -0.041866727 0.05453242 0.0033685514 0.076331325 0.041111704 -0.018829526
0.032308314 -0.06343316 0.009113733 -0.04684079 0.06631421 0.09750329 0.034717534 -0.049415514
0.0064446023 0.060850978 -0.083545625 -0.017509647 0.0347704 -0.007686089 0.031944077 0.00024704376
-0.0909775 0.012831144 -0.00058892847 -0.06400682 -0.06571467 0.006194621 -0.03441901 -0.0026798025
0.06531317 -0.04662098 0.04825727 0.061628148 0.048295982 -0.115300484 0.013249811 -0.06517506
-0.055957932 -0.107571885 0.076476894 0.049477734 0.02477318 0.05124473 -0.08441681 -0.08430339
0.036712427 -0.021043694 0.028885663 -0.06273128 0.08368598 -0.07285722 0.039042477 0.046565723
-0.16453929 0.020078704 0.04005132 -0.032620024 -0.030757867 0.06764269 -0.10447907 0.0058115865
0.041207284 0.03568168 -0.044259164 -0.0039291475 0.02680488 0.034328498 -0.041070703 0.039845597
-0.019164242 0.0026833022 0.045321696 0.06393893 -0.012001378 0.057446335 0.067997575 -0.009810413
-0.0055750795 -0.06780386 -0.05928507 0.05091182 -0.05603643 -0.052045885 0.057255775 -0.049047552
-0.068367995 0.014293975 0.03814747 -0.08012215 -0.03555401 -0.06816221 0.03729152 -0.013362137
0.02974202 0.09387356 -0.047700413 -0.037104227 -0.030324155 0.02652926 -0.039499603 -0.06084293
-0.026911225 0.0347989 0.03735001 -0.10758563 0.07475791 -0.060037937 -0.025007196 -0.096049145
-0.12629479 0.07328248 -0.06779424 0.046472218 0.027778007 -0.045630418 0.07593907 -0.048078924
-0.0004963132 0.08368899 -0.08323623 0.07299489 -0.043618396 -0.07173933 0.049585957 -0.09007249
-0.07313574 -0.047446597 0.05909358 0.0809281 -0.006681048 0.045392122 0.0016212526 -0.066179916
-0.011226414 0.062937975 -0.015643138 -0.059013892 0.072553694 -0.018397529 0.07400541 0.050705224
0.015466443 0.02348162 -0.04680711 -0.03856241 -0.050175495 -0.034973558 -0.04944881 -0.01301305
-0.09527143 -0.028465634 -0.06018105 -0.084950335 0.020183701 0.03483774 -0.035847675 -0.06550433
-0.041274417 -0.11279235 -0.094751544 0.09172593 0.047853794 0.026800623 -0.09269988 -0.05844457
0.07617827 -0.1048159 -0.054625276 -0.07362588 0.026903091 -0.011795701 -0.053927884 0.075264335
-0.05205563 0.009567991 0.030705797 0.042296205 0.07398386 -0.020525131 0.039557084 -0.0070143207
-0.05482302 -0.107852615 0.048700653 0.025890261 0.024665974 -0.0067734094 -0.025261655 -0.08537304
0.065167256 0.063782275 0.047356863 -0.054597467 -0.08247585 -0.025469389 -0.07101059 -0.042347815
0.062238034 -0.04928722 0.08805801 -0.044556025 -0.041166198 -0.070840314 0.03366469 -0.014970596
00000000: 5771 56bc 93c0 a7bc 5060 8cbd ab3e a0bc
00000010: 8357 223d d250 aebd 9b1c 093d ad8f ac3d
00000020: c1d4 1b3d c9f0 3f3d daf8 c3bc 8445 f4bb
00000030: a326 08be 0b35 2fbd 62ee b53c 4391 49bd
00000040: 2e77 553d dbf2 2cbd 3783 b63b 3e80 3ebd
00000050: cc6e 19be 9ed5 0abd db38 76bd b62e 8d3c
00000060: d70b 643c 7a5c 863d db0f 3d3d 9cf8 adbd
00000070: 03b2 0b3d 7be2 2c3d a95e c0bd 8ad2 17be
00000080: cdaa 2fbe e3ae 33bd 6db8 e9bb 26ec b13d
00000090: 0756 983d b2bc b9bc 005f d73b 8b9c 7f3b
000000a0: 8a95 0e3c 4b8f 75bd 978e 313c 0001 7f3d
000000b0: dd16 6d3c a357 a53d 481f a83d 374b 13be
000000c0: 6fb4 a03d cbe7 8ebd 727c 2bbd 635d 5f3d
000000d0: eac2 5c3b 9953 9c3d bf64 283d 6140 9abc
000000e0: b955 043d 3fe9 81bd c451 153c 21dc 3fbd
000000f0: bfcf 873d ceaf c73d f933 0e3d ec67 4abd
00000100: 3e2d d33b e03e 793d f819 abbd 6470 8fbc
00000110: 686b 0e3d 96db fbbb cbd7 023d a785 8139
00000120: 6952 babd b839 523c 5262 1aba 0216 83bd
00000130: 6a95 86bd 3ffc ca3b f3fa 0cbd a09f 2fbb
00000140: e9c2 853d a4f5 3ebd 6aa9 453d cc6d 7c3d
00000150: 02d2 453d a922 ecbd bc15 593c 807a 85bd
00000160: 2534 65bd a64e dcbd eb9f 9c3d 2aa9 4a3d
00000170: 20f1 ca3c fee5 513d b8e2 acbd 41a7 acbd
00000180: c55f 163d d363 acbc a0a1 ec3c 4279 80bd
00000190: 8e63 ab3d 2b36 95bd 01eb 1f3d b3bb 3e3d
000001a0: fd7c 28be 187c a43c da0c 243d 939c 05bd
000001b0: ecf7 fbbc 4088 8a3d 1ff9 d5bd 1f6f be3b
000001c0: f8c8 283d f426 123d 1949 35bd 14c0 80bb
000001d0: e895 db3c 0a9c 0c3d c139 28bd 2335 233d
000001e0: 54fe 9cbc 57da 2f3b 3ea3 393d 6af2 823d
000001f0: 6ea1 44bc d94c 6b3d 5042 8b3d dbbb 20bc
00000200: 28af b6bb c0dc 8abd e7d4 72bd ea88 503d
00000210: 7586 65bd 112e 55bd 0885 6a3d 16e6 48bd
00000220: 8504 8cbd 4731 6a3c 8640 1c3d 1517 a4bd
00000230: 15a1 11bd a198 8bbd febe 183d ddec 5abc
00000240: 89a5 f33c c840 c03d 8261 43bd 9afa 17bd
00000250: 5d6a f8bc e453 d93c 56ca 21bd 7036 79bd
00000260: ee74 dcbc 4b89 0e3d 53fc 183d db55 dcbd
00000270: ad1a 993d 57ea 75bd e4db ccbc 6ab5 c4bd
00000280: 6c53 01be 2015 963d b5d7 8abd a759 3e3d
00000290: b48e e33c f6e6 3abd f185 9b3d 68ee 44bd
000002a0: 041b 02ba 2265 ab3d c277 aabd 587e 953d
000002b0: 34a9 32bd 12ec 92bd a51a 4b3d ed77 b8bd
000002c0: 31c8 95bd 5d57 42bd 1c0c 723d a2bd a53d
000002d0: b1ec dabb 17ed 393d 3680 d43a 5689 87bd
000002e0: feee 37bc a0e5 803d 0a26 80bc 8db8 71bd
000002f0: 0897 943d 6ab6 96bc 2690 973d 48b0 4f3d
00000300: f766 7d3c 875c c03c d0b8 3fbd 9ef3 1dbd
00000310: d284 4dbd 6f40 0fbd d68a 4abd b034 55bc
00000320: ab1d c3bd c330 e9bc 6880 76bd 71fa adbd
00000330: 4a58 a53c 05b2 0e3d 03d5 12bd 2227 86bd
00000340: 5d0f 29bd adff e6bd 190d c2bd ceda bb3d
00000350: 5702 443d fb8c db3c 6fd9 bdbd 9363 6fbd
00000360: 5a03 9c3d b8a9 d6bd c1be 5fbd 2ac9 96bd
00000370: df63 dc3c c242 41bc 7ce3 5cbd 3024 9a3d
00000380: 4938 55bd 10c3 1c3c b98a fb3c c93e 2d3d
00000390: da84 973d 5224 a8bc 9c06 223d 63d8 e5bb
000003a0: 1a8e 60bd d5e1 dcbd 567a 473d d017 d43c
000003b0: 4c10 ca3c 7af3 ddbb 88f1 cebc 0fd8 aebd
000003c0: 6976 853d 48a0 823d 45f9 413d 98a1 5fbd
000003d0: 19e9 a8bd 2ea5 d0bc 006e 91bd e774 2dbd
000003e0: 4fed 7e3d 65e1 49bd c257 b43d 6180 36bd
000003f0: e39d 28bd ba14 91bd fce3 093d 3b47 75bc

fc3.bias f4 [13]
0.041688602 -0.0687418 -0.0110121025 0.029170085 0.017873151 -0.07887913 -0.07514991 -0.10596375
0.022481674 -0.06131025 -0.015810186 0.04246372 0.02722267
00000000: abc1 2a3d 80c8 8cbd 1b6c 34bc 1af6 ee3c
00000010: b76a 923c 628b a1bd 32e8 99bd 8603 d9bd
00000020: 7d2b b83c 7520 7bbd 5d84 81bc 70ee 2d3d
00000030: 1402 df3c
