models/model_episode_900.pth (torch, 77420 bytes, 6 tensors)

fc1.weight f4 [128, 3]
00000000: 4885 d63e db22 f73e 84a9 23be 7a33 013f
00000010: c46d babd e9d3 fd3d 3478 78be f062 bf3e
00000020: af52 0a3f f0f5 ecbe 5030 043f 311d 9c3d
00000030: 3bb7 c63e a278 ee3d 0d25 953e 3112 efbd
00000040: 2154 ed3e bbcc 3e3d 19c7 8dbe 25fa 0f3e
00000050: fe31 88be 3caa 8abd 9e1f 70be 3c18 c43e
00000060: 3155 d7be c1a2 63be b0f7 22be 4feb bfbe
00000070: 303b f23d 674d 09bf 362b 0b3f a48d f6be
00000080: c9c9 dd3e b6c6 c43d adf7 3fbe 07ab b63e
00000090: 8d23 8a3d f1d0 e93e 63e1 7b3d 6393 36be
000000a0: 7511 623e 0c77 f1bd 836a 723e f6b5 103f
000000b0: 5f69 ab3e 73b8 8fbe 199a ba3e 92fe 023e
000000c0: 231e 963e f62b b4be 644f 12bf 3ab5 75be
000000d0: 3103 e4be 4392 f83e c554 1e3e 8b74 8c3e
000000e0: 96fe 343e ad28 48bc 8107 033f 4848 d9be
000000f0: f7e5 143d dbc2 c9be bd4c 363e e299 4bbe
00000100: c527 353e 8358 f6bd c62b f53e 6534 afbe
00000110: 184c b0be 1a02 a4be cea2 1f3f 03fd 653e
00000120: e638 0e3f 54f4 f3be d799 12bf f344 e7be
00000130: 61d9 c6be 6276 6f3e 2dcf 453e b866 013f
00000140: 9c63 9ebe 5144 97be 8f81 d93e 0546 49be
00000150: 3549 9c3e 4fc2 0dbe 40c2 9d3e ed4f eabe
00000160: b0c2 99be 0af8 2a3e e8b4 f63d ec58 a8bd
00000170: d89c b53e 31f4 c83e 195d d6be 2fd0 9dbe
00000180: 109c 053f ae3e 50be e378 54be 1903 0fbf
00000190: 8148 a9be 83af 133e 0c12 9cbd 0693 d6be
000001a0: 51e2 5d3c d2eb c9be f4c9 fabe 18c7 a2be
000001b0: 995b 01bf ce38 bcbe 6dbe 133f a078 db3d
000001c0: cf08 803e 30da 09bf 0025 c2be 5dc9 44be
000001d0: 32e5 b83d bab2 c6be 4833 03be e9d2 a0be
000001e0: 0162 7abc 0539 4dbe aa3d 56bd 424f c8be
000001f0: 94e6 cabe 9d74 acbe 585e 4abe 6650 e9be
00000200: c0da f73e cd3c efbd c7cc 0f3f a5a4 653e
00000210: 4c8a d6be 4814 f33e 42a8 15be fb9f 62be
00000220: 215f f5be 48f0 12bf 7539 093e cea7 bbbd
00000230: bbe1 6f3e 0ffb d4be d44c ff3e 52ec d3be
00000240: 4cbe ddbd 5231 173e baa8 ac3e 1c82 e63e
00000250: 7f65 133f a378 e4be 91c9 143e 184b 7ebe
00000260: 1593 81bd 3519 e1be 6ba3 133f 1e61 dabe
00000270: 61d7 8a3e 3b81 523e 6531 453e 19ec b3be
00000280: 1e45 073f c46b eb3d 101b 983d 3d40 02bf
00000290: 872e 783e 5fe9 b7bd 6306 8abe 1b66 013f
000002a0: 0ecf 033e e48c a3be c99d 95be 6d20 a4bd
000002b0: 6f7d b73e c31e f8bd f1a9 a8be 5b74 4abe
000002c0: 7bd6 dcbe 86f8 6e3e fea2 0b3f 6bea 03bf
000002d0: e684 093e 0f81 b83e e053 f83d 46af 63be
000002e0: 78fe a53e b636 9c3e 7a11 5d3e 7cc6 cfbd
000002f0: 628d 1cbe 4c36 6a3d 496e 00bd f2b5 09be
00000300: 9ef8 be3e eb37 113f d1bd 5cbc 8c5e 04be
00000310: 6f08 0a3c 1b33 0dbd 162e 0e3e f0e6 703e
00000320: aff6 06bf 7149 52be 4772 083f c41c 8c3e
00000330: d13d ebbc 9038 b2be 04da b4be 3ba3 06bf
00000340: 02ad 4bbe 96e5 3c3e 3c61 c23e f982 aa3e
00000350: 750a f7be c028 a7be f2a0 b2bc 2b1f 163f
00000360: 820b ab3d f01a 19be 5997 743e 21ca 4ebe
00000370: 2f58 94be 387c e23e 4f69 86be d908 edbd
00000380: a208 13bf 7dab c43e 2262 023f f077 653e
00000390: d81d cebe 12df 11bf 3315 f0be f287 dc3e
000003a0: f4ba b03e 4b4f fb3e 8517 983e dcf6 553e
000003b0: f2ab 4bbb e1ce e0be c443 fdbe ff3e 0abf
000003c0: ae47 663e 3b6b a0be 4e9c f1bd 0c1f aabe
000003d0: ac76 d7bd 520e d0be e026 c1be 121c 443e
000003e0: 59b4 2fbe 1c7d b63e 0eaa 3dbe 4dd8 d8be
000003f0: 93d4 ecbd fc78 6abe 523c 43be b097 0abf
0.4189856 0.4826878 -0.15982634 0.5046917 -0.091029674 0.12393934 -0.24264604 0.3738017
0.54032415 -0.46281385 0.5163622 0.07622755 0.3881167 0.11644103 0.2912983 -0.116733916
0.46353248 0.046581965 -0.27690962 0.14060266 -0.2660064 -0.06770751 -0.23449561 0.3829974
-0.42057183 -0.22230054 -0.15914798 -0.37484214 0.11827695 -0.5363373 0.5436281 -0.48154938
0.43318012 0.096082136 -0.18746825 0.35677359 0.06745062 0.45667222 0.061494242 -0.17829661
0.22076972 -0.117902845 0.23673443 0.5652765 0.3347883 -0.2807041 0.36445692 0.12792423
0.29319867 -0.3518979 -0.5715239 -0.23994914 -0.44533685 0.4854909 0.15462025 0.27432665
0.17675242 -0.012216729 0.51183325 -0.4243796 0.036352124 -0.39406475 0.17802711 -0.1988292
0.17690952 -0.12028601 0.4788496 -0.3421966 -0.34433055 -0.32032853 0.62357795 0.22459798
0.5555557 -0.47647345 -0.5726599 -0.45169792 -0.38837722 0.23385003 0.19317313 0.5054736
-0.3093537 -0.2954431 0.42481658 -0.19655617 0.30524603 -0.13843654 0.30812263 -0.45764104
-0.30031347 0.16696182 0.12046224 -0.082200855 0.35471225 0.39248803 -0.41867903 -0.30822894
0.5219126 -0.2033641 -0.2074924 -0.558641 -0.3306313 0.14422421 -0.0762063 -0.41909045
0.013542728 -0.3943773 -0.48982203 -0.3179252 -0.5053039 -0.3676209 0.5771244 0.10716367
0.2500672 -0.5384855 -0.37918854 -0.19217439 0.090280905 -0.38808233 -0.12812531 -0.31410912
-0.015282155 -0.20041282 -0.0523049 -0.3912297 -0.39629042 -0.3368272 -0.19762552 -0.45569152
0.4840908 -0.11681519 0.5617184 0.22426088 -0.41902387 0.4747641 -0.14614967 -0.2213134
-0.4792414 -0.5739789 0.13400824 -0.091628656 0.23425953 -0.41597793 0.49863303 -0.41391236
-0.10827312 0.14764908 0.33722478 0.4502114 0.57576746 -0.4462329 0.14530016 -0.24833333
-0.06326882 -0.43964544 0.5767123 -0.4265222 0.27117446 0.2055711 0.19257124 -0.35141066
0.5283984 0.11495164 0.07427037 -0.5087927 0.24236499 -0.08980059 -0.26957998 0.50546426
0.12871954 -0.3194343 -0.29221943 -0.08013997 0.35837886 -0.12115242 -0.32942155 -0.19770949
-0.43132386 0.23336992 0.5454558 -0.5152957 0.13429603 0.36035964 0.12125373 -0.2223483
0.32420707 0.3051049 0.21588698 -0.1014528 -0.15288308 0.057180688 -0.031355176 -0.13448313
0.37299055 0.5672595 -0.01347299 -0.12926692 0.008424862 -0.034472566 0.13884768 0.23525596
-0.5272016 -0.20535828 0.53299373 0.27365696 -0.028716 -0.3480878 -0.35322583 -0.5259282
-0.19890216 0.18446955 0.3796481 0.3330305 -0.48250166 -0.32648277 -0.02180526 0.5864131
0.08351804 -0.14951682 0.2388586 -0.20194294 -0.2897353 0.44235396 -0.2625222 -0.11573953
-0.5743505 0.38412085 0.5093099 0.22409034 -0.40257144 -0.56981003 -0.46891174 0.43072468
0.34517634 0.49083933 0.29705444 0.2089495 -0.003107783 -0.43907836 -0.49465764 -0.54002374
0.22488281 -0.3133181 -0.11797391 -0.33226812 -0.10520682 -0.40635926 -0.37724972 0.19151333
-0.17158641 0.35642326 -0.18521902 -0.42352524 -0.11563983 -0.22897714 -0.19065979 -0.54137707

fc1.bias f4 [128]
00000000: 6808 df3b 4e18 0e3f 5eab e9be 1deb 56be
00000010: 2af4 bb3e deba ebbd 9880 ffbd f768 76be
00000020: 7674 e13e dad5 ad3e b194 4b3e 4b1e a6be
00000030: 9008 f6be 315a fc3d bfb0 5c3e 557c 74be
00000040: 126b 25be eb67 c43e 458e 993d 3a1f a33d
00000050: 0c7f 11be 01d9 05bf bcf8 0abf 286e 35be
00000060: f242 96be 4c31 383e 50bd 17be 1bc5 dfbd
00000070: c579 0b3f 9aa7 443e df78 f13e f81a 8fbe
00000080: 5b2f 7abe d94a 593e 02f4 c4be b23c c1be
00000090: d170 e4bc fe3a 14be f599 ddbe 2cc7 ec3e
000000a0: aba5 f23e a6d0 bf3d b5df cdbd abff f2be
000000b0: 83d5 0abe 4183 163e f73c 9a3e 79c5 2ebb
000000c0: 12ca 53be 48d2 ba3e 1d6b ebbe 3f6f d13e
000000d0: 1097 66be bda8 ec3b e4a9 e9bd f397 813d
000000e0: 66a9 32be dbe8 e43e 46ea 75bc 4f2e 0b3f
000000f0: 7d91 1c3f e5b0 85be 34a5 d7be 4937 073f
00000100: 0795 043f 06b5 e1be a4b6 af3c 4632 06bf
00000110: 0afb f1be aedc ce3d 709d 5d3e 6ac5 403e
00000120: d4e7 20be 3188 1c3f 1d0f a93d 31ab 8cbe
00000130: c0e1 05bd 6f4a 4d3e 95e3 833e f503 d1be
00000140: 3bd7 403e b104 97be f5a0 f5be f375 a1be
00000150: 199b 193f 74eb 133f b6d2 0d3f 6ade bc3e
00000160: ed9c 033f 0644 9ebd 32a6 a2be 980f b33e
00000170: 9700 72be 1b7e c7be dbca 3cbe f023 f83d
00000180: a0b2 ab3e 48a1 65be 6ffb adbe d67f 9f3d
00000190: 093d aebe b774 c0be a28f bc3e acd5 5abd
000001a0: 1411 1b3f cf1e 1c3f cf7a 673e caf3 883e
000001b0: 3125 083e 1e24 143c 1caa 0d3d cb8c e23d
000001c0: f64c 5a3e 8275 0b3f 7237 19be a2d7 54be
000001d0: f14a a0bd d708 9abe 64f7 f03d 1001 ee3e
000001e0: 3a31 023f f8e6 933e 378b d9be 7b01 78be
000001f0: 15e5 01be 5649 eabd 53f0 5f3c 7fad 07bf
0.006806422 0.55505836 -0.45638555 -0.20988126 0.3670972 -0.115102515 -0.12475699 -0.24063478
0.44034165 0.33952218 0.1988094 -0.32444987 -0.48053408 0.1232189 0.21551798 -0.23875554
-0.16154125 0.38360533 0.07497839 0.0796494 -0.14208621 -0.52284247 -0.5428579 -0.17717803
-0.2934795 0.17987555 -0.1481831 -0.10926267 0.5448268 0.1920456 0.4716253 -0.27950263
-0.24432127 0.21219958 -0.38467413 -0.3774162 -0.027885826 -0.14475629 -0.43281522 0.46245706
0.4739202 0.093659684 -0.10052434 -0.47460684 -0.13558011 0.14698507 0.30124637 -0.0026667996
-0.20682552 0.36488557 -0.45980158 0.40905187 -0.22518563 0.0072222636 -0.11409357 0.0632781
-0.17447433 0.44708905 -0.015009468 0.54367536 0.611595 -0.26111522 -0.42118227 0.52818733
0.517899 -0.44083422 0.021449395 -0.5242046 -0.4726184 0.10100685 0.21642089 0.18825307
-0.15713435 0.6114531 0.08254836 -0.2747436 -0.032685995 0.20047925 0.2575957 -0.4082333
0.18832104 -0.29495767 -0.47974363 -0.315353 0.60002285 0.5778115 0.55399644 0.36888438
0.51411325 -0.07727818 -0.31767422 0.34972835 -0.23633038 -0.38963398 -0.18436758 0.121162295
0.33534718 -0.22424805 -0.3398089 0.07788055 -0.3403094 -0.37589046 0.36828333 -0.05342643
0.60572934 0.6098451 0.22605442 0.26748496 0.13295437 0.009041814 0.034586057 0.110620104
0.21318421 0.5447618 -0.14962557 -0.20785382 -0.07826794 -0.3008487 0.11765936 0.46485186
0.50856364 0.28887153 -0.42489025 -0.24219315 -0.12685044 -0.11439769 0.013668138 -0.5299911

fc2.weight f4 [128, 128]
00000000: 815d e13c 3818 8abd fa13 65bd 0e7f 96bd
00000010: c8b9 9d3d 176a abbd 128e 883d daba 42bb
00000020: 2c6b 28bc 8972 623d 77d9 05bc d50d 633d
00000030: 33e1 823d ae29 9dbd 834e 0b3d cbb0 883c
00000040: 63af 9b3c 0f6b 533c bd0e c63c 302a 2ebd
00000050: 4f47 39bc 76fd ab3d 493c 733d a59e 59bb
00000060: 1841 aabd a8e0 7d3b eb89 76bd 1134 933d
00000070: 03ca 5bbd 421e d1bb 22b4 a0bc 33da 803c
00000080: 1d58 aa3d 3f9a 093c 06ae 513d d982 8c3d
00000090: 9123 923d a80f fabc d9f1 a1bc e87a 2e3d
000000a0: ca93 c5bc 9887 293d 0130 9ebc b78d 75bd
000000b0: 8d5d 133d 3b07 5e3c 126a 213d 16d7 b33d
000000c0: fc2c 773d 589a ab3d c704 9b3b 11b7 9bbd
000000d0: e0fa 7dbd 90e3 60bd e385 9fbd 9278 35bd
000000e0: fca3 a6bd de02 a7bd 7e56 58bd 7a74 b2bd
000000f0: 4e39 5ebd 690c 0a3d ccfa 963d d762 d7bc
00000100: 659e d2bc ce4f 413d 8d9e 32bd 052f 2bbd
00000110: 0e10 5f3d f2b8 9dbd a012 313c c2e8 9f3d
00000120: c756 783c 89e8 c43c 1ed9 52bd 26d6 9fba
00000130: 8240 9f3b a1b6 b13c 2eab 0c3d f14a 9d3d
00000140: 062c 8abd ada2 2d3b 3de3 34bd a732 8fbd
00000150: fded e7bb 0357 9fbd a0aa 7c3d beb7 273c
00000160: a81f 43bd 9f31 3d3d 5f52 abbd 4909 0cbd
00000170: 5710 8dbc 3cd2 99bd 5737 66bd a55d 6cbc
00000180: df59 893d 56cd ae3d 025a 663d 962e 58bd
00000190: 76da 6cbd 6ef9 9d3d 340f 003d 84e5 193b
000001a0: 59fb 433c 127c 91bd 45c2 f1bc a340 ae3d
000001b0: af94 b2bc 6f4a 91bb 554e 96bd ea86 4abd
000001c0: de90 ecba 3ce2 60bd c995 33bc c055 133d
000001d0: aa11 b1bd 4a0f d73c 0762 6fbd 80b1 30bd
000001e0: 7bfd 0a3d a0ee 8f3d 87e5 c5bc 52a4 14bd
000001f0: 26af a3bd 22b0 3abd d981 9ebd 4fb8 a5bc
00000200: 6765 803c b387 aebd e90c 9e3d e18b 5a3d
00000210: 1415 b6bd 2153 36bd 471d f43c c5c4 94bc
00000220: bc2d 40bc e58d 2cbd f565 913d 0461 4abd
00000230: 24eb 9c3d 92dd 5d3b 56c6 7c3c c527 8a3d
00000240: 279b 6ebc d21f 4ebd 6317 88bc aa12 8e3d
00000250: 6650 86bd f559 a43c 7de7 b1bd 5ec9 343d
00000260: f9c2 053d ea8f 753b d9a5 113d 08f5 f0ba
00000270: 75a7 3e3d 724c 8fbd 563f 7cbc 0b9b 203d
00000280: 1943 b43d 5d6b 383d f4a1 83bd ae38 8b3d
00000290: ce77 a1bc d999 9abc bd87 a4bd 9a56 7bbc
000002a0: 0383 763d 0cf0 493c f0de 52bd 38e1 de3c
000002b0: ce10 f9bc 0345 a53d 57ec a1bd a4e8 f6bc
000002c0: 98c9 aebd 9641 18bd 8143 e43c e09b a93d
000002d0: af91 fa3b d7d8 ac3d d2aa 8d3c 2217 513d
000002e0: ca1d 913d 24a1 923d 42a4 4abd 89a7 a13d
000002f0: bdc4 513d 860f 2fbd 1dc4 2cbd 0aaa 9cbd
00000300: 0793 a23c 9fb9 92bd 05a4 0f3d 75a9 e43c
00000310: 1e45 9dbd cc4f c53c fd76 1cbc cd0b 2e3d
00000320: e9bb 4f3d 105d b8bd 3c03 a63d b585 923d
00000330: 9d0c 103d b161 aabd 3f33 0bbd 13d8 d1bc
00000340: 1d16 babc 7729 4c3d 69a0 033d 5566 8f3d
00000350: b82c 11bd 4827 e13c 4256 ee3c a667 9bbd
00000360: f45c b4bd a0db 3bbd 2dd5 773d 353d afbd
00000370: bb90 9dbd 74d0 4a3d 9254 433d 75de 943d
00000380: 669d 8dbd ee7c 84bd 94b8 393d 7d6b 9d3d
00000390: 2e9f 583d 41db 623c 0a07 dc3c 4f1b a73d
000003a0: 3de3 72bd 2df6 2dbd f1de 733d fd9f 80bd
000003b0: f7a1 47bd 7b24 843d 099d ce3c 938b d83c
000003c0: aecb 22bd 98a4 65bb c1ac a53d 9c5e 62bd
000003d0: d02b 363a 3341 223d 49b3 80bd d6e1 aa3d
000003e0: a6a3 3dbd 4ce8 c0bc efe9 c3bc 565e 75bd
000003f0: bca0 b1bd d622 4c3d 5d5e c03c f88a a9bd
0.027510406 -0.067429006 -0.055927254 -0.073484525 0.077014506 -0.083698444 0.06667723 -0.0029713423
-0.010279458 0.05528501 -0.008169523 0.055433113 0.063906096 -0.076739654 0.03401042 0.016685864
0.01900453 0.012903943 0.02417695 -0.042520702 -0.011308505 0.08397953 0.059383664 -0.0033206132
-0.08313197 0.0038738642 -0.060190123 0.07187665 -0.05365945 -0.006381781 -0.019617144 0.015729045
0.083175875 0.008398592 0.051191352 0.06860895 0.0713569 -0.030525044 -0.019768642 0.04259768
-0.024118323 0.041389078 -0.01931 -0.059949603 0.03597789 0.013551529 0.039407797 0.08781259
0.060345635 0.08379048 0.004730794 -0.076032765 -0.06200683 -0.05490452 -0.07789209 -0.044304438
-0.08136746 -0.08154844 -0.05281686 -0.087136224 -0.05425387 0.03370324 0.073720545 -0.026292248
-0.025710294 0.04719525 -0.043608237 -0.04179289 0.05445867 -0.07701291 0.010807663 0.07808067
0.015157408 0.024036663 -0.05147659 -0.0012194559 0.004859985 0.02169353 0.034342937 0.076803096
-0.06746678 0.0026494667 -0.044162024 -0.06992083 -0.007077931 -0.07780268 0.06168616 0.010236679
-0.04763761 0.0461899 -0.083653204 -0.034188543 -0.017219706 -0.07510802 -0.05620512 -0.0144266235
0.06706595 0.085352585 0.056238182 -0.052778803 -0.057825528 0.077135906 0.0312645 0.002348275
0.011961781 -0.07103743 -0.02951158 0.08508422 -0.021799413 -0.004433922 -0.073391594 -0.04944507
-0.0018048545 -0.054903254 -0.0109610045 0.03597045 -0.08645947 0.026252408 -0.058443096 -0.043138027
0.033933144 0.07027936 -0.024157299 -0.03628952 -0.07992391 -0.04557813 -0.0773961 -0.020229487
0.015673352 -0.08521976 0.07717306 0.053356055 -0.08890739 -0.04451287 0.029799117 -0.018160233
-0.011729654 -0.04212751 0.07099525 -0.049408928 0.07662037 0.003385399 0.015428146 0.06745867
-0.014563358 -0.050323315 -0.016612714 0.06937154 -0.065583035 0.020062426 -0.08686731 0.04413735
0.032656644 0.0037469813 0.035558555 -0.0018383572 0.04654642 -0.06997003 -0.01539596 0.03921036
0.0880186 0.045024265 -0.064273745 0.0679792 -0.019710448 -0.018872188 -0.080337025 -0.015340472
0.060183536 0.012325298 -0.05148214 0.027207002 -0.03040352 0.080698036 -0.079064064 -0.030140229
-0.08534545 -0.037171923 0.02786422 0.08281684 0.0076467614 0.084397964 0.017293368 0.05104745
0.0708576 0.071596414 -0.049473055 0.07893283 0.051213015 -0.042739414 -0.042179216 -0.0764962
0.019845499 -0.07164311 0.03506853 0.027912835 -0.07679199 0.024085902 -0.009549853 0.042491723
0.050716314 -0.09002125 0.08106086 0.07154409 0.03516828 -0.083194144 -0.03398442 -0.025615728
-0.022715623 0.04984423 0.0321354 0.0700194 -0.035443038 0.027484551 0.029093865 -0.07588129
-0.08806792 -0.045863748 0.060506035 -0.08556596 -0.07693621 0.049515203 0.047688074 0.07268993
-0.06914787 -0.06469141 0.045342043 0.076865174 0.05288618 0.0138462195 0.026858825 0.081595056
-0.059298743 -0.0424711 0.059538785 -0.06280515 -0.048738446 0.064522706 0.025221365 0.026433742
-0.039745025 -0.0035040732 0.08089591 -0.055266008 0.00069492776 0.03961296 -0.06284196 0.08343856
-0.046298645 -0.023548268 -0.02391526 -0.05990442 -0.08673236 0.04983791 0.023482496 -0.08278459

fc2.bias f4 [128]
00000000: 354a 9abd 793b 9b3d 8864 a0bd 5225 1abd
00000010: 6269 b9bc 3b5b 89bc d4ee 9dbc ed20 753d
00000020: f870 873d 41a8 b5bd 9ff2 a7bd 3a26 b1bd
00000030: 51aa 013e e7a3 2fbc 7b34 33bd 0883 f3bb
00000040: 6e45 3d3c 3f16 923c 1a7a 853d 437b 833d
00000050: 808e f73d 3d5c 71bd 1116 99bb 0c19 87bd
00000060: f5a0 02bd 23ca 59bc f903 4b3d 1dda 183d
00000070: 8a1c 4cbd 0f6e debc ec99 083d 408e ab3d
00000080: f38b 093e af82 b4bd 89cf d43c 90a9 3c3d
00000090: 646b 433d bc35 b0bd fa24 87bd da5f 203d
000000a0: db16 20bc 2db6 0f3d 97a3 933d 00d5 32bc
000000b0: e6c0 d4bc 5362 453d 6c9a 8dbd 4c34 dc3b
000000c0: 4061 5bbc 2f3d adbc 4c70 243d 5ef4 babc
000000d0: 3117 413b 74ac cd3c 6564 16bc 64d1 e8bc
000000e0: 9dbd ca3d 24c2 493d 5685 9abc b383 e73b
000000f0: 7b63 1ebd a482 353d b081 313d 4937 19bd
00000100: df83 9d3d 49a0 2abc 0358 203d a46a 8ebb
00000110: 2217 2eba a151 97bc b5cc 1c3c 7b2a acbd
00000120: ac2b 2a3d e58b 8dbd 0733 a8bd fdaf c1bd
00000130: 0bf9 bcbc 646d c83c 463a 173c 7174 aa3c
00000140: 2d68 3fbd 7cb4 dcbb 8557 dbbc 3021 8fbd
00000150: 9289 9fbc 450b 393d f1e3 683d eb6c a4bd
00000160: e11e 993d e7bf 223e a140 24bd 6c2f 9abd
00000170: 9673 533c 1f5d a33c fd97 c1bc 5d51 26bd
00000180: 00fe 58bb 7138 79bd 1afc 74bd aea2 e73c
00000190: 36c3 233c a228 a53c f3c9 8c3d c18f 61ba
000001a0: 9bc1 863d cc1f a93d dc3b 7bbd 26b1 503d
000001b0: 039e 453d 7a43 0abd 9509 113e 95fb 25bd
000001c0: 5235 69bd 87cf 6c3d 26f2 273d 50b5 9c3d
000001d0: 0efe 8ebd 55b1 243d f4c7 b13c 0a21 58bd
000001e0: 38d2 42bc c97c ba3d 7ddf 183d 0777 26bd
000001f0: 64f6 77ba 94ec ffbc 2df7 6e3d 8fca 8c3d
-0.07533685 0.07579703 -0.07831675 -0.037633248 -0.022633258 -0.016767135 -0.019278921 0.059845854
0.06613344 -0.088699825 -0.08200573 -0.08649869 0.12662627 -0.01072023 -0.04375122 -0.0074313916
0.011552198 0.017832873 0.0651743 0.06419995 0.120877266 -0.058925856 -0.00467182 -0.06596574
-0.03189178 -0.013292822 0.049564335 0.037317384 -0.049831904 -0.02715209 0.033349916 0.083767414
0.13432293 -0.088139884 0.025977867 0.046060145 0.047709838 -0.08603999 -0.065988496 0.03915391
-0.009771074 0.035085846 0.07208937 -0.010915041 -0.025970887 0.048189472 -0.06914219 0.0067201015
-0.013389885 -0.021147339 0.040146157 -0.022821601 0.0029463286 0.025106646 -0.009179209 -0.028420158
0.09899447 0.049257413 -0.018862408 0.0070652603 -0.03866909 0.04431404 0.04333657 -0.03740624
0.07691168 -0.0104141915 0.039146435 -0.0043462086 -0.00066410203 -0.01847154 0.00957029 -0.0840654
0.041545555 -0.069114484 -0.08212858 -0.09457395 -0.023067972 0.024466224 0.009230202 0.020807477
-0.04673021 -0.0067353826 -0.026775131 -0.06988752 -0.019474778 0.045176763 0.056858007 -0.08028587
0.07476593 0.15893517 -0.040100697 -0.07528576 0.012905976 0.019941865 -0.023632044 -0.040604938
-0.003311038 -0.060844842 -0.059810735 0.028275814 0.009995272 0.020160977 0.06874456 -0.000860449
0.06579896 0.08258018 -0.061336383 0.050950192 0.048246395 -0.033755757 0.14163812 -0.04052313
-0.056935616 0.0578151 0.041002415 0.0765177 -0.06982051 0.04020818 0.02170179 -0.052765884
-0.01189094 0.09105832 0.03732251 -0.040640857 -0.00094590173 -0.031240739 0.058341194 0.068745725

fc3.weight f4 [13, 128]
00000000: 5771 56bc 93c0 a7bc 5060 8cbd ab3e a0bc
00000010: 8357 223d d250 aebd 9b1c 093d ad8f ac3d
00000020: c1d4 1b3d c9f0 3f3d daf8 c3bc 8445 f4bb
00000030: 7100 06be 0b35 2fbd 62ee b53c a231 3cbd
00000040: 2e77 553d dbf2 2cbd 3ec5 063c 3e80 3ebd
00000050: af76 17be 9ed5 0abd db38 76bd b62e 8d3c
00000060: d70b 643c 7a5c 863d db0f 3d3d 8ffc a5bd
00000070: 03b2 0b3d 7be2 2c3d a95e c0bd 4621 14be
00000080: b4fe 2abe e3ae 33bd 6185 05bc 26ec b13d
00000090: 0756 983d b2bc b9bc 005f d73b dadf cb3b
000000a0: 8a95 0e3c 4b8f 75bd 978e 313c 0001 7f3d
000000b0: dd16 6d3c a357 a53d 481f a83d 92cb 10be
000000c0: 6fb4 a03d cbe7 8ebd 727c 2bbd 635d 5f3d
000000d0: eac2 5c3b 9953 9c3d 93f6 2b3d 6140 9abc
000000e0: d0a0 093d 3fe9 81bd c451 153c 311c 34bd
000000f0: bfcf 873d ceaf c73d f933 0e3d ec67 4abd
00000100: 6860 fc3b e03e 793d 3863 9fbd 176d 7dbc
00000110: 686b 0e3d 96db fbbb cbd7 023d a785 8139
00000120: dc34 b4bd b839 523c 5262 1aba 0216 83bd
00000130: 6a95 86bd ebed 093c f3fa 0cbd dcab 0d3b
00000140: e9c2 853d e242 33bd 6aa9 453d cc6d 7c3d
00000150: 02d2 453d 01c2 eabd fcc4 7c3c 807a 85bd
00000160: 2534 65bd bb23 d5bd eb9f 9c3d 2aa9 4a3d
00000170: 20f1 ca3c fee5 513d b8e2 acbd 41a7 acbd
00000180: c55f 163d d363 acbc a0a1 ec3c 4279 80bd
00000190: 8e63 ab3d 2b36 95bd 01eb 1f3d b3bb 3e3d
000001a0: fa71 22be fef4 c53c da0c 243d 939c 05bd
000001b0: ecf7 fbbc 4088 8a3d 8281 d0bd 1f6f be3b
000001c0: f8c8 283d f426 123d 1949 35bd e65b f8ba
000001d0: e895 db3c 0a9c 0c3d c139 28bd 2335 233d
000001e0: 54fe 9cbc 82aa 843b 3ea3 393d 6af2 823d
000001f0: 6ea1 44bc d94c 6b3d 5042 8b3d be46 cebb
00000200: 28af b6bb c0dc 8abd e7d4 72bd ea88 503d
00000210: 7586 65bd 112e 55bd 0885 6a3d 16e6 48bd
00000220: 8504 8cbd 4731 6a3c 8640 1c3d 1517 a4bd
00000230: e514 fcbc a198 8bbd febe 183d 28a5 debb
00000240: 89a5 f33c c840 c03d 6e2f 28bd 9afa 17bd
00000250: dcde d8bc e453 d93c 56ca 21bd 7036 79bd
00000260: ee74 dcbc 4b89 0e3d 53fc 183d be92 cebd
00000270: ad1a 993d 57ea 75bd e4db ccbc 6600 b7bd
00000280: 4332 f3bd 2015 963d 18a2 89bd a759 3e3d
00000290: b48e e33c f6e6 3abd f185 9b3d 8389 2ebd
000002a0: 041b 02ba 2265 ab3d c277 aabd 587e 953d
000002b0: 34a9 32bd 12ec 92bd a51a 4b3d 4b60 afbd
000002c0: 31c8 95bd 5d57 42bd 1c0c 723d a2bd a53d
000002d0: b1ec dabb 17ed 393d cc29 3d3b 5689 87bd
000002e0: f5a6 e1bb a0e5 803d 0a26 80bc 5dd2 59bd
000002f0: 0897 943d 6ab6 96bc 2690 973d 48b0 4f3d
00000300: 4bf8 993c 875c c03c 9c3a 1cbd be43 10bd
00000310: d284 4dbd 6f40 0fbd d68a 4abd b034 55bc
00000320: 6a07 b7bd c330 e9bc 6880 76bd 71fa adbd
00000330: 4a58 a53c 6dcf 243d 03d5 12bd 0f3f 6fbd
00000340: 5d0f 29bd 4371 dcbd 190d c2bd ceda bb3d
00000350: 5702 443d 4036 f43c b4a7 b3bd 9363 6fbd
00000360: 5a03 9c3d 9e7e c9bd c1be 5fbd 2ac9 96bd
00000370: df63 dc3c c242 41bc 7ce3 5cbd 3024 9a3d
00000380: 4938 55bd 10c3 1c3c b98a fb3c c93e 2d3d
00000390: da84 973d 5224 a8bc 9c06 223d 63d8 e5bb
000003a0: 2496 42bd 7031 d1bd 567a 473d d017 d43c
000003b0: 4c10 ca3c 7af3 ddbb 8eef a5bc 0fd8 aebd
000003c0: 6976 853d 48a0 823d 45f9 413d 221e 4bbd
000003d0: 19e9 a8bd 2ea5 d0bc 006e 91bd e774 2dbd
000003e0: 4fed 7e3d 9a94 3bbd c257 b43d 6180 36bd
000003f0: e39d 28bd ba14 91bd fce3 093d 2116 0cbc
-0.013088546 -0.020477569 -0.06854308 -0.019561132 0.03963424 -0.08511509 0.033474546 0.084258415
0.038044695 0.04686049 -0.023922373 -0.007454576 -0.13086106 -0.042775195 0.022208396 -0.04594577
0.05211561 -0.042223793 0.008225737 -0.04650902 -0.14791368 -0.033895127 -0.060112815 0.017234188
0.013918838 0.06560607 0.0461577 -0.08104812 0.034105312 0.042208176 -0.09393055 -0.14465818
-0.16698724 -0.043867957 -0.008149476 0.0868762 0.074382834 -0.022672985 0.006572604 0.0062217535
0.008702645 -0.059951108 0.010837219 0.062256813 0.014470783 0.08073356 0.082090914 -0.14140156
0.07846915 -0.06977805 -0.041866727 0.05453242 0.0033685514 0.076331325 0.0419832 -0.018829526
0.03360063 -0.06343316 0.009113733 -0.043972198 0.06631421 0.09750329 0.034717534 -0.049415514
0.007701922 0.060850978 -0.07782596 -0.015467904 0.0347704 -0.007686089 0.031944077 0.00024704376
-0.087991446 0.012831144 -0.00058892847 -0.06400682 -0.06571467 0.0084185405 -0.03441901 0.0021617329
0.06531317 -0.043764956 0.04825727 0.061628148 0.048295982 -0.114627846 0.015427824 -0.06517506
-0.055957932 -0.10407206 0.076476894 0.049477734 0.02477318 0.05124473 -0.08441681 -0.08430339
0.036712427 -0.021043694 0.028885663 -0.06273128 0.08368598 -0.07285722 0.039042477 0.046565723
-0.15863791 0.024164673 0.04005132 -0.032620024 -0.030757867 0.06764269 -0.10180952 0.0058115865
0.041207284 0.03568168 -0.044259164 -0.0018948286 0.02680488 0.034328498 -0.041070703 0.039845597
-0.019164242 0.0040486464 0.045321696 0.06393893 -0.012001378 0.057446335 0.067997575 -0.006295054
-0.0055750795 -0.06780386 -0.05928507 0.05091182 -0.05603643 -0.052045885 0.057255775 -0.049047552
-0.068367995 0.014293975 0.03814747 -0.08012215 -0.030771682 -0.06816221 0.03729152 -0.0067945905
0.02974202 0.09387356 -0.041060857 -0.037104227 -0.026473455 0.02652926 -0.039499603 -0.06084293
-0.026911225 0.0347989 0.03735001 -0.100865826 0.07475791 -0.060037937 -0.025007196 -0.08935623
-0.11874821 0.07328248 -0.0672037 0.046472218 0.027778007 -0.045630418 0.07593907 -0.04261161
-0.0004963132 0.08368899 -0.08323623 0.07299489 -0.043618396 -0.07173933 0.049585957 -0.08563288
-0.07313574 -0.047446597 0.05909358 0.0809281 -0.006681048 0.045392122 0.0028864024 -0.066179916
-0.006886358 0.062937975 -0.015643138 -0.053179134 0.072553694 -0.018397529 0.07400541 0.050705224
0.018795153 0.02348162 -0.03814183 -0.035220854 -0.050175495 -0.034973558 -0.04944881 -0.01301305
-0.08936961 -0.028465634 -0.06018105 -0.084950335 0.020183701 0.04023688 -0.035847675 -0.058409747
-0.041274417 -0.107637905 -0.094751544 0.09172593 0.047853794 0.029811025 -0.08772221 -0.05844457
0.07617827 -0.098386034 -0.054625276 -0.07362588 0.026903091 -0.011795701 -0.053927884 0.075264335
-0.05205563 0.009567991 0.030705797 0.042296205 0.07398386 -0.020525131 0.039557084 -0.0070143207
-0.047506467 -0.102145076 0.048700653 0.025890261 0.024665974 -0.0067734094 -0.02025583 -0.08537304
0.065167256 0.063782275 0.047356863 -0.049589284 -0.08247585 -0.025469389 -0.07101059 -0.042347815
0.062238034 -0.045796014 0.08805801 -0.044556025 -0.041166198 -0.070840314 0.03366469 -0.008550198

fc3.bias f4 [13]
00000000: c25d 2d3d e37a 87bd ce79 2abb 2981 e53c
00000010: 94af 003d 7cd3 9dbd 4f61 9ebd 2b0f d1bd
00000020: e793 d03c d3fa 53bd e9fe 6c3c 01ec 71bb
00000030: 72ae 9e3c
0.042325743 -0.06615236 -0.0026012543 0.02801569 0.031417444 -0.07706353 -0.07733404 -0.10207971
0.02546115 -0.051752876 0.014465072 -0.003691435 0.019370291
